models/best_checkpoint.pth (torch, 191285 bytes, 32 tensors)

weight f4 [16, 1, 5, 5]
000000 ad 74 64 be 5c c0 28 be f1 b4 8a be 05 74 db 3c
       -0.22310133 -0.1647963 -0.27091172 0.02678872
000010 00 b0 51 be 8a 85 27 3c e4 3c a2 3c 75 d2 81 3d
       -0.20477295 0.010224709 0.019804426 0.063389696
000020 a9 1a 3f 3e b3 59 1b 3e 97 9d 23 3e df 42 ad 3d
       0.18662514 0.15170936 0.15978085 0.0846002
000030 51 f1 87 3e 57 ff d1 3d b0 fc 90 bb e8 10 28 3e
       0.26551297 0.1025378 -0.004424654 0.16412699
000040 7e e0 a3 3e 0f fa ef 3e 6e 14 8d 3d a3 d8 c3 bb
       0.3200721 0.46870467 0.06888662 -0.005976753
000050 6c 7e 06 3e 74 58 93 3e 76 65 89 3e 46 ce 57 3e
       0.13134164 0.28778422 0.2683522 0.21074781
000060 0e 46 78 bd 45 a6 90 bd 1d be aa 3d 94 40 02 3e
       -0.060613684 -0.070629634 0.083370425 0.12719947
000070 19 b1 c6 bd c2 82 6f 3c 80 81 ad 3d 86 10 83 3e
       -0.097017474 0.014618577 0.08471966 0.25598544
000080 dc f8 7a 3e c7 34 d8 3c c3 1a c5 3d 76 7b c4 3b
       0.24508995 0.026392354 0.09624245 0.005996163
000090 ce 02 83 3e 06 b6 bd 3d b3 3a 8d bd 44 6a 05 bd
       0.25588077 0.09263234 -0.068959616 -0.032572046
0000a0 cd c5 70 3e 9d cc 57 3e 4a 87 77 3d ba 8f 1a be
       0.23512955 0.21074148 0.060431756 -0.1509389
0000b0 20 ae 2e be b5 2b 14 3e 70 e0 9f bd a2 d8 22 be
       -0.17058611 0.14469798 -0.0780648 -0.15902951
0000c0 65 01 96 be dd db e6 3c 26 77 ab bd 17 43 d2 bd
       -0.2929794 0.02818101 -0.08372335 -0.102667026
0000d0 df 13 02 be 71 b2 4d bd e0 06 ea 3b e1 73 68 bd
       -0.12702893 -0.050219003 0.007141933 -0.056751136
0000e0 30 f9 0d bd f1 94 57 be e1 12 4c bd 15 ac 1b be
       -0.03466147 -0.2105291 -0.04982269 -0.15202363
0000f0 91 d5 69 be 21 0d df bc a1 93 c7 bd a9 6c a8 bd
       -0.22835375 -0.02722794 -0.09744955 -0.0822385
000100 43 4c 2a be af 90 e6 3d 78 8f b7 bd ed 40 97 3d
       -0.16630654 0.11258065 -0.08962911 0.073854305
000110 77 05 17 bd 64 96 5c bd 36 64 0f 3d 5f 43 55 3d
       -0.036870446 -0.05385436 0.035007678 0.052066203
000120 7a 28 c8 bd 7d 5b 03 3d af 06 48 bd 09 3f 92 bd
       -0.09773345 0.032069672 -0.0488345 -0.07140929
000130 6f a1 3a 3d 5b 86 4c bd 1f cc b0 bc 3d 7d 8b 3d
       0.04556411 -0.04993282 -0.021581708 0.06810997
000140 61 d5 05 be 99 0c fc bc 17 dd d2 bd e9 aa 01 be
       -0.13069679 -0.030767726 -0.10296076 -0.12662853
000150 de 53 fa 3d ec 27 a2 bc ba 80 51 be 2c df 4a 3d
       0.12223028 -0.019794427 -0.20459262 0.04952924
000160 7f 8b c9 3d 58 19 e6 3c 1f e5 26 3e 17 4d f4 3d
       0.0984106 0.028088257 0.1629834 0.11928766
000170 75 52 a4 bb 35 40 77 3e 53 0a 96 3d 59 94 c1 3c
       -0.0050147125 0.24145587 0.07326188 0.023630308
000180 32 21 57 3e b5 cd 17 bd e7 a8 d6 bb 1c c1 61 bd
       0.21008757 -0.037061412 -0.0065508964 -0.055115804
000190 a7 4f 83 bd f4 6c e4 bd f2 d7 b6 3d 08 87 11 3e
       -0.06411677 -0.11153594 0.08927907 0.14211667
0001a0 09 76 22 be f1 ae 9b 3e 03 da 9e 3e e7 57 7c 3e
       -0.1586534 0.30406907 0.31025705 0.24642907
0001b0 3b 48 5e 3d d4 1b 92 3d 13 1e a1 3e 46 77 2d 3e
       0.054268103 0.07134214 0.31468257 0.1694003
0001c0 76 e2 10 bb 84 61 60 be 16 6d 25 3d 47 4d 89 3e
       -0.0022107637 -0.219122 0.040387236 0.2681677
0001d0 c9 db 52 3e 81 89 29 be 33 61 38 be 45 96 45 3e
       0.20591654 -0.1655636 -0.18005829 0.19295605
0001e0 70 c3 16 3d 79 12 e5 3c ae 9f 5a 3e 9f 71 a5 bd
       0.036807477 0.02796291 0.21349975 -0.08078312
0001f0 43 75 b6 3d 0b c5 8d be f5 ec 66 be 05 a7 80 be
       0.08909085 -0.27689394 -0.2255133 -0.25127426
000200 b6 21 5c 3e 1e e9 86 3e bf 50 91 3d 4d af 24 be
       0.21497235 0.2634973 0.07095479 -0.16082497
000210 ce 4d 5b bd 51 75 76 3e 80 9c 2e bd ac da cf bd
       -0.053540997 0.2406819 -0.04262972 -0.1014913
000220 98 e0 19 bd a4 01 0a be 8f c0 06 3e 5b 28 7e 3e
       -0.037567705 -0.13477188 0.13159393 0.24820082
000230 8d 38 33 3d de e0 4a 3d fb f9 32 3e 3a ee 93 3d
       0.043755103 0.049530856 0.17478172 0.072231725
000240 7b b7 05 3e 88 30 ec bd 26 4f 0f 3e ac 45 d5 bd
       0.13058273 -0.11532694 0.13995036 -0.104136795
000250 ad 90 4a 3e 32 61 dc bd f3 52 af 3d 85 4e 74 3d
       0.19781752 -0.10760726 0.08560743 0.059645195
000260 30 8b 56 be 57 fd 99 bc 0a ea 3f be 76 02 95 bd
       -0.20951533 -0.01879756 -0.18741623 -0.0727586
000270 5d cd 4d 3d 6e ae 5b be 55 c7 24 be 86 23 3d bb
       0.050244678 -0.21453258 -0.16091664 -0.0028860285
000280 a2 2e 6c be 44 91 d1 bc d5 d8 3b bc 23 bb 16 be
       -0.23064664 -0.025581963 -0.011465271 -0.14719824
000290 fb 56 7c 3c 27 6b df 3a fc 56 af bc f4 91 8f be
       0.015401597 0.0017045484 -0.021403782 -0.2804104
0002a0 3c ae 74 3d 5a 58 49 3e ad bf 00 be fa 2d 69 be
       0.059736475 0.1966261 -0.12573119 -0.22771445
0002b0 53 54 cd bd 49 c1 ba 3d 5a 07 73 3e 0e 89 d4 bd
       -0.10025849 0.091188975 0.23733273 -0.103777036
0002c0 3b 7e 10 3e 20 c7 93 3e fc 22 bc 3d 12 b6 45 be
       0.14110653 0.28862858 0.0918636 -0.19307736
0002d0 2d 1a 45 be 63 ca 46 3c 33 af 51 3e 57 bf 90 3e
       -0.19248267 0.012133214 0.2047699 0.2827098
0002e0 bc 95 a7 3d e6 e5 23 be 6c 14 50 3e ea 2c 34 3d
       0.081828564 -0.16005668 0.2032029 0.043988146
0002f0 16 1e 77 3e f4 92 7e 3a d6 07 a8 3c 7f 18 15 ba
       0.2413257 0.0009711229 0.020511549 -0.0005687549
000300 ea 4e 8f 3e c7 03 73 3e 90 44 77 3d 82 9d 10 3e
       0.27989894 0.2373191 0.06036812 0.14122584
000310 60 fd 65 3e 7c 1e 07 be d3 a6 3a be ee 60 24 be
       0.22459936 -0.13195223 -0.18227701 -0.160526
000320 1f f2 3c bd a4 a8 8e 3d e2 9d 77 3d 85 92 64 3e
       -0.046129342 0.069657594 0.060453303 0.22321518
000330 3f 77 7f 3d ea 2a 04 be 19 8e d3 3b 98 48 0a 3e
       0.06236958 -0.12906995 0.0064561483 0.13504255
000340 27 f7 c8 bd 35 70 8d bd c1 69 10 be 53 f2 cc bd
       -0.098127656 -0.069061674 -0.14102842 -0.10007157
000350 e6 08 da 3d 33 5e 3d be 9d a3 43 be ea c7 15 3e
       0.106462285 -0.18492965 -0.19105382 0.14627042
000360 25 17 ba ba 78 2e ed bc eb c4 c8 bd 37 20 21 be
       -0.0014197571 -0.028952822 -0.09803184 -0.15734945
000370 a8 4d d7 bd 84 d7 27 3e de f8 4f bd fa 56 c1 3d
       -0.10512859 0.16390806 -0.050774448 0.094404176
000380 25 5d 18 be 4e 91 4d 3e 7b 02 81 3e e7 78 a0 3e
       -0.14879282 0.2007496 0.25197205 0.3134224
000390 30 ea cd 3e cf 13 14 3e 61 79 1d 3c fd fb 30 3e
       0.40217733 0.14460681 0.0096114585 0.17283626
0003a0 7d fd 72 3e fa 87 c0 3e 98 4f 23 3e ea 87 6c bd
       0.2372951 0.37603742 0.15948331 -0.057746805
0003b0 22 2a 94 be dd c8 80 be bd b8 03 be 42 74 61 3e
       -0.28938395 -0.25153247 -0.12863441 0.22017005
0003c0 19 9e 98 be d7 02 1e be be 6d 32 be bb 6f 9a bd
       -0.2980812 -0.15430771 -0.17424676 -0.07540842
0003d0 e8 ea 8a 3d 5a a3 f8 bd 32 d8 67 be b7 0f 73 be
       0.06783086 -0.12140532 -0.22641066 -0.23736463
0003e0 99 4b 42 bd cd b0 0b be b3 83 9f 3e 74 72 5f 3e
       -0.047435377 -0.13641663 0.31155166 0.21821004
0003f0 f6 f8 7f be 65 fd 6c be ce fc 8b be 51 6f 93 3e
       -0.24997315 -0.23143537 -0.27341312 0.28795865

bias f4 [16]
000000 cf fd ae 3e 43 39 bc 3c 50 62 72 3e 85 1e 25 be
       0.34178016 0.022976523 0.23670316 -0.16124924
000010 28 3d 3d 3e 03 5c 0b be 78 73 9a bb 63 41 66 bd
       0.1848036 -0.13609318 -0.004713472 -0.0562147
000020 6f b6 52 3c a8 36 b2 bd c0 62 41 3b a2 3a f8 3d
       0.012860878 -0.08701831 0.0029508322 0.12120558
000030 1a 19 cb bd e5 eb d2 3d 0e ea 8d 3d 95 04 17 3e
       -0.09916897 0.102988996 0.06929408 0.14747842

weight f4 [32, 16, 5, 5]
000000 76 3b 98 3b eb cf e7 3d cb 68 3d 3d f7 38 a3 bd
       0.00464576 0.11318954 0.046242516 -0.079698496
000010 0e 1f 9a 3c 91 d1 84 3d 66 45 39 3d cb 85 9f 3b
       0.018813636 0.06485284 0.0452322 0.0048682443
000020 bb db 03 bd e7 93 b4 3c 21 68 61 3c b4 83 5a bd
       -0.032191973 0.022043182 0.013757736 -0.05334826
000030 80 ad 6c bd 66 2a 96 3a 39 59 9c bc f9 24 a3 bb
       -0.05778265 0.0011456728 -0.019085513 -0.0049787727
000040 5a ac 3a bd 43 d3 88 bc dc ea b7 3c ab 6b 60 bc
       -0.045574524 -0.0167023 0.022450857 -0.013697545
000050 fc 82 6e bd 81 5e 8c bc f8 a6 bd 3d 01 ae 6f 3d
       -0.058230385 -0.017134907 0.092603624 0.058515552
000060 5e 45 32 bd 10 aa 0b 3d 9f 64 d7 3c 01 5a c0 3d
       -0.043523185 0.03409773 0.026293097 0.09392167
000070 ab af a3 3c d8 67 5e bd 62 b8 5d 3c f4 99 91 3d
       0.019981226 -0.054298252 0.01353273 0.07109442
000080 65 1b d8 bb aa 98 55 bd d6 00 f3 bc 82 88 03 bd
       -0.0065950626 -0.052147545 -0.029663485 -0.032112606
000090 d2 05 91 bc 41 6a 04 bb 61 9d 89 bd ad 82 b5 3c
       -0.01770297 -0.0020204934 -0.06719471 0.022157038
0000a0 6f dd 30 bd c7 90 97 bc 04 31 4f bd d1 82 48 ba
       -0.043179926 -0.018501652 -0.050583854 -0.00076488877
0000b0 79 41 4d bd df 99 2b 3d 2d 72 d2 bc a3 6b 63 bd
       -0.050111268 0.04189479 -0.025689209 -0.055522572
0000c0 ab f6 b2 3c 66 ba dd bc a2 43 61 bd ee 23 65 bd
       0.021846136 -0.02706642 -0.05499614 -0.05594247
0000d0 c5 16 66 bc b0 b1 c2 bb fe 61 5f 3b 71 62 b9 3c
       -0.014043515 -0.005941592 0.0034085508 0.022629948
0000e0 8b fd 60 bd 62 c9 87 bc e8 47 0e 3d 75 84 e9 3c
       -0.054929297 -0.016575519 0.034736544 0.028505543
0000f0 fa df bc 3c a3 17 3e bd a0 61 ce 3c d1 cf fd bc
       0.02305602 -0.04640926 0.025193036 -0.030982884
000100 9d 07 c3 bb 0a e8 17 3d 8c cc 5b bc 32 1d 32 3d
       -0.0059518353 0.037086524 -0.013415467 0.043484874
000110 e0 39 10 3d 1e 50 21 3c 87 4b f2 3c 57 95 5f 3c
       0.035211444 0.009845762 0.02957703 0.013646445
000120 40 b1 68 bb a1 dc 8f 3c c6 c2 22 3c b6 74 9a bc
       -0.003550604 0.017561259 0.009934133 -0.01885448
000130 08 0f e6 3b c8 cf 1c 3d 39 81 76 3c bc 13 2f bd
       0.007020835 0.038284093 0.0150454575 -0.04274343
000140 a4 f5 4d 3d c6 b5 68 ba 3c c3 f2 bc 90 3a a3 3c
       0.05028309 -0.0008877184 -0.02963411 0.019925386
000150 b5 1b 21 3d 8d 06 c9 3c 16 29 c9 3c 0f 04 a5 ba
       0.039333064 0.024539256 0.024555724 -0.001258971
000160 23 96 0e 3d fa 13 50 bd d2 b3 44 bd d7 af b8 bb
       0.03481115 -0.0508003 -0.048023053 -0.005636196
000170 77 ea 4d 3d 3b ee e2 bc 38 54 65 bd d1 0d 17 3c
       0.05027243 -0.027701488 -0.05598852 0.009219603
000180 95 97 b0 3c ae ed 2c ba 60 79 27 3d 64 69 d4 3c
       0.021556655 -0.00065966963 0.040887237 0.02592916
000190 69 10 0b bc d3 c8 45 3d 9f d9 aa 3d d3 97 fd 3a
       -0.008487799 0.048287224 0.08342289 0.0019347615
0001a0 6c 7c 40 bd d0 5c 84 bc 6e ce 24 3d 00 94 af bc
       -0.046993658 -0.016157538 0.04023593 -0.021432877
0001b0 a2 c6 3b bd e7 d8 6f bd d8 d8 45 3b b3 be 10 3d
       -0.045843728 -0.058556464 0.0030189063 0.035338115
0001c0 93 e8 5a bc 0a 42 66 bd 09 7b 70 bc 67 30 87 3c
       -0.013361114 -0.056215324 -0.014677771 0.016502572
0001d0 ed 0a 22 bd 0b 83 64 bd 12 57 8b bc 4a 0e 0c bd
       -0.0395612 -0.055789035 -0.017009292 -0.034193315
0001e0 2b b2 6b bd b9 a4 d5 bc d2 7d 35 3d 90 47 a3 3c
       -0.05754296 -0.026079522 0.044309445 0.019931585
0001f0 e0 7d 13 bd e7 e5 8d 3d 8e a1 ea bb aa 39 33 3d
       -0.036008716 0.06928616 -0.007160372 0.043756165
000200 d3 7e 2f 3b de 8a b7 bb d8 eb 46 3d 1e ab 17 3d
       0.0026778474 -0.005601271 0.048564762 0.037028424
000210 2b 5d 1a 3d 80 5d 08 bd 8e 26 d7 3c eb 95 4b 3d
       0.03768651 -0.033292294 0.026263501 0.04970352
000220 6b f3 dc bc 61 99 0a bd 3d 1a c9 bc e5 09 ce bc
       -0.02697154 -0.03383768 -0.024548644 -0.025151202
000230 fb b4 63 bb ca e0 98 bc ee 9f 2b bd 37 75 2c bd
       -0.0034745324 -0.018661875 -0.041900568 -0.042103972
000240 9f 3f 37 bd 84 4b 05 bc 8e 52 06 3c 05 f7 5f bc
       -0.04473841 -0.00813568 0.0081983935 -0.013669734
000250 f1 c2 6b bb 2e 12 4c 3c 6f 22 85 3d 1b 0f 20 bd
       -0.0035974348 0.012455506 0.06500708 -0.039076906
000260 d0 5f a6 bc d2 f4 ef 3c ad e3 79 3c ad e6 4d 3d
       -0.020309359 0.029291544 0.015252036 0.050268818
000270 d3 07 8f bc de 9a 58 3d 77 3f e6 3c 93 3b ae bc
       -0.017459786 0.052882068 0.028106434 -0.021268642
000280 d1 e5 3c bd 82 61 48 3d b7 d1 6b 3d 34 ce 03 bd
       -0.046117608 0.048921116 0.057573047 -0.032179072
000290 e5 14 df 3c 60 0f 48 3d 2f a5 10 3d f5 39 ec 3c
       0.027231643 0.048842788 0.03531378 0.02883623
0002a0 e8 99 05 bd 3f 5b b0 3c e7 11 c0 bc 76 a0 5c bc
       -0.03261748 0.021527885 -0.023446037 -0.013465991
0002b0 2a 38 c5 3c 8c bf fa 3c c3 d5 b8 bc 2d 3d 30 3d
       0.024074633 0.030608915 -0.022562867 0.04302709
0002c0 d5 6b cb 3d df d9 8a 3d 59 da 07 bd 9c e4 1b bc
       0.09932677 0.06779837 -0.033167217 -0.009514954
0002d0 89 ed 3a bc 28 70 18 bc 80 d2 37 3c 7e 83 4a bd
       -0.011409172 -0.009304084 0.011219621 -0.049441807
0002e0 9f 41 57 3d ae 4e 68 bc eb 89 08 3d b7 74 a4 bd
       0.052552816 -0.014178915 0.033334654 -0.08030074
0002f0 97 72 90 bd 39 04 c7 3c 69 c1 0b 3c 62 a2 8e bd
       -0.07053106 0.024294006 0.008529999 -0.06964566
000300 04 1b 76 bd e3 33 7b bd 09 c5 54 bd bc 72 0c bd
       -0.060084358 -0.06132878 -0.05194572 -0.034289107
000310 78 4c 3e 3c 9d 02 21 bd 89 f3 f1 bc b7 0e 06 bc
       0.011614911 -0.039309133 -0.029535072 -0.008182219
000320 5a 56 57 3c 04 21 55 39 23 94 a2 bb 33 69 6f 3c
       0.013143146 0.00020325562 -0.004961507 0.014612484
000330 54 21 e0 bc 1b bc 25 bd 1a 24 16 bd cb 8e 38 3d
       -0.027359642 -0.040462594 -0.036655523 0.045058053
000340 f5 55 02 3a ca 79 5e bb b7 1d a5 3a 92 12 07 bd
       0.0004971915 -0.0033947104 0.0012597357 -0.032976694
000350 7b 48 0c 3c 66 55 3c 3b b8 03 74 bc c6 95 e6 3c
       0.008562203 0.0028737425 -0.014893465 0.02814759
000360 a3 f4 98 bc a2 6a aa bc d0 20 41 bc d3 da a7 bc
       -0.01867134 -0.0208028 -0.011787608 -0.020490086
000370 8d f5 2a 3d ab fd 46 bd 66 f6 e5 3c 15 ec 4c 3d
       0.04173808 -0.04858176 0.028071593 0.050029833
000380 b7 79 14 3d 31 b7 89 3c 9b 99 ec 3c 2d 50 14 bd
       0.03624889 0.016810985 0.028881839 -0.036209274
000390 d8 60 5e 3d 5a 72 d6 bb 67 f9 13 3d a9 8e be bc
       0.054291576 -0.0065443935 0.03612652 -0.023261385
0003a0 39 f5 1b 3b 11 bc 26 bc ef 83 80 3d ac 55 18 bd
       0.0023797287 -0.010176674 0.06275164 -0.037191078
0003b0 a9 a3 dd ba b6 71 a2 3c a5 00 8c bd 5a c1 f6 bc
       -0.0016909736 0.019829612 -0.068360604 -0.030121494
0003c0 6c e9 60 bd 2a a5 8c bd 10 e7 a1 bc 51 e6 c8 bc
       -0.05491011 -0.0686744 -0.0197635 -0.024523886
0003d0 ba 7a f6 3b 5e bd c0 3c 8a f4 ed 3a 3a e3 14 3d
       0.0075219544 0.023527797 0.0018154543 0.036349513
0003e0 33 82 e5 3c f7 61 14 3d 96 6b 1e bd de 6d 68 bd
       0.028016185 0.03622624 -0.03867682 -0.056745403
0003f0 72 8f 5a 3d 9a 7a 4c 3d db ac 47 3d 64 ad b1 3a
       0.053359456 0.04992161 0.048748832 0.0013555703

bias f4 [32]
000000 b9 7a 28 3a 93 28 70 bc 62 8f a7 bb cb ce 90 3c
       0.00064269785 -0.014658111 -0.005113528 0.017676732
000010 83 6c 1d bc 25 8c 22 bd 95 13 24 bd 1d 6e 18 3d
       -0.009608391 -0.039684433 -0.040057737 0.037214387
000020 16 67 a2 3c 89 7c d0 bc 2b f5 04 3d 0e 46 ed bb
       0.019824546 -0.025450008 0.032460373 -0.007241017
000030 93 90 57 3c 9f 61 80 bd 6f 3e d1 bc ed 16 08 3d
       0.013157028 -0.0626862 -0.025542466 0.03322499
000040 99 f7 50 3d ec fc d5 bc d5 9f 0e 3d 9e 6d 21 bd
       0.051017378 -0.02612158 0.034820396 -0.03941118
000050 49 39 34 3c d3 1f 53 bd 37 cd 25 3c 73 61 03 bc
       0.010999986 -0.05154402 0.010119728 -0.008018839
000060 86 59 16 3d d0 62 2b 3d 04 62 d0 3c b5 37 23 bd
       0.03670647 0.04184228 0.025437362 -0.03984805
000070 ea 96 e1 bc 68 bb 8b bc c0 e0 46 bc 92 21 09 3d
       -0.027537782 -0.017057136 -0.0121385455 0.03347928

weight f4 [50, 512]
000000 5d 4b 01 3d 10 7b db 3c 97 22 8a 3d 10 cd 37 3d
       0.031566013 0.02679208 0.06744879 0.044873297
000010 6f e2 ab bc 52 04 5c bb 44 9a 25 bd ea 5d 7e 3c
       -0.020981995 -0.003357191 -0.040430322 0.015525321
000020 4f 28 d2 bc 69 5c ab bc 07 9d 98 3b ee 9a 83 bc
       -0.025653986 -0.020918088 0.004657391 -0.016065087
000030 9d 38 b4 3c 7d 1f ea 3c b8 f1 d4 bb 9b 76 ce bc
       0.021999652 0.028579468 -0.0064985417 -0.02520304
000040 35 cf c6 bc 68 c8 24 bd 7d a6 7f 3d 6b 89 47 3d
       -0.024268726 -0.040230185 0.062414635 0.048715036
000050 f2 9b 44 3d 2b 8a 3c bd ff 2e db 3b d9 fd 6b bd
       0.048000284 -0.046030205 0.006688952 -0.057615135
000060 e9 8b 40 ba af 29 d6 bc 7a d3 42 3c 4e 43 f2 bc
       -0.0007345067 -0.026142923 0.01189124 -0.029573109
000070 9d 08 88 3c d9 32 7e 3d 3f e6 04 3c b4 a5 b5 bd
       0.01660567 0.06206021 0.008111536 -0.08869496
000080 20 b0 d2 bc de 78 aa bc b0 cb 20 bd e2 b3 fc 3c
       -0.025718749 -0.020809587 -0.03925675 0.030847494
000090 c6 93 2b bb e2 23 3d bd ec aa 78 3b 8f 55 94 3d
       -0.002618061 -0.0461768 0.0037943674 0.072428815
0000a0 2d f7 3a bc 90 dc 48 bd 4a c0 3a bc 71 cd ea 3c
       -0.01141147 -0.04903847 -0.011398384 0.028662415
0000b0 77 e4 f4 bc 7b 54 a7 3b 35 bb 97 3c 49 fe 66 3c
       -0.029894097 0.0051065064 0.018521884 0.014098712
0000c0 cd 3f a5 bb be 21 74 3d 43 f1 67 bc ae 20 96 bc
       -0.005043006 0.05960249 -0.014156642 -0.01832613
0000d0 15 af 53 bd c0 78 d4 3c a1 b2 8e 3c 2c ba 26 3d
       -0.051680643 0.025936484 0.017419161 0.04070489
0000e0 ed 10 5a 3c 77 dc 90 3a 3f 86 b8 bc 9d 0e 0d 3b
       0.0133096995 0.0011052032 -0.022524951 0.0021523603
0000f0 94 71 82 bb 51 70 09 bd 6f 01 5a 3c 08 f2 13 3c
       -0.0039808247 -0.03355438 0.013306006 0.009029873
000100 c7 57 b8 bc 29 8c d7 bc c6 f5 15 3c 64 19 e0 3d
       -0.022502793 -0.02631195 0.009152835 0.10942343
000110 63 30 93 bd da c7 ce 39 f1 9e 9f 3d d3 66 bf 3d
       -0.071869634 0.00039440283 0.077939875 0.09345784
000120 6f 62 65 bd fa 7e 9a bc 67 56 7e bb 6d 16 97 3c
       -0.056002077 -0.018859375 -0.0038808824 0.01844331
000130 ee 03 a7 bd 9b 53 db bc ee 09 b3 3b d7 f6 5a bd
       -0.081550464 -0.026773265 0.00546383 -0.05345806
000140 b3 f0 2f 3d 73 0e 0e 3c dc 46 3b bd f6 d4 21 bd
       0.042954158 0.008670437 -0.045721874 -0.039509736
000150 89 58 1b bd c2 4d 3f 3d 67 de 65 3b f5 12 21 bb
       -0.03792623 0.046705015 0.003507519 -0.002457795
000160 d6 fd 2b 3d 73 e4 87 3c 58 29 05 bd b5 30 02 39
       0.041990124 0.016588425 -0.03251013 0.00012415911
000170 77 f3 b3 ba 53 88 88 bb 12 75 2c bd e7 fb 2b bd
       -0.0013729174 -0.0041666417 -0.042103834 -0.04198828
000180 2b 3b 14 bd 91 52 9b bc 2e c2 c5 3d ca 0c df 3d
       -0.03618924 -0.01896027 0.096561775 0.10891111
000190 05 0e 6f bd 5f eb 02 bd 4c af ca 3c f0 89 a1 3d
       -0.05836298 -0.03196275 0.024741791 0.078876376
0001a0 06 ba 62 bc e3 5e 2e bd 41 9a 1e 3c 44 51 03 bd
       -0.013838297 -0.04257096 0.009680332 -0.032059923
0001b0 4c e4 51 bd fa ca ad bc 04 4e d7 3b 96 20 a6 bd
       -0.05124311 -0.02121495 0.0065705795 -0.08111684
0001c0 bc c2 d0 bc 56 1c 77 3c 08 36 8b bc 34 bc 8d bb
       -0.025483482 0.015082439 -0.016993538 -0.004325414
0001d0 60 3e d3 3c 1a be 9f 3c c8 5f 03 bc 99 d3 a1 bc
       0.025786579 0.019499827 -0.0080184415 -0.019754218
0001e0 0a 8f 0e bd c9 5e 97 bb 51 82 3b 3c 3a 75 7f bc
       -0.03480438 -0.0046194536 0.011444644 -0.015591914
0001f0 22 52 14 3d 9b f4 56 3d 7b bf f1 bc 43 11 90 bc
       0.03621114 0.052479368 -0.02951025 -0.017586356
000200 2a 50 49 ba 56 d4 a8 bc 43 55 c8 b7 73 95 0b 3c
       -0.0007679487 -0.020609062 -2.3881561e-05 0.008519518
000210 f1 b7 81 3c d8 73 03 bc c2 ce 20 bd 5f ff 06 3d
       0.01583478 -0.008023225 -0.03925968 0.032958385
000220 0c ba 07 3b e0 47 be 3c 5c 60 24 bd 84 32 4f bc
       0.0020710258 0.023227632 -0.040130958 -0.012646321
000230 f7 e7 cf bc 42 01 20 3d f1 20 39 3c 21 20 09 bc
       -0.025379164 0.0390637 0.011299358 -0.008369477
000240 f2 ca b4 bd 46 63 fc 3c 84 b9 94 3c 54 2c 27 3d
       -0.08827771 0.030809056 0.018154867 0.04081376
000250 a1 68 2f bc 62 7f 1e 3c 3a eb df bc b6 81 50 3d
       -0.010706098 0.009673925 -0.027333844 0.050904952
000260 6d 52 2d bd 7f a3 48 bd 52 c1 81 bb e1 d6 61 3d
       -0.042314935 -0.048984047 -0.003959813 0.055136565
000270 08 a8 3d 3c 42 f8 31 3c 7f 3f 84 bc 19 1d 8d bc
       0.011575706 0.010862412 -0.016143559 -0.017225789
000280 d2 27 a4 bd 43 22 c2 bc f3 15 92 3c e6 cc f8 3d
       -0.080154076 -0.023697978 0.017832732 0.12148456
000290 99 05 3d bd 91 9b a3 bc f0 01 06 3c a3 c2 47 3d
       -0.046147916 -0.01997164 0.008179173 0.048769604
0002a0 2f 44 6a bb 98 99 73 bd 06 19 09 3d 55 b7 40 3d
       -0.0035746207 -0.05947265 0.03347113 0.04704984
0002b0 ec 7f da bc ca 56 bc bc f9 94 18 3d ce 83 16 bd
       -0.026672326 -0.022990603 0.037251446 -0.036746792
0002c0 44 98 d1 bc 30 db 9e bc 2e e5 cc 3c 36 ce 91 3b
       -0.025585301 -0.019391626 0.025011625 0.004449631
0002d0 21 54 9a bd 05 1b e6 bc 86 6b 9c 3c 61 ca 50 3d
       -0.075355776 -0.028089056 0.01909424 0.050974254
0002e0 e8 41 76 bd 2d 68 78 3c 75 e8 e7 bc d3 b3 79 3d
       -0.060121447 0.015161556 -0.028309086 0.06096251
0002f0 da ac b6 3c 1c 8c 40 3c 8f 34 28 bd 83 23 14 bc
       0.022299219 0.011752155 -0.04106575 -0.00904167
000300 09 19 45 3d 47 c6 09 bd 3e 31 46 bd 6d 4f 8e bd
       0.04811958 -0.033636358 -0.048386805 -0.06948743
000310 f6 cc 8e 3d bd 0c 79 3c c2 90 8e bd 38 da 83 bd
       0.06972687 0.015200791 -0.06961204 -0.06438106
000320 fe ea 1b 3c 21 70 b6 3c 65 0b 26 bc cb 50 08 3c
       0.009516476 0.022270264 -0.010134553 0.008320044
000330 45 2e 76 3d 7f 26 51 3d 0b ac f5 bc 2e 77 de bc
       0.06010272 0.051062103 -0.029989263 -0.027156439
000340 2b 00 31 bd 9f f3 65 3c d6 cd 60 3b c7 1b 8b 3b
       -0.04321305 0.014035135 0.0034302375 0.0042452547
000350 fa 5c e3 bc 39 5f 1d 3d 08 bc 2b b9 2b 67 b0 3c
       -0.027754296 0.03842089 -0.00016377878 0.02153357
000360 5d 66 57 bd 00 e9 2f bb 7c f8 c1 39 17 1f 5b 3c
       -0.052587856 -0.002684176 0.00036996964 0.013374112
000370 6b da 02 bc 4d 4e a7 bc b2 ac 3f 3c d9 6b 36 bc
       -0.007986645 -0.020423079 0.011698889 -0.011134111
000380 8b f2 2e 3c aa d1 7b 3d 5b 28 65 3c 0c 23 2a 3c
       0.010677944 0.061479248 0.013986672 0.010384332
000390 8a 0a 23 ba c6 e5 59 3b 27 2f 70 bc e2 e7 fe bc
       -0.0006219527 0.0033248528 -0.0146596795 -0.03111643
0003a0 45 93 11 3a 2a 72 04 bd 82 02 60 bc 4b 56 a9 bc
       0.0005553256 -0.032335438 -0.013672473 -0.02067103
0003b0 1f a1 1e bd ff d9 84 3d f4 b8 5b 3d 1d 0d f3 3c
       -0.038727876 0.06486892 0.053643182 0.029669339
0003c0 93 15 cd bb ff 4d 9e bc 8c 93 06 bc cd 37 0e bc
       -0.0062586754 -0.0193243 -0.008213889 -0.008680296
0003d0 18 42 97 bd 41 28 3d 3d 63 1f 54 3c ee 10 56 3c
       -0.07385653 0.046180967 0.012946936 0.01306556
0003e0 11 12 99 bc 24 1b 3a bd f2 fa ae 3c 57 d8 e9 bc
       -0.018685373 -0.04543604 0.021359894 -0.028545542
0003f0 5f 0d ab bc 1b 7a 16 bd 58 29 88 3d cc e3 c9 3c
       -0.0208804 -0.036737543 0.06648511 0.024644755

bias f4 [50]
000000 8f 8b 91 3d 8f 86 a2 3c c5 1f f1 3c cd cd a3 bc
       0.07106697 0.019839553 0.029434094 -0.019995594
000010 42 7e d8 3c b7 c5 f3 3c 7f 73 25 3d 84 28 95 bc
       0.026427392 0.029757364 0.04039335 -0.018207796
000020 dd f0 cf bc 00 16 f1 3c bb b1 b4 bc 68 e6 75 3d
       -0.025383407 0.029429436 -0.022057405 0.060034186
000030 ee 42 cc bb 3c bc 11 bc 73 d4 fe 3c b0 6d 52 3d
       -0.0062335646 -0.008894976 0.031107163 0.051374137
000040 80 6b 88 3d c3 f1 05 bd e7 0d a1 bb b7 79 3a 3d
       0.06661129 -0.032701265 -0.0049149874 0.045526233
000050 f3 a3 27 bd 99 93 6e 3d a9 c8 42 3b 28 4e f2 3c
       -0.04092784 0.05824623 0.0029721654 0.029578283
000060 d6 fe f6 bc 4a b8 5e 3d e7 50 2f 3c 37 05 dd bc
       -0.030150812 0.05437497 0.010700441 -0.026980026
000070 0f 3b 59 3d 5e 65 0c bc 96 2c 62 3c e5 6e 86 3c
       0.05303484 -0.00856909 0.013804575 0.0164103
000080 e3 b9 00 bd 6a f4 a4 bc 24 5c 6d 3c 0e ce 5b 3b
       -0.031427275 -0.020136077 0.0144873 0.0033539566
000090 73 55 7b bc 07 03 db 3c 97 5e 52 3d e2 4c 26 3d
       -0.015340197 0.026734842 0.05135974 0.040600665
0000a0 0c 4e 52 3d cb 70 b7 bc 18 1c 8a bc c2 43 20 3d
       0.051343963 -0.022392651 -0.0168591 0.03912712
0000b0 66 23 b8 bc ee eb 02 bd ec 71 b1 bc ef 46 a9 bc
       -0.022477817 -0.03196328 -0.021660767 -0.020663707
0000c0 04 15 99 bc 13 cb c4 ba
       -0.018686779 -0.0015014134

weight f4 [10, 50]
000000 73 dd 55 bd a7 45 0b bd a1 65 89 be b3 8a 03 be
       -0.052213144 -0.034001973 -0.2683535 -0.12845878
000010 5e 12 ae 3c 5b 86 11 be a4 94 a3 bd ad 0c 0e 3e
       0.021248993 -0.14211409 -0.07987335 0.13872023
000020 c8 fb 18 be 46 b2 db bd fb ed 18 3e 9a 98 00 be
       -0.14939797 -0.10727362 0.14934532 -0.12558213
000030 88 2f 08 be 92 b5 a9 bd 72 b5 04 3d 4a 18 1e be
       -0.13299382 -0.08286585 0.032399602 -0.15438953
000040 54 f9 71 bd 92 38 15 3e cd 71 e9 bd ec cc 0c 3e
       -0.05907567 0.14572361 -0.11398659 0.13750046
000050 93 98 0d bd 0f 79 5a be f0 9b 41 3e ad 05 36 be
       -0.034569334 -0.21335243 0.18907142 -0.17775603
000060 d0 d6 7d be 54 72 46 be 69 5a 2d 3e 0b 51 4c 3e
       -0.24788976 -0.1937955 0.1692902 0.1995279
000070 86 70 6e 3e ed 74 ef 3d 11 a6 29 3e f1 d9 5b be
       0.23285112 0.11692224 0.16567256 -0.21469857
000080 09 6b b7 bd e8 60 e8 3d 48 e6 b1 3d 69 1e 5d 3e
       -0.08955962 0.113466084 0.08686501 0.21593632
000090 54 a7 64 3e 98 01 0f 3e 34 db 00 be e8 2a 39 3e
       0.22329456 0.13965452 -0.1258362 0.18082774
0000a0 dc 42 37 be 30 db 5b be 73 b7 83 be f2 7a 01 be
       -0.17896599 -0.21470332 -0.25725898 -0.12644556
0000b0 d5 b3 41 be 9a 47 0c be cb 6d 28 3e 25 86 0e be
       -0.18916257 -0.13699189 0.16448133 -0.1391836
0000c0 d5 8e 84 3d ea 79 17 be 84 cf 44 3e bc b8 75 3e
       0.064725555 -0.147926 0.19219786 0.23996252
0000d0 f2 20 58 be 2e 64 66 3d 7c f8 45 3e 43 45 21 3e
       -0.21106318 0.056247883 0.1933307 0.15749077
0000e0 bf 00 66 3b e3 71 07 3e c9 81 07 be bd 64 51 3e
       0.003509566 0.13227038 -0.13233103 0.20448585
0000f0 dc 4b 2f be a4 49 2b be 7f 28 0f 3e 09 28 a1 3c
       -0.17118782 -0.1672731 0.13980292 0.01967241
000100 a8 fa 55 bd 4f 6e 29 3e 6e d2 17 3e a0 9e eb bd
       -0.052240998 0.16545986 0.14826366 -0.11504865
000110 b9 c1 77 3e 1d 32 21 3e 14 64 9f 3d b3 0b b0 3d
       0.24194993 0.15741773 0.0778276 0.085959814
000120 97 81 b6 bd a5 8b 5d be bf 7a 9f bd 1d ab 6b 3e
       -0.08911436 -0.21635301 -0.07787084 0.23014493
000130 14 ac 68 be 8d 12 58 be a8 4c 9d bd 99 e9 88 ba
       -0.22721893 -0.21100827 -0.07680637 -0.0010445594
000140 d2 88 33 bd 12 c1 04 be 59 87 e7 ba 3b 41 2c be
       -0.043831654 -0.12964275 -0.0017664238 -0.16821758
000150 21 dd 68 be 4f 7c d5 bc 94 b1 30 be 77 1c 9d be
       -0.22740604 -0.026060252 -0.1725524 -0.3068578
000160 2e 7d e1 bd 5b 4b 0c 3e a6 c5 3f 3e 39 d8 ea bd
       -0.11010204 0.13700621 0.1872774 -0.114670224
000170 5d 53 e0 3d 7e 4f 58 be c2 76 3c 3e ba f9 00 be
       0.109534 -0.21124074 0.18404678 -0.12595263
000180 25 01 93 be d3 49 18 3e 31 b0 50 be 69 fd 32 bd
       -0.2871181 0.14871912 -0.20379712 -0.043698702
000190 d9 55 c8 bd a2 1c 3f bd da 6d 55 be 26 3d 16 be
       -0.09781999 -0.046658166 -0.20842686 -0.14671764
0001a0 51 8d 07 bd 3a 36 42 3e 55 e2 2e 3e 82 27 14 3e
       -0.033093754 0.18965998 0.17078526 0.14468196
0001b0 45 8d e8 bd 1b 5a 40 be 72 4b df bd c5 e7 a0 bd
       -0.1135507 -0.18784373 -0.10903062 -0.078567065
0001c0 29 65 1c 3e 33 78 2e bd 9f 33 10 bc 98 45 dc bd
       0.15272965 -0.0425951 -0.00880137 -0.107554615
0001d0 70 38 0f 3e c5 17 23 3e 66 95 27 be 5b 24 b1 bd
       0.13986373 0.15927036 -0.16365585 -0.086495124
0001e0 83 88 92 3e b6 5d c6 3d 0d 87 54 3e 4d 57 22 be
       0.28619775 0.09685843 0.20754643 -0.15853615
0001f0 cf c2 9c bd 0c 3b e2 bd 74 05 29 be c3 0d 7a bd
       -0.07654344 -0.110464185 -0.16505986 -0.06104828
000200 a5 92 21 bd f3 cc 9b bd 99 3c 35 3e 1f ee ee 3d
       -0.03944649 -0.0760745 0.17698897 0.11666512
000210 15 5c cc bd 01 f9 cf 3d 9b 58 c3 3d 5e 19 8c bd
       -0.09978501 0.101549156 0.095383845 -0.06840776
000220 16 60 ae bd 83 df d6 3d a2 03 0b be a4 fd 22 3e
       -0.08514421 0.1049185 -0.13575605 0.15917069
000230 68 92 c5 bd 97 eb c2 bc 96 02 d0 3d b8 6b 83 bd
       -0.096470654 -0.023793979 0.10156743 -0.0641703
000240 ad aa 49 be 58 2d 0e be ad dc 04 be 53 f0 16 3e
       -0.19694014 -0.13884485 -0.12974806 0.14740114
000250 f1 a2 00 be 6f e2 1f be 50 ed 85 be 65 8f 5a be
       -0.12562157 -0.15613721 -0.26157618 -0.21343763
000260 f7 c3 06 be 71 4d 46 3e 11 b3 53 be 6a 0e 33 3e
       -0.13160692 0.19365479 -0.20673777 0.17485967
000270 5c dc 23 3e b0 be b9 bd 46 20 64 3e d6 7f 34 3e
       0.16002029 -0.09069574 0.22277936 0.1762689
000280 e9 d3 58 be b8 66 23 3e 05 d9 08 3e a1 8f d0 bd
       -0.21174587 0.15957153 0.13364036 -0.10183645
000290 76 e3 02 3e a6 f9 e0 bd f2 fe 41 be 6d 32 3d be
       0.12782082 -0.10985117 -0.1894491 -0.18476267
0002a0 ae 25 52 3e d0 0e 37 be 86 1f 9d bd 79 ee ac 3d
       0.20522186 -0.17876744 -0.07672028 0.084439225
0002b0 46 cb 3a 3e 5f 81 21 be 92 8d 29 3e 0a f1 21 be
       0.18241605 -0.15772007 0.16557911 -0.15814605
0002c0 d6 e7 5c be c3 b5 09 be 30 9d ca bd f4 a7 59 be
       -0.21572813 -0.13448243 -0.098932624 -0.21255475
0002d0 18 62 d7 bd b6 4f c0 3d c2 bc b9 3c 9b ec 6c be
       -0.10516757 0.09390204 0.022673015 -0.23137133
0002e0 e7 72 b7 3d 1e 36 a0 bd 50 34 1b 3e 54 74 77 3d
       0.08957463 -0.07822822 0.15156674 0.060413674
0002f0 33 fb 95 bd 01 97 bd bd 32 c5 54 be dc 21 39 3e
       -0.07323303 -0.09257317 -0.20778349 0.18079323
000300 e0 ba 05 3e 5a 42 de bd 27 a6 42 be 5e 75 88 3d
       0.13059568 -0.10852499 -0.19008695 0.06663011
000310 de 2a fe 3d 6e b1 f6 3d 96 88 16 3e 55 d0 0b 3e
       0.1241052 0.12045561 0.14700541 0.13653691
000320 16 ad fb bd 2f 3d e8 bd a4 d8 2b 3e 5c e2 e3 bd
       -0.12288873 -0.11339795 0.1678186 -0.11127159
000330 bb 42 49 3e ed 32 29 be 25 03 47 be cd ac 32 be
       0.19654362 -0.16523333 -0.19434793 -0.17448731
000340 0f 8a 94 bd a7 0f 28 be f1 03 17 be e3 8b ff 3d
       -0.07252895 -0.16412221 -0.14747597 0.12477853
000350 b6 15 39 be 81 b6 5f 3e fc 2d 3f 3d 39 12 42 3e
       -0.18074688 0.21846963 0.046674713 0.18952264
000360 c6 6b 23 3e 26 99 b9 bc b8 08 f5 bd 79 7c 9d bd
       0.15959081 -0.022656035 -0.119645536 -0.07689757
000370 71 a4 12 be a5 c9 4e be 4b 49 e7 bd 6c d3 09 3e
       -0.14320542 -0.20194109 -0.112932764 0.13459557
000380 3c 2d e9 3d 5f 1a d7 bc 8f 4b 29 be 66 9f 5b bd
       0.11385581 -0.026257692 -0.1653273 -0.05361881
000390 87 6c cd bd 72 17 4b 3e 5a 4f 0c 3e c0 f3 f7 3d
       -0.100304656 0.19833162 0.13702145 0.121070385
0003a0 9a 52 af bd f9 a9 c8 3d 5c 78 2e be 6d 10 34 be
       -0.08560677 0.09798045 -0.17038101 -0.17584391
0003b0 37 4d f0 bd 47 b7 8f bb 1c d9 65 3e 5b bd 41 bb
       -0.117334776 -0.004385862 0.22446102 -0.0029562328
0003c0 f9 39 41 3e f2 9b 47 3e 35 5b 87 be df f7 3e 3e
       0.18869771 0.19493082 -0.26436773 0.18649243
0003d0 dd 5f 38 3e f6 a0 05 be cf b2 2f be 9c 5c 31 3e
       0.18005319 -0.13049683 -0.17158054 0.17320484
0003e0 c3 3b 03 be fa c4 21 3e 67 bb 1d 3e fd f7 e8 3c
       -0.12815766 0.15797797 0.1540352 0.028438563
0003f0 69 5f 04 3e f9 83 35 3e 5a 56 ec bd f2 aa 24 be
       0.12927021 0.17726125 -0.11539908 -0.16080835

bias f4 [10]
000000 64 da 3b bd 2a 3d e2 3d 95 60 32 3d 79 91 23 be
       -0.04586257 0.11046822 0.04354914 -0.15973462
000010 a3 d9 f8 bd ac ed ec bc e6 26 02 bc 4d 25 88 3d
       -0.12150886 -0.028921925 -0.007943844 0.066477396
000020 6e aa bb 3c f1 72 2e 3d
       0.022908416 0.042590085

weight f4 [8, 1, 7, 7]
000000 a2 f8 c6 bc f8 f1 0f bd f3 a8 06 bd b4 5d 91 bd
       -0.02428848 -0.03514287 -0.032875966 -0.070979506
000010 20 e9 8a bd 19 17 13 bc 6b 64 9f bb 0e e8 fa 3c
       -0.06782746 -0.008977675 -0.0048642657 0.03062823
000020 45 04 55 3d 86 5f 5f bd af e4 be bd fb 72 01 3e
       0.052006025 -0.054534458 -0.09320962 0.12641518
000030 19 f9 d2 bd 2a 19 72 bd 0b 3b 81 3d 46 7e 26 3d
       -0.10301418 -0.05910603 0.0631009 0.040647767
000040 ad ce b2 3d 4f 60 02 3e 8f 23 7a bc 5b 6d bb 3b
       0.087308265 0.12732051 -0.015267267 0.0057198233
000050 02 51 93 bc 04 a6 45 3a 33 75 80 bd 76 29 e8 3c
       -0.017982963 0.0007539692 -0.06272354 0.028340083
000060 9c fb 58 3d fb 12 e2 bd a5 03 d8 3d ed fe ea bb
       0.05297433 -0.110387765 0.1054757 -0.007171503
000070 17 79 9c bc 9d ce 8d bd 70 4a be 3d 90 3c 2d 3d
       -0.019100709 -0.06924174 0.092915416 0.042294085
000080 f5 73 08 bd 61 df 92 bb 5d 93 20 bd 92 2f e8 bc
       -0.03331371 -0.0044821952 -0.039203037 -0.028342996
000090 50 86 9c 3d 03 84 e0 3d 8e e4 27 bc 5f f1 9b bc
       0.076428056 0.10962679 -0.010247363 -0.019035993
0000a0 16 3c 8b 3d c3 40 ae bc 64 7f 3e 3d 93 96 a3 3c
       0.0679857 -0.021271115 0.046508208 0.01996926
0000b0 a5 d1 27 3d af 1b b5 3c 80 9b 14 bc ce 19 1e be
       0.040971417 0.022107927 -0.009070277 -0.15439531
0000c0 cc 6c 45 be 9d 60 d1 b9 d1 0a b9 3d c5 7c 3a 3d
       -0.19279784 -0.0003993557 0.09035266 0.045529146
0000d0 38 6a c1 3d 5a 7b 97 3d 87 58 fb bd 86 a4 dd 3d
       0.09444088 0.07396574 -0.122727446 0.10822396
0000e0 b7 04 1e be 03 ef 62 be 6a 58 e2 bd cc 46 74 bd
       -0.15431486 -0.22161488 -0.1105202 -0.05963783
0000f0 bc f5 1c bd d9 82 0e 3e 2b 17 de bd 36 dc fc 3d
       -0.038320288 0.13917102 -0.10844263 0.123466894
000100 14 4b d4 bd 8d 27 24 be bc 77 e5 3d 61 8e 02 bd
       -0.103658825 -0.16030712 0.11204478 -0.031874064
000110 a0 59 d9 3d b8 b2 18 b9 5b 29 97 3d 61 3a 73 bd
       0.10612798 -0.00014562428 0.07380935 -0.059381846
000120 a5 87 d5 bd 28 ff db bd e1 a3 d1 bd 77 cd 69 bd
       -0.10426263 -0.107420266 -0.102363355 -0.057080712
000130 49 b6 5e 3d 36 03 52 3d c6 b6 9c 3d 99 cf c5 3c
       0.05437306 0.051272593 0.07652049 0.024146842
000140 cd 91 19 be c2 4a 9b bd 75 93 b0 bd bd 42 9a bd
       -0.14997025 -0.07582618 -0.08621875 -0.075322606
000150 8f cd 2b 3e e6 59 b7 3d 46 d9 52 3c b1 6b 62 3c
       0.16777633 0.08952694 0.012869185 0.013819621
000160 5b 08 b9 bc 2c 22 0b bd a3 2e 14 bd 2f 0a 5f bd
       -0.022586992 -0.033968136 -0.03617729 -0.05445307
000170 73 fd e4 3d 0d 87 b9 3d 6c 80 b6 3d fa 2c 7d 3d
       0.11181154 0.09058962 0.08911213 0.06181047
000180 e6 29 ca bc 0d 09 52 bc 08 e2 7d 3d 52 ee 51 3d
       -0.024678182 -0.012819541 0.06198314 0.05125267
000190 27 60 28 be 5c b7 d6 3b 5e 00 6e 3d 7a 70 fb 3d
       -0.16442929 0.00655262 0.05810582 0.122773126
0001a0 09 ea a6 3d f5 cc 5a bd 8e 91 03 3e 8c 2d cd 3d
       0.081501074 -0.05341812 0.12848493 0.10018453
0001b0 76 b7 fc 3d 80 a3 59 3c e1 8f 8f 3d 17 d3 6f bd
       0.1233968 0.01328361 0.070098646 -0.05855092
0001c0 8d 7f b7 ba 3d a8 c7 3d 7c cf 39 3c aa ec ab bc
       -0.0013999805 0.09748886 0.011340972 -0.020986874
0001d0 ab f0 eb bd 50 93 ac bd c5 6b a1 3d 1d ca 25 bc
       -0.11520513 -0.08426535 0.078818835 -0.010118988
0001e0 34 b0 03 be 0b 23 b1 bd 96 a7 a1 3c d9 8d 76 3c
       -0.12860185 -0.08649262 0.019733232 0.015048468
0001f0 7a 73 bf 3d d6 2d 36 bd 47 ab e1 bd 51 28 07 3d
       0.09348197 -0.044477306 -0.11018997 0.032997433
000200 3e 6a 34 3e 38 4a 99 3c bb 69 07 be 79 77 43 bd
       0.17618653 0.018712148 -0.13223927 -0.04772136
000210 85 03 90 bc 0e fd 8c 3d e9 41 1b be 98 06 94 bd
       -0.017579803 0.06884204 -0.15161861 -0.0722782
000220 c7 d4 bb 3d f3 73 8f bd b0 f4 eb bc d8 ae e8 3d
       0.091714434 -0.070045374 -0.0288032 0.11361474
000230 0f f8 17 be 6a e8 5e bd 36 a3 20 3b be 24 34 3d
       -0.1484072 -0.054420866 0.0024511344 0.043980353
000240 3f 44 b0 3d 8c 30 18 3c e2 0f e9 3c 53 71 05 be
       0.08606767 0.009288918 0.028449956 -0.13031511
000250 b9 ec 24 bd 53 c8 2c 3d 1c 20 1c bd b4 76 30 3a
       -0.04026482 0.04218323 -0.03811656 0.00067315553
000260 95 01 6e 3d a4 79 d3 bd 91 b3 51 3d e8 21 a3 3d
       0.058106977 -0.103259355 0.05119664 0.079654515
000270 ef c5 c0 3c cb ad 00 be 44 11 a2 bd bd 61 95 3b
       0.023531882 -0.12566297 -0.079134494 0.0045587705
000280 29 3c 7c 3c 7d d9 c9 bc 60 a1 5e bd 9d 0b 96 3d
       0.015395203 -0.02463984 -0.054353118 0.07326434
000290 eb 1a c8 3d 14 6f 1d 3d 10 f7 b8 bc 65 cc c7 bd
       0.09770759 0.03843601 -0.022578746 -0.09755782
0002a0 9a 58 17 3e 04 d6 32 be dd 87 24 be 0b b9 43 3e
       0.14779893 -0.17464453 -0.16067453 0.19113557
0002b0 be 67 8a 3c b4 53 de 3c 58 45 18 be 72 98 00 3e
       0.016895171 0.027139522 -0.14870203 0.12558153
0002c0 e3 f6 00 be 48 35 03 be bb c7 28 3e 66 b0 72 bc
       -0.1259418 -0.12813294 0.16482441 -0.0148125645
0002d0 e2 2a 43 bd 56 a3 00 be 09 07 00 3e 98 2d 65 bd
       -0.047648318 -0.12562308 0.12502684 -0.055951685
0002e0 4b e8 1f be aa 05 72 3e d9 12 93 3d 56 d1 0f 3d
       -0.15615956 0.23634973 0.07181329 0.035111748
0002f0 34 f7 e2 bd c9 62 6b 3d 31 c1 3c be c5 da eb bd
       -0.110823065 0.057467256 -0.18433072 -0.11516336
000300 11 a4 de 3d 90 e1 5c bb 33 27 9a bd d2 08 e2 bd
       0.10871137 -0.0033703782 -0.07527008 -0.110368386
000310 d9 e9 12 bd 9d bd b3 3d d9 8a a2 bd 22 66 a9 3d
       -0.035867546 0.087764 -0.07936639 0.082714334
000320 16 3f 47 3c dc 1a 9c 3d 80 fd c7 3c cb 4b 6f 3c
       0.012161037 0.076223105 0.02441287 0.014605473
000330 50 53 74 bd d6 0c da bd a8 27 09 3d ab fa 97 bc
       -0.059649765 -0.106469795 0.033485085 -0.018552145
000340 e2 10 c2 bd 84 7c db bd cb 9f 86 bd ff 1c 98 bd
       -0.094758764 -0.10717109 -0.06573447 -0.074274056
000350 33 eb f1 3d 8c 71 6f bd 6f 85 80 bd 46 03 1d 3e
       0.11812439 -0.058457896 -0.062754504 0.1533328
000360 0d 69 8e 3d 6c ba 41 bd 20 bf 5b bc 5a 8f 37 bd
       0.069536306 -0.047296926 -0.013412267 -0.044814445
000370 99 cf 1d be b6 e0 a5 3d 3d f7 7c 3d da aa 6a 3d
       -0.15411223 0.08099501 0.061759222 0.057291843
000380 06 7a 5f 3c d8 a6 90 bd 49 fa a2 bd 5c 29 1c 3d
       0.0136399325 -0.07063073 -0.07957894 0.03812538
000390 2e f5 6a 3d 53 46 33 3d 56 86 d1 3c 1d 47 40 3d
       0.057362728 0.04376824 0.025576752 0.04694282
0003a0 a6 a8 7c bd a6 9b 00 be a0 32 d2 bd 7c e2 7c bc
       -0.061684273 -0.12559375 -0.10263562 -0.015434857
0003b0 dc fa 98 3d d7 f8 6e 3d 3b 73 88 bd a5 02 bf bd
       0.07469723 0.05834278 -0.066626035 -0.09326676
0003c0 e2 0a 03 bd f0 85 c4 bc e2 38 15 3e b0 ca e4 3c
       -0.0319928 -0.023989648 0.1457248 0.02792868
0003d0 cd eb d0 bc ad 92 0c 3e d0 d2 bd bc f7 b2 1b 3e
       -0.025503064 0.13727827 -0.023171812 0.15204988
0003e0 41 36 d3 bd 7e 33 19 be 67 07 b5 bd 00 ec fa bc
       -0.103130825 -0.14961049 -0.088393025 -0.030630112
0003f0 a2 bb e4 bd ee 90 b2 bc ac 9f c0 bd 91 a4 e7 bd
       -0.111686006 -0.021797623 -0.09405455 -0.113106854

bias f4 [8]
000000 bf 32 e4 bd 6a a2 f1 bc b2 cc 2e be e1 1d 30 be
       -0.111424915 -0.02949639 -0.17070273 -0.17198898
000010 d9 37 72 be 35 f3 70 3d 6a a9 78 be f2 cd f0 bd
       -0.23654117 0.05882569 -0.24283376 -0.11758031

weight f4 [10, 8, 5, 5]
000000 d4 65 60 bd 8f 5c 36 3d 1e 29 80 3c c4 11 62 3d
       -0.05478461 0.044521865 0.015644606 0.055192724
000010 f5 29 42 bd a4 df 0b bd 22 21 88 bc 25 a6 6b 3c
       -0.047403295 -0.034148827 -0.016617361 0.014382874
000020 bc ce 0b bd 84 7c 40 3d 30 5b c6 bc db 3e a5 3b
       -0.034132704 0.046993747 -0.024213403 0.0050428933
000030 72 30 1a bc 39 51 32 bd 4d 12 94 bd c2 f7 0a 3c
       -0.009410964 -0.04353449 -0.07230053 0.008481922
000040 bc 34 5d 3d 58 a5 3e 3d 17 4d 72 3d 9c 54 98 bd
       0.05400537 0.046544403 0.05915555 -0.07438013
000050 b7 cb 46 3d f9 87 f0 bc 57 28 16 3b 34 95 87 3d
       0.04853412 -0.029361712 0.0022912228 0.06620255
000060 4c 7a 85 bc bf 67 dc 3c 06 ff ac 3c 3f dc 89 3c
       -0.016293667 0.026904939 0.021117698 0.016828654
000070 9e 60 e0 bc 43 5b a6 3c e8 40 9c bd 2f fc 08 3c
       -0.02738982 0.020307189 -0.076295674 0.0083609065
000080 b8 4e a3 bd 05 a5 0a bd 2d d3 44 bd fe ed b0 3c
       -0.07973999 -0.03384878 -0.048052955 0.021597859
000090 20 1a 01 3c f8 5b 42 3c 02 83 64 bb d4 53 ae 3a
       0.007879764 0.011862747 -0.0034868126 0.0013300129
0000a0 ea bc 8a bb bb 89 50 bc 6a f3 07 bd b0 db 42 3c
       -0.004233946 -0.01272815 -0.033191122 0.011893198
0000b0 26 5f 88 bd 70 60 52 bd ac 06 b5 3c ae 68 5d 3d
       -0.06658773 -0.0513615 0.022097908 0.05405491
0000c0 3e 42 af 3c 7f 70 fd bb 40 df 24 bd 6e c6 d4 3c
       0.021393891 -0.007734358 -0.04025197 0.025973525
0000d0 78 06 67 bd b6 cd 93 bd b6 0f 1c bd 5e a3 e1 3a
       -0.056402653 -0.072169706 -0.03810092 0.0017214825
0000e0 65 9f 18 bd 3a ac 27 3d 75 50 39 bd 8b d6 51 3d
       -0.037261385 0.040935732 -0.045242745 0.051229995
0000f0 d8 fe 71 bd cd 32 ac 3b c2 01 56 bd aa d6 29 bd
       -0.05908093 0.0052550794 -0.05224777 -0.041464485
000100 0d 74 64 3d 94 b0 cd 3c 09 a0 30 bd a4 0b 0a 3d
       0.055774737 0.025108613 -0.04312137 0.033702508
000110 e4 6a 23 3c bd bc 94 bd 0f 65 1f bc ef 6e 46 3d
       0.009974215 -0.072625615 -0.009728684 0.04844564
000120 4f ec 31 bd 85 cb 3f 3d 84 68 3e bd 92 e9 0a 3d
       -0.043438252 0.04682495 -0.046486393 0.033914156
000130 94 a7 92 bd da 48 24 3b 9c b8 fc bc ad 82 9f bc
       -0.07160869 0.0025067837 -0.030849747 -0.01947149
000140 2c 1f 85 bd 53 38 81 bd b3 c6 0c 3d c1 9b 2c bd
       -0.06500086 -0.06309571 0.03436918 -0.042140726
000150 c4 73 97 bd 24 05 14 bd 97 e2 2c 3c 54 6f 0e 3d
       -0.073951274 -0.036137715 0.01055207 0.03477414
000160 16 70 b0 3b 87 34 a2 bc 9c bb 9c bd dc 03 ac 3c
       0.0053844554 -0.019800438 -0.07652971 0.020997934
000170 77 39 67 3c b1 66 1c bd 00 85 19 bc 65 93 52 bd
       0.014112822 -0.03818387 -0.009370089 -0.051410098
000180 22 39 8a 3d 0c 97 00 bd ff af 11 3c 88 42 ac 3c
       0.067491785 -0.03139405 0.008892058 0.021027818
000190 77 f9 1e bc e9 cc c2 ba 81 c1 bb 3c 40 e2 b1 bc
       -0.009703032 -0.0014862093 0.022919418 -0.02171433
0001a0 6b f1 8e 3d f2 78 80 3d 81 55 76 bc 38 bf 67 bd
       0.069796406 0.062730685 -0.015035034 -0.056578845
0001b0 da 34 36 bd dd c4 3f bd 26 99 6b 3b a7 6d 02 bd
       -0.044483997 -0.046818603 0.0035949438 -0.031842854
0001c0 69 94 98 3c 32 dc 2d bd 57 08 a8 3c f1 3d 9b bc
       0.018625455 -0.042446323 0.02051179 -0.018950434
0001d0 ed f5 6c bd 11 58 d7 3c c4 a4 04 bd 44 03 c4 bc
       -0.05785172 0.02628711 -0.032383695 -0.023927338
0001e0 76 08 44 bd 78 43 72 bd 6f 33 12 bd 2e 89 f4 3c
       -0.04785963 -0.059146374 -0.035693582 0.029850569
0001f0 50 c0 80 bd 30 33 68 3d 89 d5 95 3c 71 e6 47 3d
       -0.06286681 0.05668944 0.018290298 0.04880375
000200 82 1b d9 bc d4 bf 15 3d 84 e0 52 bb 2c f5 79 3d
       -0.026502375 0.036559895 -0.0032177279 0.06102483
000210 f2 07 05 bd 72 79 95 3d 02 a4 b0 bd 3c 08 85 3c
       -0.03247828 0.072985545 -0.08625032 0.016239278
000220 38 64 08 3d 37 76 5b bd 3a 5c 8a 3c 53 f8 26 3d
       0.0332987 -0.053579535 0.01688968 0.040764164
000230 44 3d 16 bd 6f 14 98 bd 01 3f 1e bc a3 d0 86 bd
       -0.03667952 -0.074257724 -0.009658576 -0.06582763
000240 71 49 f4 3c 7c 18 59 bd 2a f0 75 3d c4 9d aa bd
       0.029820176 -0.053001866 0.06004349 -0.08330873
000250 c2 e7 e8 bc b8 eb 57 bd 95 fa 4e 3b 41 27 0d bd
       -0.028430823 -0.052715033 0.0031582464 -0.034461264
000260 37 06 4a 3d 02 2c 17 3c 6a 73 f9 bc 10 62 9a bd
       0.049322333 0.009226801 -0.030450542 -0.07538235
000270 c7 59 2c 3d 19 1d 45 bd d8 e8 61 3c ef e0 94 3c
       0.042077806 -0.048123453 0.013788424 0.018173663
000280 26 57 1c bd db e8 48 bd 2f 1c df bc c6 ed 82 bd
       -0.03816905 -0.049050193 -0.027235119 -0.06393008
000290 e1 42 70 3d 86 dc 2d bd 02 ef 86 3c 25 14 31 3b
       0.05865753 -0.042446636 0.01647139 0.0027020064
0002a0 b9 3c a3 bd 66 9c 99 bb dc db 0a bd 43 82 de bc
       -0.07970566 -0.0046878336 -0.03390108 -0.027161723
0002b0 1a e9 5f bd d8 1f e0 bc 2a d8 19 3b 7e 5c e1 bc
       -0.054665662 -0.027358934 0.002347479 -0.027509924
0002c0 14 58 03 bd 50 11 39 bd a7 aa 12 bc b4 92 0b bd
       -0.03206642 -0.045182526 -0.0089518195 -0.034075454
0002d0 5a 1e 7c bd 96 0b 22 bd b4 1a 8b 3b 8d 4b 3e bc
       -0.061552383 -0.03956183 0.0042451266 -0.011614692
0002e0 83 80 c4 3d 15 19 5c 3c a5 3d 64 bd db 26 bf 3c
       0.09594824 0.013433714 -0.05572285 0.023333957
0002f0 67 c7 83 bd 20 b9 10 bd 27 79 a8 bc bc dc 84 3d
       -0.06434517 -0.0353328 -0.020565582 0.06487414
000300 25 cd 8c bc fa e0 39 3d 59 41 9e 3c 22 45 91 bd
       -0.017187664 0.04538057 0.01931827 -0.07093264
000310 16 b2 4b 3d eb d0 91 bb 9c 72 7c bd 7a a1 6b 3d
       0.049730383 -0.004449954 -0.061632738 0.057527043
000320 2e 1a 36 3e 7c 5f 13 3e 9c 95 d7 3c 03 a1 20 be
       0.17783424 0.14391893 0.026316456 -0.15686421
000330 c2 8c 05 bd 5a bd 1c 3d 2f b1 db 3d d1 41 32 bd
       -0.03260494 0.038266517 0.107271545 -0.0435198
000340 de 01 12 be 3f f5 55 bd fe a9 18 3d 65 85 a4 3d
       -0.14258525 -0.052235838 0.037271492 0.080332555
000350 f5 17 a8 bd 59 a3 91 bd 28 21 a5 3d a9 bd 95 3d
       -0.082076944 -0.07111234 0.08062965 0.073115654
000360 ad d2 b7 3d 9e 40 9b bd 9e 48 29 bd 20 1a 8e 3d
       0.0897573 -0.07580684 -0.04132902 0.06938577
000370 9e 05 09 bd d6 66 30 3d 6f 39 b0 bc 18 7a 2a 3d
       -0.033452623 0.043066822 -0.021511761 0.041620344
000380 7f cb 05 3c 7e 71 40 3d d7 f1 2e 3d bb 36 07 3d
       0.008166193 0.046983235 0.042711105 0.03301118
000390 26 bd 2d 3c fb 5c 92 bd 90 53 14 3c 78 23 88 bd
       0.0106041785 -0.07146641 0.009053126 -0.0664739
0003a0 b8 bb c1 3c a6 44 1c be ed 93 d3 bc 17 3a 57 bd
       0.023649082 -0.15260562 -0.025827372 -0.052545633
0003b0 85 7e 88 3d 41 a8 2d 3c b9 cf 08 3d 47 05 70 bd
       0.06664757 0.010599197 0.033401225 -0.058598783
0003c0 3d f8 45 bd 9c 88 28 bd e6 24 92 3d 29 28 56 bb
       -0.04833244 -0.041145906 0.07135944 -0.0032677746
0003d0 2a ce a0 bd e2 95 07 be 4a a0 1a be 2d be 07 3d
       -0.07851823 -0.1324077 -0.15100208 0.03314035
0003e0 c2 fc b8 bd 66 77 72 bd 9e 03 03 3d b5 66 9f bd
       -0.09032585 -0.0591959 0.03198587 -0.07783262
0003f0 29 2e 85 bc 47 58 20 bd df 44 f0 bb 2b 78 50 3d
       -0.016257362 -0.039146688 -0.007332429 0.05089585

bias f4 [10]
000000 0f 81 32 3d 4e 41 5c bd 56 20 83 3d ee b6 84 bd
       0.04358011 -0.053773217 0.06402652 -0.064802036
000010 ca c2 fb bb 92 b6 8f 3b 6f 9b 4b 3d ae 1d 04 be
       -0.007683133 0.0043857777 0.04970878 -0.12901947
000020 fe f7 57 3d 82 dc 6a 3d
       0.05272674 0.0573392
