models/colab_best_Vanilla_MNIST_20.pth (torch, 479837 bytes, 24 tensors)

conv1.weight f4 [16, 1, 5, 5]
0	0xbe00cb6f	-0.12577604
1	0xbe3a226a	-0.1817719
2	0xbaf48166	-0.0018654286
3	0xbc81f455	-0.015863577
4	0x3cd4bf81	0.025970222
5	0xbe641c20	-0.22276354
6	0xbdf2c233	-0.11853447
7	0xbda10629	-0.07862503
8	0x3da3d385	0.079993285
9	0x3c0ad4f4	0.008473624
10	0xbe06b59d	-0.13155217
11	0xbcecbd72	-0.028898928
12	0xbd547012	-0.05186469
13	0x3c068f9d	0.008212951
14	0x3e0e8f7d	0.13921924
15	0xbda8bffe	-0.082397446
16	0x3cc2bc14	0.023771323
17	0xbe383ead	-0.17992659
18	0x3df7ae6f	0.120938174
19	0x3e281879	0.16415586
20	0xbdb9601f	-0.09051537
21	0xbc976532	-0.01848087
22	0x3d1b177e	0.0378642
23	0x3dd8e0ad	0.105897285
24	0x3db78513	0.08960929
25	0x3e9713c8	0.2950728
26	0xbc03f069	-0.008052924
27	0x3e04e89d	0.1297936
28	0xbe1cabbf	-0.15299891
29	0xbeaa6893	-0.3328291
30	0x3e49714a	0.19672123
31	0x3e235d7d	0.15953632
32	0xbccc4692	-0.024935994
33	0xbeedae40	-0.46422005
34	0xbe06a6c4	-0.13149554
35	0x3e238c1a	0.15971413
36	0x3d8acc10	0.06777203
37	0xbe9a55b0	-0.301435
38	0xbe903820	-0.2816782
39	0x3d9f6c17	0.077842884
40	0x3e15d077	0.14630304
41	0xbe759be0	-0.23985243
42	0xbefb6028	-0.490968
43	0xbe128b95	-0.14311059
44	0xbda926e1	-0.08259369
45	0xbebe93c6	-0.37222117
46	0xbe9cc510	-0.30619097
47	0x3ceb2bef	0.028707473
48	0x3dd3dc2a	0.10344727
49	0xbc9e0e4c	-0.019293927
50	0xbc040529	-0.008057871
51	0xbd162551	-0.03665668
52	0x3d882b65	0.06648902
53	0x3dc7a824	0.09748867
54	0xbe34cd5c	-0.17656463
55	0xbd8e4db8	-0.069484174
56	0x3b589419	0.0033047257
57	0xbd568cae	-0.052380256
58	0x3d5ef7a1	0.054435376
59	0x3d179bea	0.037013926
60	0xbe829244	-0.25502217
61	0xbda08206	-0.078373
62	0xbd83376d	-0.06407056
63	0x3e6bcdcf	0.23027728
64	0xbd1d9cd1	-0.03847963
65	0xbe7414ef	-0.2383611
66	0x3bea7c82	0.007155956
67	0x3e33d1ba	0.17560473
68	0x3e11b568	0.14229357
69	0xbd8fbdcf	-0.07018625
70	0xbe84cb16	-0.25936192
71	0x3bdc1080	0.006715834
72	0x3e0e9561	0.13924171
73	0x3da671b2	0.081271544
74	0xbdbddb11	-0.09270299
75	0x3df4a87f	0.119462006
76	0x3e78aa53	0.24283724
77	0xbc866c5e	-0.016409095
78	0xbdadbab8	-0.084828794
79	0x3e3e7a93	0.18601446
80	0x3d4914e7	0.0490922
81	0x3d5096a8	0.050924927
82	0xbe070681	-0.13186075
83	0xbd941830	-0.07231176
84	0x3dc73f71	0.09728897
85	0xbe856d5c	-0.26059997
86	0x3e0c35f1	0.13692452
87	0x3e9499ac	0.29023492
88	0x3e4328cd	0.19058533
89	0x3d7df077	0.061996903
90	0xbe3f282c	-0.18667668
91	0xbe12629d	-0.1429543
92	0x3cb87fe6	0.022521924
93	0x3dacbde6	0.08434658
94	0xbcf23ae8	-0.029569104
95	0xbe87890a	-0.2647174
96	0xbe665dfa	-0.22496787
97	0xbe96b7b6	-0.29437035
98	0xbea26949	-0.3172095
99	0xbe899df8	-0.26878333
100	0x3e565baa	0.20933405
101	0x3ca8e88c	0.0206187
102	0xbd6b05b4	-0.057378486
103	0xbe2dddcf	-0.16979145
104	0x3e10fe54	0.14159518
105	0x3bc18a9a	0.005906415
106	0x3df674b0	0.12033975
107	0x3bd81bc6	0.0065951077
108	0xbdedeb58	-0.11617154
109	0xbebe3b3f	-0.37154576
110	0xbde9c1b2	-0.114138976
111	0x3e4812d8	0.19538438
112	0x3e53713e	0.20648667
113	0xbe5b77be	-0.21432397
114	0x3c246783	0.010034445
115	0xbddd498f	-0.10805046
116	0x3e28412c	0.16431111
117	0x3eae467d	0.34038153
118	0xbdd6b20f	-0.10483181
119	0xbe032215	-0.1280597
120	0xbe7802f3	-0.24219875
121	0xbccae6bd	-0.024768228
122	0x3dc0852f	0.09400403
123	0x3e689c3a	0.22715846
124	0xbd64d184	-0.055863872
125	0x3e1a7fdf	0.15087841
126	0xbe6d46ed	-0.23171587
127	0xbd67599e	-0.05648195
128	0x3d4ad3b2	0.049518295
129	0x3e218eb2	0.1577709
130	0x3e7d1d0f	0.24718116
131	0x3da6645d	0.081246115
132	0x3e88fdc6	0.26756114
133	0x39c0afc1	0.0003675204
134	0x3e27a25b	0.16370527
135	0x3cc94953	0.024571097
136	0xbd879768	-0.06620675
137	0x3d90b584	0.07065871
138	0xbde68b26	-0.11257009
139	0x3c5cbb48	0.013472386
140	0xbed75e8a	-0.42064315
141	0xbe5b0707	-0.213894
142	0xbe31a747	-0.17348967
143	0xbe5af997	-0.21384273
144	0xbe9e99b3	-0.30976638
145	0xbd1636fb	-0.036673527
146	0xbdef1900	-0.1167469
147	0xbe92554f	-0.2858071
148	0xbdf146c4	-0.117810756
149	0xbe09eb27	-0.1346861
150	0x3e6686c5	0.22512348
151	0xbe38b9e8	-0.18039668
152	0xbe78c04c	-0.24292105
153	0xbe6bbc7f	-0.23021124
154	0xbdcd8740	-0.100355625
155	0xbe85368d	-0.2601818
156	0xbe8abdfc	-0.27098072
157	0xbdf3f774	-0.11912432
158	0x3d9d0135	0.07666246
159	0x3d979ff7	0.07403558
160	0xbeb46874	-0.3523594
161	0x3d46f53f	0.04857373
162	0x3d7474ac	0.05968158
163	0x3e66eac0	0.22550488
164	0x3d3e98a9	0.046532307
165	0xbd8d20c0	-0.06891012
166	0x3dd9e989	0.106402464
167	0x3dbb6e03	0.091518424
168	0xbdae7dcf	-0.0852009
169	0xbe22af78	-0.15887249
170	0xbc879a89	-0.01655318
171	0x3e0b316f	0.13593076
172	0x3ded13f4	0.115760714
173	0x3d480377	0.04883143
174	0xbd1deddb	-0.038556915
175	0x3c688809	0.01419259
176	0xbe349983	-0.17636685
177	0x3e0a56dd	0.13509698
178	0x3e982fcb	0.29723963
179	0x3e94612b	0.28980383
180	0xbd25937c	-0.040423855
181	0xbdd156e9	-0.10221655
182	0xbf0a448e	-0.54010856
183	0xbed42269	-0.41432503
184	0xbba2a6f9	-0.0049637523
185	0x3d7dbd2c	0.061947986
186	0x3e8dc35a	0.27688104
187	0xbe9a3dd8	-0.30125308
188	0xbe78a72f	-0.24282525
189	0xbe4d8142	-0.20068839
190	0x3d85753b	0.065165006
191	0x3e66f8d6	0.22555861
192	0x3e74f94f	0.23923229
193	0x3ddcb709	0.10777099
194	0xbda45fd7	-0.080260925
195	0xbe0ced06	-0.13762292
196	0xbbdb8b61	-0.006699965
197	0x3e8e0580	0.2773857
198	0x3dd5ecd9	0.10445566
199	0x3daf3980	0.08555889
200	0xbdc47277	-0.09592145
201	0xbe162acf	-0.14664768
202	0xbe097dfe	-0.13426968
203	0xbea5fb62	-0.32418352
204	0xbe093521	-0.13399173
205	0x3dd2198a	0.102587774
206	0x3cf4f71b	0.029902985
207	0x3e3e9b71	0.18613984
208	0xbe5f2ffb	-0.21795647
209	0xbe1081de	-0.1411204
210	0x3e4cd5d7	0.20003448
211	0x3e068ac5	0.13138874
212	0x3dd12fe0	0.102142096
213	0x3dc8d9d2	0.09807171
214	0xbdb87418	-0.09006518
215	0xbd55d314	-0.052203253
216	0xbe2ea113	-0.17053632
217	0x3b6bc357	0.0035974586
218	0x3d8f6c1c	0.07003042
219	0x3ddc46df	0.10755705
220	0x3e3ee0bd	0.18640418
221	0x3daf3cad	0.08556495
222	0xbddb098c	-0.1069518
223	0x3d7c90c5	0.0616615
224	0x3d9da4ac	0.07697424
225	0xbe050227	-0.12989102
226	0x3e1c11b6	0.15241131
227	0x3e9dbd14	0.30808318
228	0x3e993d3b	0.29929528
229	0x3daaf9fa	0.083484605
230	0xbdf03766	-0.117293164
231	0xbd64d426	-0.055866383
232	0xbdb59e55	-0.0886809
233	0xbd652967	-0.055947687
234	0xbd941e2d	-0.07232318
235	0xbe74057b	-0.23830216
236	0xbea8ef53	-0.3299509
237	0xbee59a4e	-0.44844288
238	0xbee6e552	-0.45096833
239	0xbee1d40c	-0.4410709
240	0xbc0d19b9	-0.00861209
241	0xbd31f87d	-0.043449868
242	0xbde0d950	-0.10978949
243	0x3db94f37	0.09048312
244	0x3db434e2	0.08799149
245	0xbdba79c6	-0.09105258
246	0xbcbdf6b4	-0.023188926
247	0x3e38473d	0.17995925
248	0x3d19abe1	0.037517432
249	0x3e0fbad8	0.14036119
250	0xbd820561	-0.06348682
251	0xbe68c9a0	-0.22733164
252	0xbd51f1f9	-0.051256154
253	0xbde3f245	-0.111301936
254	0x3e638211	0.22217585
255	0xbb661baf	-0.0035111716

conv1.bias f4 [16]
0	0xbe89d685	-0.26921478
1	0xbefa9797	-0.4894378
2	0xbe94edb3	-0.290876
3	0xbeb63c68	-0.3559296
4	0xbf0ef044	-0.55835366
5	0xbf0cfaf3	-0.5507042
6	0xbec73371	-0.38906434
7	0xbec20995	-0.37897936
8	0xbea64da9	-0.32481125
9	0xbebec53a	-0.37259847
10	0xbeaa3932	-0.33246762
11	0xbe736e3f	-0.23772524
12	0xbe75172c	-0.2393462
13	0xbef8c8fd	-0.48590842
14	0xbf116d9d	-0.5680788
15	0xbf0ee01d	-0.5581072

conv2.weight f4 [32, 16, 5, 5]
0	0xbdcea92b	-0.1009086
1	0x3e2a66c5	0.16640766
2	0x3e059d27	0.1304823
3	0x3e69f06e	0.22845623
4	0xbdaf0451	-0.08545745
5	0x3ca578fa	0.020199288
6	0x3dbac4b3	0.09119549
7	0x3e46481c	0.19363445
8	0x3de2f642	0.11082126
9	0xbe82f2e8	-0.25575948
10	0xbce7674e	-0.028247502
11	0x3dc9c3b6	0.09851782
12	0x3e31c528	0.17360365
13	0xbd0c327f	-0.034227844
14	0xbe4ac2a1	-0.19800808
15	0xbdc3c167	-0.09558373
16	0x3c82ffde	0.015991148
17	0xbda1b0a2	-0.07895018
18	0xbdf63512	-0.12021841
19	0xbe27c557	-0.16383873
20	0xbcaf602f	-0.021408169
21	0xbd50833d	-0.05090641
22	0xbd0ee0a4	-0.034882203
23	0x3bda9594	0.006670663
24	0xbe06c264	-0.13160092
25	0x3ea5f53b	0.32413658
26	0xbe0e1812	-0.1387637
27	0xbd2a75dc	-0.041616306
28	0x3db6d53b	0.08927389
29	0x3e07925e	0.13239428
30	0x3e08dc3d	0.13365264
31	0xbe57bd49	-0.210683
32	0xbd9a2101	-0.07525826
33	0x3ceb8471	0.028749676
34	0xbd3db837	-0.04631826
35	0xbe7fbfee	-0.24975559
36	0x3ddbdb4d	0.10735188
37	0x3dde2222	0.10846354
38	0x3d2f86a7	0.042853024
39	0x3dd69417	0.10477465
40	0xbe7a42de	-0.2443957
41	0x3d01c362	0.031680472
42	0x3dac736b	0.08420452
43	0x3cb96fb3	0.02263627
44	0x3c6f91c7	0.014622158
45	0xbe03ec14	-0.12883025
46	0xbc612e90	-0.0137440115
47	0x3b219db6	0.0024660653
48	0x3dd1a838	0.10237163
49	0xbdf26991	-0.118365414
50	0xbe8458cc	-0.25848997
51	0x3e40302a	0.18768373
52	0x3dd9c870	0.106339335
53	0x3dc01b1a	0.09380169
54	0xbdef1812	-0.11674513
55	0xbdf21e23	-0.118221544
56	0x3e324c9b	0.17412035
57	0x3dfbd1a0	0.12295842
58	0x3d0a8ce2	0.033825763
59	0x3da38da7	0.079860024
60	0xbdcea09b	-0.10089227
61	0x3db94189	0.09045703
62	0x3c43ed28	0.011958398
63	0xbddeb756	-0.10874812
64	0xbdfb94de	-0.122842535
65	0xbe426898	-0.18985212
66	0xbca98a5c	-0.020695858
67	0xbe4006c2	-0.18752578
68	0xbea81c20	-0.32833958
69	0xbe73e291	-0.23816897
70	0xbdb8b970	-0.090197444
71	0xbe1633d0	-0.14668202
72	0xbe6be164	-0.23035198
73	0xbc5c966a	-0.013463596
74	0xbd9257cd	-0.07145653
75	0xbbcd0ec5	-0.006257864
76	0xbe7ac34a	-0.2448856
77	0xbd14a280	-0.036287785
78	0xbd5bdabc	-0.0536754
79	0xbdd8be9d	-0.105832316
80	0xbcecc4f7	-0.028902514
81	0xbd66e521	-0.056370858
82	0x3ddc3cda	0.10753794
83	0x3c224b4d	0.009905648
84	0x3c781bd1	0.015143351
85	0xbd05373c	-0.03252338
86	0x3e0aae4d	0.13543053
87	0x3d94c7c6	0.07264666
88	0x3d2ce2a6	0.042208336
89	0x3d0ecc36	0.03486272
90	0xbddb05b7	-0.106944494
91	0x3dc5ca75	0.09657756
92	0x3e16e9dd	0.1473765
93	0xbc2652dd	-0.010151592
94	0xbdf61962	-0.1201656
95	0xbd73ba27	-0.0595037
96	0xbdcf1177	-0.10110753
97	0xbd69ecbf	-0.057110544
98	0x3d8a59a8	0.06755382
99	0xbe49dc0e	-0.1971285
100	0xbd02e35f	-0.03195512
101	0xbe0221d7	-0.12708221
102	0xbe234ec6	-0.15948018
103	0xbe93542b	-0.28775153
104	0x3cd6d887	0.026226295
105	0xbe099497	-0.13435589
106	0x3df59fb7	0.11993354
107	0x3bdf746d	0.006819299
108	0xbd893e5e	-0.06701349
109	0x3d2f4d11	0.042798106
110	0xbcf7fb15	-0.030271092
111	0x3da81431	0.08206976
112	0xbd53c864	-0.05170478
113	0xbe13733f	-0.14399432
114	0xbe2f11f3	-0.17096691
115	0xbe2649a1	-0.16239025
116	0xbd62f50d	-0.05540948
117	0xbdf157d9	-0.11784334
118	0xbe845af4	-0.25850642
119	0xbeba39f0	-0.36372328
120	0xbe9f8f16	-0.31163853
121	0xbd9d03f0	-0.07666767
122	0xbdb57ef8	-0.08862108
123	0xbdeb85ad	-0.11500106
124	0xbe1ec11d	-0.15503354
125	0xbe0055ae	-0.12532684
126	0xbe4a1661	-0.197351
127	0xbd46a462	-0.04849661
128	0x3c304c2f	0.010760351
129	0xbd757a09	-0.059930835
130	0xbea7c11d	-0.3276452
131	0xbe198d76	-0.1499537
132	0x3e4520fe	0.19250867
133	0x3e857d8c	0.26072347
134	0x3ddd3a97	0.10802191
135	0x3de5cac4	0.11220315
136	0x3e4bde3d	0.19908996
137	0x3e26566c	0.16243905
138	0x3e39ba9a	0.18137589
139	0x3d062312	0.03274829
140	0xbccfb04d	-0.025352621
141	0x3da12ae4	0.07869509
142	0x3ddff8c8	0.10936123
143	0x3df609e0	0.12013602
144	0xbd900703	-0.070325874
145	0xbcf1ad19	-0.029501485
146	0xbd42d8f5	-0.047570188
147	0x3d2f65db	0.042821746
148	0x3e07cfa8	0.13262808
149	0xbe163a96	-0.14670786
150	0xbdd2278b	-0.102614485
151	0x3be514ff	0.0069910283
152	0x3d5d19c2	0.053979643
153	0x3d152b56	0.03641828
154	0xbcf9dc2a	-0.03050049
155	0xbbf0af98	-0.007345151
156	0x3dc1468d	0.094372846
157	0x3d6bbff1	0.057556096
158	0xbbf652da	-0.007517201
159	0xbd75c4b8	-0.06000206
160	0x3d79d20f	0.060991343
161	0x3e3ffb52	0.18748215
162	0x3dba4f84	0.09097198
163	0xbd03f386	-0.032214664
164	0xbdd6f64d	-0.10496197
165	0x3d76d69c	0.06026326
166	0x3d38ca1c	0.04511462
167	0xbde5cd08	-0.11220747
168	0xbd542553	-0.051793408
169	0x3da2e704	0.07954219
170	0xba1cacef	-0.0005976697
171	0x3bc9d365	0.0061592334
172	0x3d27184d	0.04079466
173	0x3db53ab9	0.08849091
174	0x3d982d1e	0.074304804
175	0x3d0d8b56	0.03455671
176	0xbd8c3e15	-0.06847779
177	0xbcbf5431	-0.023355575
178	0xbd79d1b5	-0.060991008
179	0xbddcca81	-0.10780812
180	0xbd725886	-0.059166454
181	0x3bfd6c77	0.0077338773
182	0xbdb0bf7c	-0.08630273
183	0xbd17cf1b	-0.037062746
184	0x3cf391b2	0.029732559
185	0x3df45bb1	0.11931551
186	0x3e3620f7	0.17786013
187	0x3cbd4e84	0.023108728
188	0x3d676ebe	0.056502096
189	0x3cb13e99	0.021636294
190	0x3d576346	0.05258491
191	0x3e1ad722	0.15121129
192	0x3d02be9c	0.03192006
193	0x3cf8509b	0.030311873
194	0x3c75ab50	0.014994457
195	0x3da8e3a5	0.08246545
196	0x3dc01e6d	0.09380803
197	0x3c61350e	0.013745559
198	0x3d0f5bf3	0.0349998
199	0x3c2482ff	0.0100409975
200	0x3d503ac2	0.050837286
201	0xbdc8e0fe	-0.09808539
202	0x3cb92d98	0.022604749
203	0xbd831427	-0.06400328
204	0x3baabeea	0.005210747
205	0xbce3d8f6	-0.027813416
206	0xbd9840a2	-0.07434203
207	0x3dbce9b8	0.09224266
208	0xbd53baf9	-0.051691983
209	0xbaedf81d	-0.0018155609
210	0x3bb5c3b0	0.0055470094
211	0xbaa99e84	-0.0012940918
212	0x3db4e751	0.088331826
213	0x3d45f353	0.048327755
214	0xbd405acc	-0.04696159
215	0x3c7c8934	0.015413571
216	0x3d8a3f57	0.06750362
217	0x3bd1ab4c	0.006398594
218	0xbb0c7090	-0.0021429397
219	0xbe8bdeef	-0.27318522
220	0x3e354ea9	0.17705788
221	0xbc8cda0e	-0.01719382
222	0x3d021cea	0.031765856
223	0x3c8abe18	0.016936347
224	0x3b3f340c	0.002917531
225	0xbd7f534e	-0.062335305
226	0xbbad1353	-0.0052818446
227	0x3d31d40f	0.043415125
228	0x3d8e475c	0.069472045
229	0xbd66af97	-0.0563198
230	0xbd483996	-0.048883043
231	0xbdccb786	-0.09995942
232	0x3d502044	0.05081202
233	0x3c7d8386	0.015473252
234	0xbe030473	-0.12794666
235	0xbd8c0889	-0.068375655
236	0xbd14d5fd	-0.036336888
237	0x3df11741	0.117720135
238	0x3e3ae355	0.18250783
239	0x3e07edb2	0.13274267
240	0x3d4b7aa4	0.049677506
241	0x3e1daad4	0.15397197
242	0x3d8dae6b	0.06918033
243	0x3dc51d1a	0.09624691
244	0x3d8dd6f1	0.069257624
245	0x3b2c1a1c	0.002626068
246	0x3e1c778b	0.15279977
247	0x3dee3fce	0.116332635
248	0x3cea2e50	0.028586537
249	0x3da9021f	0.08252358
250	0xbe14bf5d	-0.14526124
251	0xbea0f9fd	-0.31440726
252	0xbe0e8b3d	-0.13920303
253	0x3d19ae18	0.037519544
254	0xbe91bf3b	-0.2846621
255	0xbda1df27	-0.07903891

conv2.bias f4 [32]
0	0xbe05bf7e	-0.1306133
1	0xbcdf1a38	-0.027234182
2	0xbddace78	-0.10683912
3	0x3d7ee0fb	0.062226277
4	0xbe3aae05	-0.18230446
5	0xbe09575e	-0.13412234
6	0xbcbf1986	-0.0233276
7	0xbdac8be3	-0.08425119
8	0xbbc10e6a	-0.005891611
9	0xbd56b4aa	-0.05241839
10	0xbd4a5a7a	-0.04940269
11	0xbd7bf4b9	-0.061512683
12	0x3c8c9e78	0.017165408
13	0xbe1c1d0b	-0.15245454
14	0xbcf03bdc	-0.029325418
15	0x3d34713d	0.044053305
16	0x3d7e7609	0.062124286
17	0xbc283a98	-0.010267876
18	0x3d195160	0.03743112
19	0xbd5b3371	-0.053515855
20	0xbe252dd9	-0.1613077
21	0xbe099b2d	-0.13438101
22	0xbcaa03da	-0.02075379
23	0xbc651d28	-0.013984002
24	0x3d5a586e	0.05330699
25	0x3d59378f	0.0530315
26	0x3d45bbb9	0.04827473
27	0xbe2b3ba9	-0.16721977
28	0x3b124600	0.0022319555
29	0xbb70c677	-0.0036739388
30	0xbd3b8262	-0.04577864
31	0xbccc6fb5	-0.02495561

fc1.weight f4 [50, 512]
0	0xbe0ac300	-0.13550949
1	0xbd48a531	-0.048985664
2	0x3de95c03	0.11394503
3	0x3db87034	0.09005776
4	0x39d9b048	0.00041520805
5	0xbdd3b97d	-0.103381135
6	0x3e271881	0.16317941
7	0xbe043b99	-0.1291336
8	0xbe137a2b	-0.14402072
9	0xbe0a5124	-0.13507515
10	0xbd0c6e4e	-0.034284882
11	0xbe318227	-0.17334805
12	0xbe35ccc1	-0.17753889
13	0x3e26853b	0.16261761
14	0xbd48fdc2	-0.049070127
15	0x3e32d7b7	0.17465101
16	0xbc9346ef	-0.01797816
17	0x3bbee06b	0.0058250926
18	0xbd3364b0	-0.043797195
19	0xbcd4dfa1	-0.02598554
20	0xbb43d53b	-0.0029881734
21	0x3d19600f	0.037445124
22	0x3c0303c2	0.007996501
23	0x3c2f6348	0.010704823
24	0x3d3381f8	0.04382512
25	0xbba76509	-0.00510848
26	0x3ca67068	0.020317271
27	0xbc2c5dca	-0.010520408
28	0xbd45443d	-0.04816078
29	0xbd3ac411	-0.04559714
30	0xbc86a9fd	-0.016438479
31	0xbd046639	-0.03232405
32	0xbdd9fcaf	-0.10643899
33	0xbdfce8c7	-0.12349086
34	0x3dbc8261	0.09204555
35	0x3e06775b	0.13131468
36	0xbdd704bc	-0.1049895
37	0xbcb9b71a	-0.022670317
38	0x3db91cf4	0.090387255
39	0xbbb9224e	-0.0056498414
40	0x3d68bd2f	0.056821045
41	0xbbf1b285	-0.0073760175
42	0x3d4a834d	0.049441624
43	0x3e932c5b	0.28744778
44	0xbd965691	-0.0734073
45	0xbcde727e	-0.027154204
46	0xbc18f8ea	-0.0093366895
47	0x3d981542	0.074259296
48	0xba8be516	-0.0010673131
49	0xbd8f4220	-0.06995034
50	0xbe06a929	-0.13150467
51	0x3b805950	0.003916897
52	0xbd399ca8	-0.045315415
53	0xbe850c1e	-0.25985807
54	0xbdda0db9	-0.10647149
55	0xbae86cee	-0.0017732659
56	0x3d32966d	0.04360049
57	0xbd710593	-0.058843207
58	0x3e599933	0.21249847
59	0x3c8ff992	0.01757506
60	0x3d11bf2a	0.0355827
61	0x3e07c295	0.13257821
62	0x3d9dbb65	0.07701758
63	0xbc649e13	-0.013953703
64	0xbda11476	-0.07865231
65	0x3cfcc58e	0.03085592
66	0x3df74d84	0.12075332
67	0xbc7f073b	-0.015565689
68	0xbded854d	-0.11597691
69	0x3df30286	0.11865716
70	0x3d6c4c8d	0.057690192
71	0xbdac96ad	-0.084271766
72	0xbd8a51e8	-0.067539036
73	0x3d19131c	0.03737174
74	0x3cf081bb	0.029358735
75	0x3decc8f2	0.11561765
76	0xbb8cee10	-0.00430084
77	0xbe11780c	-0.1420595
78	0xbcbac3ba	-0.022798408
79	0xbd56d4bf	-0.052448984
80	0xbd793962	-0.06084574
81	0xbd477e18	-0.048704237
82	0xbb9d508a	-0.004800861
83	0xbde9f793	-0.11424174
84	0xbcc9fc25	-0.024656365
85	0x3c4d4333	0.012528229
86	0xbcf0e46f	-0.0294058
87	0xbe96e5e5	-0.2947227
88	0xbd4f6a45	-0.050638456
89	0x3df04f59	0.11733884
90	0xbe061540	-0.13094044
91	0xbda61b57	-0.081106834
92	0x3df35a5b	0.11882468
93	0x3e213b01	0.15745164
94	0x3d9c460b	0.07630547
95	0x3dcc5020	0.0997622
96	0xbe5708cc	-0.2099945
97	0xbe097a7f	-0.13425635
98	0x3b3abe20	0.002849467
99	0x3e65ea33	0.22452621
100	0xbde54c15	-0.11196152
101	0x3cfc2e5c	0.030783825
102	0xbd65b225	-0.056078095
103	0x3cf86f8f	0.030326633
104	0xbcde3e6a	-0.02712937
105	0xbcd76363	-0.026292508
106	0x3cf66058	0.030075237
107	0xbe7ff2e9	-0.24995007
108	0x3d73883f	0.059456106
109	0x3c48de9a	0.012260104
110	0x3e3474a0	0.17622614
111	0xbcb8b11e	-0.022545394
112	0xbd806405	-0.06269077
113	0x3e38b6d4	0.18038493
114	0x3d889042	0.0666814
115	0x3ddb4ef6	0.1070842
116	0xbdbe8f7b	-0.093047105
117	0x3e36f991	0.1786864
118	0xbe3cb624	-0.18428856
119	0x3d21b318	0.039477438
120	0x3cda9080	0.026680231
121	0x3dc2142a	0.09476502
122	0x3db6aa4c	0.089192
123	0xbd9aa6d1	-0.07551349
124	0xbe47834c	-0.1948368
125	0xbdb86163	-0.0900295
126	0x3c43ac34	0.011942912
127	0xbe094a32	-0.1340721
128	0x3e0de271	0.13855912
129	0x3e869490	0.2628522
130	0xbcc6ba1d	-0.024258668
131	0xbe0116aa	-0.12606302
132	0x3da14561	0.07874561
133	0x3d4949b2	0.049142547
134	0x3d8d8d37	0.069117
135	0x3e06f46b	0.13179176
136	0xbcac2500	-0.021013737
137	0x3ce8a371	0.028398247
138	0x3e381a3f	0.17978762
139	0xbd952cd8	-0.07283944
140	0xbeb2fb3d	-0.34957305
141	0xbd6263fb	-0.05527113
142	0xbdc1cd86	-0.094630286
143	0xbe38484f	-0.17996334
144	0xbc2cb6eb	-0.010541658
145	0xbd4595d3	-0.048238587
146	0xbd9b49fc	-0.07582471
147	0xbd1ff8e2	-0.039055713
148	0xbd35df31	-0.044402305
149	0xbd388b55	-0.045054752
150	0xbc8e011d	-0.017334515
151	0xbcbb1374	-0.022836424
152	0xbce4bc91	-0.027921947
153	0x3bc7cb5b	0.00609724
154	0x3c875a71	0.016522618
155	0x3c829d53	0.015944159
156	0x3d0b2641	0.03397203
157	0xbd274dfa	-0.04084585
158	0x3ba998a7	0.0051756683
159	0xbd2b788c	-0.04186301
160	0x3db2c2c8	0.08728558
161	0x3dffe107	0.124940924
162	0x3e508fad	0.20367308
163	0xbe1b06e2	-0.15139344
164	0x3d6bc7cd	0.05756359
165	0x3da28742	0.07935955
166	0x39ffe8c2	0.00048810808
167	0xbd8c5d74	-0.06853762
168	0xbdcd51fe	-0.100254044
169	0x3cda8d08	0.026678577
170	0x3ce6b613	0.028162992
171	0x3e03987c	0.12851137
172	0xbd6df807	-0.058097865
173	0xbdc70f85	-0.09719757
174	0xbedac16f	-0.42725703
175	0xbe52bd41	-0.20580007
176	0xbe84d9b3	-0.2594734
177	0xbe5e0f94	-0.2168563
178	0xbe00b027	-0.12567197
179	0xbd61fd6c	-0.055173323
180	0xbe1fec91	-0.15617587
181	0xbe02c65f	-0.12770985
182	0x3e89f4d6	0.26944607
183	0x3e0b6dbe	0.13616082
184	0xbd181685	-0.03713085
185	0xbd8d5fa1	-0.069030054
186	0x3e8330fe	0.25623316
187	0x3cd3d94b	0.02586045
188	0xbe018b2c	-0.12650746
189	0x3e26c21e	0.16284987
190	0xbc87ff76	-0.016601305
191	0x3dae1111	0.08499349
192	0x3cdc8bac	0.02692207
193	0x3c787acf	0.015165999
194	0xbc10f9de	-0.0088486355
195	0xbc218735	-0.009858896
196	0xbcbbeeff	-0.02294111
197	0x3c926347	0.017869605
198	0x3c140126	0.009033477
199	0xbb89ddd6	-0.004207353
200	0x3d0f8067	0.035034563
201	0x3d0c0a98	0.03418979
202	0x3cb047f2	0.021518681
203	0xbb2c0233	-0.0026246428
204	0x3d24bf3b	0.040221434
205	0xbcf6ea65	-0.030141065
206	0x3c954b57	0.018224401
207	0x3d030db0	0.031995475
208	0xbdbc5088	-0.091950476
209	0xbdf7dde5	-0.1210287
210	0x3d30a9c1	0.04313064
211	0x3e4205d5	0.18947537
212	0xbe25ee8b	-0.16204278
213	0xbd0206f5	-0.031744916
214	0x3e093a93	0.1340125
215	0x3cdeb82f	0.027187435
216	0x3db2d43e	0.08731888
217	0x3d7c60be	0.061615698
218	0x3e1d3d01	0.15355302
219	0xbe02cb10	-0.12772775
220	0xbcaf85ff	-0.021426199
221	0xbd4702ba	-0.048586585
222	0xbd258e8b	-0.040419143
223	0xbe2042bf	-0.15650462
224	0xbcba7835	-0.022762397
225	0xbc14b0c1	-0.009075345
226	0x3cd601a7	0.026123835
227	0x3d1ff899	0.03905544
228	0x3daaee7a	0.08346267
229	0xbd4b48af	-0.049629863
230	0xbd58ac1b	-0.052898508
231	0xbe4a3a3d	-0.19748779
232	0xbd06c7e5	-0.032905478
233	0x3d2d27e2	0.042274363
234	0xbdcf3cb0	-0.10118997
235	0xbd09c386	-0.03363373
236	0x3cb4f572	0.022089694
237	0x3c474a06	0.012163645
238	0x39a7f7ac	0.00032037252
239	0xbe01c2a2	-0.12671903
240	0x3e293477	0.1652392
241	0x3e4fea79	0.20304288
242	0x3d657b44	0.05602576
243	0xbe41cb25	-0.1892515
244	0x3d9ee6af	0.07758843
245	0x3dcc2f06	0.099699065
246	0xbd997239	-0.07492489
247	0x3cfdae2e	0.030966844
248	0x3c1aa108	0.009437807
249	0x3d914527	0.07093268
250	0x3ddbbf03	0.10729792
251	0x3d68f32c	0.05687253
252	0xbd42be51	-0.04754478
253	0xbde15904	-0.110033065
254	0xbe32252f	-0.17396997
255	0xbca28cca	-0.019842524

fc1.bias f4 [50]
0	0x3e80c310	0.2514882
1	0x3eb7f133	0.35926208
2	0x3e9cf5a6	0.30656165
3	0x3ea5b0c9	0.3236144
4	0x3e441376	0.19148049
5	0xbdb4f319	-0.0883543
6	0x3eb8fc4c	0.36129987
7	0x3ea95e01	0.33079532
8	0xbd6c8089	-0.05773977
9	0xbd08e529	-0.03342167
10	0x3efb57df	0.49090478
11	0x3e52a954	0.20572406
12	0x3e46cb54	0.19413501
13	0x3dc7f9dc	0.09764454
14	0x3d261b32	0.04055328
15	0x3ebcc5a8	0.3686955
16	0x3d211a2b	0.039331596
17	0xbd959445	-0.07303671
18	0xbd6806c7	-0.05664709
19	0x3a50145a	0.0007937603
20	0x3d89f6f4	0.06736556
21	0xbcfd39d6	-0.030911367
22	0x3ee06f3c	0.43834865
23	0xbd188d5d	-0.03724419
24	0x3d8b39d4	0.06798139
25	0xbc011037	-0.007877401
26	0x3ec661b5	0.3874642
27	0x3e88e4c7	0.26737043
28	0xbdd13ab0	-0.10216272
29	0x3e190f7e	0.14947316
30	0x3e81c22e	0.2534346
31	0x3d904f2b	0.0704635
32	0x3eff56f6	0.49871033
33	0x3cc724ec	0.024309598
34	0x3edfc29f	0.43703172
35	0x3d32930c	0.043597266
36	0x3e34ebe5	0.17668112
37	0x3e3b8897	0.18313824
38	0x3cecd316	0.028909247
39	0x3cc83dd0	0.024443537
40	0x3e2c7b4a	0.16843906
41	0xbd898321	-0.06714464
42	0x3e0ff5a4	0.14058548
43	0x3d9eb4e6	0.077493474
44	0xbd85ab7e	-0.0652685
45	0xbe2168f4	-0.15762693
46	0x3dc5e25a	0.09662314
47	0x3d6b4b9d	0.057445157
48	0xb9f57297	-0.00046815418
49	0xbd808135	-0.06274644

fc2.weight f4 [10, 50]
0	0x3e144143	0.1447802
1	0x3df22434	0.118233114
2	0xbe554062	-0.20825341
3	0xbe92ba00	-0.28657532
4	0xbca2941b	-0.019846013
5	0x3df6665d	0.12031243
6	0xbe8df260	-0.2772398
7	0xbea6a9b7	-0.32551357
8	0xbe4a6da2	-0.19768384
9	0xbe61b5df	-0.22042035
10	0xbe5f07cb	-0.21780317
11	0xbe4df268	-0.20112002
12	0x3df4817e	0.11938761
13	0xbdeaec20	-0.114708185
14	0x3dfb0aa7	0.12257891
15	0xbea41a1c	-0.3205117
16	0xbead6c5a	-0.33871728
17	0x3e05ca68	0.13065493
18	0xbe60ffad	-0.21972533
19	0x3deab92c	0.114611
20	0xbe9de2f6	-0.3083722
21	0xbeb4b141	-0.35291484
22	0xbf0ff750	-0.56236744
23	0xbdae784f	-0.08519041
24	0x3e2770c8	0.16351616
25	0xbdb5b132	-0.08871688
26	0xbea3d3e4	-0.31997597
27	0xbea722ee	-0.32643837
28	0xbe66fac7	-0.22556601
29	0xbe3ac0c5	-0.18237598
30	0x3dffdbb5	0.12493078
31	0xbe158346	-0.14600858
32	0xbe62a8db	-0.22134726
33	0x3d43803f	0.047729727
34	0x3e40bafc	0.18821329
35	0xbe581908	-0.21103299
36	0xbefdc3f8	-0.49563575
37	0x3da0b9cb	0.07847937
38	0x3e238383	0.15968136
39	0xbe2656c9	-0.16244043
40	0x3e259670	0.16170669
41	0xbea15095	-0.31506792
42	0x3e1617ed	0.14657564
43	0xbe4d92cf	-0.20075534
44	0xbe99a91b	-0.3001183
45	0xbdd7b8b6	-0.10533278
46	0xbef0e9c8	-0.4705336
47	0x3e1062e2	0.14100221
48	0xbe4368bd	-0.19082923
49	0xbe220a9a	-0.15824357
50	0x3dc32f72	0.09530534
51	0x3e08fd8b	0.13377969
52	0x3e1845ee	0.14870426
53	0x3e0fa6e8	0.14028513
54	0x3da777cc	0.08177146
55	0xbed95969	-0.42451027
56	0x3e18fc6e	0.14940044
57	0x3dffb742	0.124861255
58	0xbe5a24b4	-0.21303064
59	0xbd0cbc63	-0.034359347
60	0x3df412d4	0.11917654
61	0x3df13365	0.11777381
62	0xbe1422a1	-0.14466335
63	0xbeb56e47	-0.35435697
64	0xbe9ed74f	-0.31023642
65	0x3d83149c	0.06400415
66	0xbe30a25d	-0.17249437
67	0xbe9fb8e4	-0.31195748
68	0xbdfb8562	-0.122813
69	0xbe960d8a	-0.29307204
70	0xbdd8846d	-0.10572133
71	0xbcbc4a9e	-0.022984799
72	0x3d811235	0.06302301
73	0xbe8c862f	-0.27446124
74	0xbe82a0d2	-0.2551332
75	0xbe0e53d5	-0.13899167
76	0x3e1db47c	0.1540088
77	0x3da184e7	0.07886677
78	0xbe825f9b	-0.25463566
79	0x3dc87c61	0.097893484
80	0x3dc0b845	0.094101466
81	0xbe586b9c	-0.211348
82	0x3e6e915a	0.23297635
83	0xbe815895	-0.25262895
84	0x3e265e64	0.16246945
85	0xbe14454a	-0.14479557
86	0xbdeaa07c	-0.11456391
87	0xbe4b38f8	-0.1984595
88	0xbe1ecee4	-0.1550861
89	0xbe1975da	-0.14986363
90	0xbe8fa591	-0.28056005
91	0x3d868de4	0.06570032
92	0xbe567745	-0.20943935
93	0xbda4d079	-0.080475755
94	0xbe51d9c8	-0.20493233
95	0xbe6cbb09	-0.23118223
96	0xbe456461	-0.19276573
97	0xbe41d42d	-0.18928595
98	0xbe69f341	-0.228467
99	0xbe11bdb1	-0.14232518
100	0x3d0a5add	0.03377806
101	0x3dd02ae6	0.10164432
102	0x3e25ff6e	0.1621072
103	0xbe3c4adb	-0.1838793
104	0xbe26cb58	-0.16288507
105	0xbdc0ca85	-0.094136275
106	0xbd703dd1	-0.058652703
107	0x3e024cba	0.12724581
108	0x3db3d06a	0.08779986
109	0x3db5d710	0.088789105
110	0xbe3be251	-0.18348052
111	0x3def4681	0.116833694
112	0x3dbbf7ec	0.09178147
113	0xbcae812d	-0.02130183
114	0xbe84e455	-0.25955454
115	0x3d8fea7a	0.07027145
116	0xbe2c00a1	-0.16797115
117	0xbb09ed63	-0.0021046035
118	0xbd2e93b0	-0.042621315
119	0xbde2c0dc	-0.11071941
120	0x3dac435b	0.084112845
121	0xbdff330a	-0.12460907
122	0xbe99fb08	-0.30074334
123	0xbbc4909e	-0.005998685
124	0xbe6e4a4d	-0.23270531
125	0xbe813b71	-0.25240663
126	0x3de14cdb	0.11000987
127	0xbe4c4341	-0.1994753
128	0xbe60f201	-0.21967317
129	0xbe5957d7	-0.21224914
130	0x3ddda651	0.10822738
131	0xbdbb87a3	-0.0915673
132	0xbd8d98d5	-0.06913916
133	0xbe15c2ae	-0.14625046
134	0xbe26509f	-0.16241692
135	0x3e06ab8d	0.13151379
136	0xbe4f9aab	-0.20273845
137	0x3d870b30	0.06593931
138	0x3e034984	0.12821013
139	0x3df40234	0.11914483
140	0xbd60ed51	-0.054913823
141	0x3dbf848d	0.09351454
142	0x3deffda9	0.11718304
143	0x3daad144	0.083406955
144	0xbe28d688	-0.16488087
145	0x3de2d7fc	0.11076352
146	0xbde04556	-0.10950725
147	0x3dfd8625	0.12379102
148	0xbe342424	-0.17591912
149	0x3e03dbc1	0.12876798
150	0xbe2d396d	-0.16916437
151	0x3da9b2d1	0.0828606
152	0x3e09af9d	0.13445897
153	0xbe56f758	-0.20992792
154	0x3c96137e	0.018319841
155	0xbdce3a8d	-0.100697614
156	0xbe05f7e1	-0.1308284
157	0xbdfc130c	-0.123083204
158	0xbdeba9d6	-0.11507003
159	0xbe36eb11	-0.17863108
160	0xbe4f02a3	-0.2021585
161	0x3df67d4f	0.120356195
162	0x3dfd1fdc	0.12359592
163	0xbe34840f	-0.17628501
164	0xbdf4e137	-0.11957019
165	0x3d7ceaf3	0.061747503
166	0x3dbd1940	0.09233332
167	0x3dd867c1	0.105666645
168	0x3e180513	0.14845686
169	0xbe1ecd8a	-0.15508094
170	0x3dc739fc	0.097278565
171	0x3df6cfab	0.12051328
172	0xbe87822a	-0.26466495
173	0xbeab5d86	-0.3346979
174	0xbe5a7cab	-0.2133662
175	0xbe5eee15	-0.21770509
176	0xbdfb7d17	-0.12279718
177	0xbe70da85	-0.23520859
178	0x3db78ff7	0.08963006
179	0x3e1db079	0.1539935
180	0xbe5fca29	-0.21854462
181	0xbe337f74	-0.17529088
182	0xbe078701	-0.13235094
183	0x3e3cdea8	0.18444312
184	0xbea4e78f	-0.32207915
185	0xbd3547b3	-0.04425783
186	0xbe6e3971	-0.232641
187	0x3d7572d6	0.05992397
188	0xbe04c177	-0.12964426
189	0x3c9856ed	0.018596137
190	0xbd21d8b8	-0.03951332
191	0x3dbf81c9	0.093509264
192	0xbe153753	-0.14571886
193	0x3dbe27cf	0.09284937
194	0x3dabab21	0.083822496
195	0xbd549884	-0.051903263
196	0xbe7d1622	-0.24715474
197	0xbdea33ca	-0.11435659
198	0x3d926430	0.071480155
199	0xbcf7eefa	-0.03026532
200	0xbe059439	-0.13044824
201	0x3dd0bb79	0.101920076
202	0xbe1c52c0	-0.15265942
203	0x3dfc0215	0.123050846
204	0xbe58b59d	-0.2116303
205	0x3d5ddb58	0.05416426
206	0xbd630d6c	-0.055432722
207	0x3e1d3ba9	0.1535479
208	0xbe05258b	-0.13002603
209	0x3d90c721	0.07069231
210	0x3c9d011b	0.019165566
211	0xbe8c08e5	-0.27350536
212	0xbe307bbc	-0.17234701
213	0x3e101a5e	0.14072558
214	0xbe4ad1dd	-0.19806619
215	0x3d892166	0.06695823
216	0xbb2c39e1	-0.0026279616
217	0xbe60fd39	-0.21971597
218	0xbd819f6e	-0.06329237
219	0xbe462691	-0.1935065
220	0xbe29f572	-0.16597536
221	0x3df81a33	0.12114372
222	0x3da17807	0.078842215
223	0x3df6e837	0.1205601
224	0x3e3c6214	0.18396789
225	0x3e21b356	0.15791067
226	0xbda24e27	-0.079250626
227	0x3d68c39c	0.056827173
228	0x3db4c419	0.08826465
229	0xbdc6465a	-0.09681387
230	0xbd82f7d6	-0.06394927
231	0x3dddce81	0.10830403
232	0x3c4f688b	0.012659202
233	0xbe09c754	-0.13454944
234	0x3e115155	0.14191182
235	0x3e08f956	0.13376364
236	0x3e14807d	0.1450214
237	0xbe74284f	-0.23843502
238	0xbd8cb1c8	-0.068698466
239	0xbe11372d	-0.14181204
240	0xbe473401	-0.19453432
241	0xbeb524b2	-0.3537956
242	0xbe0e5f13	-0.13903455
243	0x3da4d5b7	0.08048575
244	0xbe01a00b	-0.12658708
245	0x3df0cbbb	0.117576085
246	0x3e0a34ad	0.13496657
247	0x3df1442b	0.1178058
248	0xbec52501	-0.38504794
249	0xbe9c2f1e	-0.30504698
250	0x3dabdf35	0.08392183
251	0xbd6d228b	-0.05789427
252	0xbe25a1c0	-0.16174984
253	0xbe7fe4f2	-0.2498968
254	0x3daf2668	0.08552247
255	0x3db18661	0.08668209

fc2.bias f4 [10]
0	0x3f570ed4	0.84007
1	0x3f719354	0.9436543
2	0xbe9124f8	-0.28348517
3	0xbe952490	-0.29129457
4	0xbed6ee00	-0.41978455
5	0xbe8812f9	-0.26576975
6	0xbe321913	-0.17392378
7	0xbd972960	-0.073809385
8	0x3c5484e7	0.0129711395
9	0xbe49ed5c	-0.19719452

exp_avg f4 [16, 1, 5, 5]
0	0x3ca4d47d	0.020120854
1	0x3c503b74	0.012709487
2	0x3c3d0046	0.01153571
3	0x3c756dd9	0.014979803
4	0x3c76615f	0.0150378635
5	0x3bdc13e4	0.0067162383
6	0x38f722c9	0.00011784357
7	0xb9c8d98a	-0.00038309052
8	0x3c184e47	0.0092960065
9	0x3c9282f9	0.017884718
10	0x3b48527e	0.0030566747
11	0xba241fd3	-0.00062608457
12	0xba7e8335	-0.00097088824
13	0x3c6d2567	0.014474249
14	0x3cd1d712	0.025615249
15	0x3b219d28	0.0024660323
16	0xbb84cb79	-0.004052576
17	0x3b31937f	0.002709597
18	0x3cb97244	0.022637494
19	0x3cb3a7c1	0.021930577
20	0xbbeeb541	-0.0072847907
21	0xbc02cc56	-0.007983288
22	0x3bc3a720	0.0059708506
23	0x3c87a7de	0.016559538
24	0x3bdb40c7	0.0066910717
25	0xbc50d02c	-0.012744945
26	0xbb919038	-0.004442241
27	0x39a3ad95	0.0003121911
28	0xbb20881f	-0.0024495197
29	0x3af4bcea	0.0018672023
30	0xbbd43ae1	-0.0064767455
31	0xbc0a7ebe	-0.008453069
32	0xbc39a6a4	-0.011331234
33	0xbc0635bd	-0.008191523
34	0xba68666b	-0.0008865359
35	0xb96c9190	-0.0002256094
36	0xbb10667a	-0.0022033737
37	0xbacdc2bb	-0.0015698293
38	0xb99b59aa	-0.0002963071
39	0x3bcc7025	0.0062389546
40	0x3c1e6452	0.009667473
41	0x3b56700a	0.003272059
42	0x3b862dca	0.004094814
43	0x3b945c04	0.0045275707
44	0x3c7634ea	0.015027264
45	0x3c5cb4d3	0.013470846
46	0x3b641fd7	0.0034809017
47	0x3b478c93	0.003044878
48	0x3c37dcc8	0.011222072
49	0x3ca40c1d	0.020025307
50	0x3adcf75a	0.0016858384
51	0x3c28a3e2	0.010292979
52	0x3c806b72	0.015676234
53	0x3c6f206f	0.014595135
54	0x3c54ed27	0.012995995
55	0x3b263252	0.0025359583
56	0x3c6d2f51	0.014476613
57	0x3cca10ae	0.024666157
58	0x3cae3951	0.021267565
59	0x3c4e2716	0.012582561
60	0x3af0c429	0.0018369007
61	0x3cbb2a0d	0.0228472
62	0x3d001540	0.031270266
63	0x3cfe2e88	0.031028047
64	0x3c5c65f2	0.01345204
65	0x3a542771	0.00080930354
66	0x3cb4f0ed	0.022087539
67	0x3d26b3cd	0.040698815
68	0x3d182174	0.03714128
69	0x3c4d681f	0.012537031
70	0x3b00ec45	0.0019672078
71	0x3cf9f18c	0.030510686
72	0x3d3f4f02	0.046706207
73	0x3d077b53	0.033076596
74	0x3c8bda21	0.017071785
75	0x3cb2b1f4	0.02181337
76	0x3c0143ad	0.00788967
77	0x3953b28a	0.00020189039
78	0xbc03247e	-0.008004306
79	0xbc864144	-0.016388543
80	0x3c86875c	0.016421966
81	0xb9156c41	-0.00014250075
82	0xba73d9db	-0.00093021774
83	0xbc030291	-0.007996217
84	0xbc208302	-0.00979686
85	0x3c3621e0	0.011116475
86	0x3b0e0a24	0.0021673525
87	0xbb09809e	-0.0020981203
88	0xbba9328e	-0.0051634973
89	0x3b0b0d1e	0.0021217535
90	0x3bab86ce	0.005234576
91	0xbb2b4c13	-0.0026137873
92	0xbbf54b82	-0.007485808
93	0xbbcb866b	-0.006211092
94	0x3b1755c8	0.00230919
95	0x3b0e840a	0.0021746182
96	0xbbbcd054	-0.0057621393
97	0xbc025b7b	-0.007956381
98	0xba162928	-0.00057281787
99	0x3b858218	0.0040743463
100	0xbbf38ae2	-0.0074323276
101	0xbbeb41f7	-0.0071794945
102	0xbc28bba2	-0.010298641
103	0xbc16da10	-0.009207264
104	0xb90f106c	-0.0001364366
105	0xbc843bdc	-0.016141824
106	0xbc3ea74e	-0.011636568
107	0xbc5c8717	-0.013459942
108	0xbc1ee8b2	-0.009699034
109	0xbb39f792	-0.0028376323
110	0xbc9fc047	-0.019500865
111	0xbc80ecbc	-0.015737884
112	0xbbc3e72c	-0.0059784856
113	0xbb55cd19	-0.0032623468
114	0xbafbed77	-0.001922055
115	0xbc8e8704	-0.017398365
116	0xbc42f7f0	-0.011899933
117	0x3be6b263	0.0070403083
118	0x3bab3c71	0.005225711
119	0xbb10a1c5	-0.0022069078
120	0xbc4967a6	-0.012292778
121	0x3b33098c	0.0027318923
122	0x3c71aa78	0.014750116
123	0x3c130db1	0.008975432
124	0xbb14b09f	-0.0022688282
125	0x3c9a1db3	0.01881299
126	0x3c3acdce	0.011401607
127	0xbb304e82	-0.0026902263
128	0xbc4e4a1c	-0.012590911
129	0xbc8cf218	-0.017205283
130	0x3c896116	0.016769927
131	0x3beb6b1f	0.0071844007
132	0xbb1088d8	-0.0022054221
133	0xbc085087	-0.00831998
134	0xbc89b02b	-0.016807636
135	0x3c1c9ce2	0.009558888
136	0xba6cbe5e	-0.00090310525
137	0xbb5cfd5a	-0.0033720345
138	0xbbb48f82	-0.0055102715
139	0xbbfe7abc	-0.007766096
140	0x3a1800fa	0.00057984854
141	0xba38f4e5	-0.0007055535
142	0xba455bf3	-0.0007528655
143	0xb98304c3	-0.00024989815
144	0xbab197f1	-0.001354931
145	0xbb168f7b	-0.0022973705
146	0xbab001de	-0.0013428291
147	0xb98feae2	-0.00027450087
148	0xb9b58f3e	-0.00034629734
149	0xb9e12f59	-0.0004295062
150	0xbc0be923	-0.008539471
151	0x3b773e6d	0.0037726418
152	0x3b99bae6	0.0046914695
153	0x3bcc5ab5	0.006236399
154	0xbaff19ee	-0.0019462684
155	0x3b1e11c1	0.002411947
156	0x3b7d586d	0.0038657442
157	0x39691b9c	0.00022230897
158	0xbba1ec0d	-0.0049414695
159	0xbc84563a	-0.016154397
160	0xbb128e9f	-0.002236284
161	0xbc430030	-0.0119019
162	0xbc8597fc	-0.016307823
163	0xbc84cda9	-0.016211348
164	0xbca08ace	-0.019597437
165	0xbc118c17	-0.008883498
166	0xbc8b18f3	-0.01697967
167	0xbc3ddb3e	-0.011587916
168	0xbbcb7d95	-0.006210039
169	0xbc203f7f	-0.009780764
170	0xbc61257f	-0.01374185
171	0xbc29a61f	-0.010354548
172	0x3affabb3	0.0019506126
173	0x3bdafac6	0.0066827266
174	0x3bb72fab	0.0055903993
175	0xbd41f775	-0.047355134
176	0xbcb0be27	-0.021575047
177	0xbc5b59d3	-0.013388115
178	0xbc8f0056	-0.017456215
179	0xbcd1029a	-0.025513936
180	0xbd1d74b7	-0.038441386
181	0xbc9a472c	-0.018832766
182	0xbb83d1b1	-0.0040228
183	0xbba5bd8b	-0.0050579957
184	0xbc7a7e96	-0.0152889695
185	0xbcff35bb	-0.03115355
186	0xbcd730e4	-0.02626843
187	0xbc4737e3	-0.0121593205
188	0xbc436dc9	-0.01192803
189	0xbc98dc98	-0.018659875
190	0xbce08693	-0.02740792
191	0xbd05cd98	-0.032666773
192	0xbca44bab	-0.020055613
193	0xbc693320	-0.014233381
194	0xbc3e9780	-0.0116328
195	0xbc817ead	-0.015807474
196	0xbcb71336	-0.022348028
197	0xbc96843d	-0.018373603
198	0xbb4d5239	-0.0031329526
199	0x3c07b345	0.008282487
200	0xbc9a2de1	-0.018820705
201	0xbca70c50	-0.020391613
202	0xbc0d6003	-0.008628848
203	0x3b01bd94	0.0019796835
204	0xbb9e30a7	-0.004827577
205	0xbcba37d6	-0.022731703
206	0xbcaf6ab0	-0.021413177
207	0xbc824405	-0.015901575
208	0xbbc83ecd	-0.006111002
209	0xbb9cc858	-0.004784625
210	0xbc89ca17	-0.016819997
211	0xbc6fd530	-0.01463823
212	0xbc2c98d9	-0.010534489
213	0x39e70727	0.00044065082
214	0x3bce7d05	0.0063015246
215	0xbb8b5d22	-0.0042530457
216	0xb93889cd	-0.00017598942
217	0x3b05eb33	0.002043438
218	0x3c56eb25	0.013117586
219	0x3c55b70b	0.013044129
220	0x3b901be6	0.004397857
221	0x3c0bbcc9	0.008528897
222	0x3b95c712	0.00457085
223	0x3be72a72	0.0070546204
224	0x3bf1e2f5	0.0073817917
225	0xbab0808c	-0.0013466044
226	0xbb8551d9	-0.004068595
227	0xba061e82	-0.00051162404
228	0x3adcc564	0.0016843495
229	0x3b5438a5	0.0032382396
230	0x3a2d94bb	0.0006621589
231	0xbb1a501e	-0.0023546289
232	0xbb97bd66	-0.0046307324
233	0xbb92756a	-0.0044695633
234	0xbaf7a8b8	-0.0018894887
235	0x3a0b9ede	0.0005326102
236	0xbb0d433f	-0.0021554974
237	0xbb1755d8	-0.0023091938
238	0xbacdbb03	-0.0015695993
239	0xbb36e74d	-0.0027908862
240	0x3b05197a	0.0020309375
241	0x3b904363	0.0044025644
242	0xbaa17133	-0.0012317061
243	0xbb9f7adb	-0.0048669404
244	0xbbd8f870	-0.006621413
245	0xbacfa7b2	-0.0015842824
246	0xbab848cc	-0.0014059781
247	0xbc51be46	-0.012801712
248	0xbc3c3708	-0.01148773
249	0xbba493ee	-0.0050225174
250	0x3c3ce5ef	0.01152943
251	0x3ae4ad2d	0.001744663
252	0xbc045348	-0.008076496
253	0xbc759eb2	-0.014991449
254	0xbca5d0b3	-0.020241117
255	0x3c899455	0.016794363

exp_avg_sq f4 [16, 1, 5, 5]
0	0x39c52520	0.00037602428
1	0x39afd995	0.00033540712
2	0x3a3b3852	0.0007141876
3	0x3af295d1	0.0018507784
4	0x3b5f7904	0.003409923
5	0x3993688f	0.00028115927
6	0x398c1796	0.00026720454
7	0x3a3c3cf0	0.0007180711
8	0x3b18841e	0.0023272107
9	0x3b8de4c0	0.0043302476
10	0x39afcf9c	0.00033533282
11	0x39d07981	0.0003976338
12	0x3a7e4a2c	0.00097003835
13	0x3b51778b	0.0031962122
14	0x3bb9721d	0.0056593553
15	0x3a14f4eb	0.00056822476
16	0x3a4c5e53	0.0007796038
17	0x3adbfd19	0.0016783803
18	0x3ba05f64	0.004894184
19	0x3bd23cf8	0.0064159594
20	0x3a660bb9	0.00087755505
21	0x3ac3b640	0.0014931634
22	0x3b68eb87	0.0035540776
23	0x3bccc356	0.006248872
24	0x3bc86707	0.0061157974
25	0x3baac70d	0.005211717
26	0x3b8fb24a	0.0043852674
27	0x3b2b47dd	0.0026135363
28	0x3aa460a7	0.0012541012
29	0x3a653b7c	0.00087445206
30	0x3b972ef0	0.0046137497
31	0x3b2f2729	0.0026726222
32	0x3a685488	0.0008862694
33	0x3a0a7707	0.00052820187
34	0x3a120b0f	0.0005571106
35	0x3b4b4a56	0.003101965
36	0x3a92daad	0.0011204086
37	0x39f4161c	0.0004655578
38	0x39f15e7f	0.00046037507
39	0x3a3b5d35	0.0007147373
40	0x3af2755d	0.0018498112
41	0x3a43b973	0.0007466294
42	0x39f05da7	0.00045846144
43	0x3a038c7d	0.0005018188
44	0x3aafb393	0.0013404958
45	0x3ab16574	0.0013534264
46	0x3a5152ae	0.00079850375
47	0x3a3a199b	0.00070991524
48	0x3acc2289	0.0015574257
49	0x3b3247e8	0.0027203504
50	0x3a498aea	0.00076882413
51	0x3a8833e2	0.0010391439
52	0x3ad9af89	0.00166081
53	0x3af7f32d	0.0018917077
54	0x3ada58f9	0.0016658596
55	0x39f7b595	0.000472468
56	0x3a5fc97b	0.0008536798
57	0x3ad8c86b	0.0016539221
58	0x3b1ce850	0.002394218
59	0x3b1a51ea	0.002354736
60	0x395e90df	0.00021225539
61	0x3a1e8847	0.00060475286
62	0x3ae4deec	0.0017461455
63	0x3b4985ce	0.003074992
64	0x3b2c72f0	0.0026313625
65	0x3943908e	0.000186505
66	0x3a468254	0.0007572521
67	0x3b30b079	0.0026960655
68	0x3b652ad6	0.003496816
69	0x3b15a0ac	0.0022831364
70	0x39f319f6	0.00046367914
71	0x3ad2b8d0	0.0016076807
72	0x3b57c738	0.003292514
73	0x3b4fbc81	0.003169805
74	0x3b01d014	0.0019807862
75	0x3b227967	0.00247916
76	0x3b0020fb	0.0019550908
77	0x3ac2e500	0.0014869273
78	0x3ad0ecb4	0.0015939684
79	0x3b239a38	0.0024963748
80	0x3adf86e6	0.0017053753
81	0x3abdf99f	0.0014493949
82	0x3ace6e55	0.0015749434
83	0x3aff8ff2	0.0019497855
84	0x3b27b58c	0.0025590388
85	0x3a50d710	0.0007966617
86	0x3a8403f4	0.0010071979
87	0x3acff3f0	0.0015865546
88	0x3b00d244	0.0019656578
89	0x3af670fa	0.001880198
90	0x39d733ab	0.0004104649
91	0x39dee7cb	0.0004251584
92	0x3a5b0e7a	0.0008356344
93	0x3a8e2f4f	0.0010847839
94	0x3a8eaefd	0.0010885891
95	0x3971a15d	0.00023043664
96	0x399b94e6	0.00029674842
97	0x3a07b689	0.0005177041
98	0x3a0baeb2	0.0005328461
99	0x3a34b526	0.00068934483
100	0x3b47dbe3	0.0030496053
101	0x3b2273ab	0.0024788182
102	0x3ad29853	0.0016067125
103	0x3a680c1d	0.00088519027
104	0x3a04c2d0	0.000506443
105	0x3b0d5c66	0.0021569966
106	0x3b0b6d7a	0.002127497
107	0x3ac16319	0.0014754265
108	0x3a17ec70	0.0005795425
109	0x398569d4	0.00025446585
110	0x3ad8beb8	0.0016536331
111	0x3b150c6e	0.0022743004
112	0x3afdea15	0.001937213
113	0x3a3fb139	0.000731248
114	0x3a036f88	0.0005013873
115	0x3ab890a9	0.0014081198
116	0x3b15cc0e	0.0022857222
117	0x3b258daa	0.002526144
118	0x3ac02e3b	0.0014662215
119	0x3a8778d3	0.0010335691
120	0x3a915038	0.0011086529
121	0x3af9c915	0.001905712
122	0x3b197777	0.0023417154
123	0x3b00aff8	0.0019636136
124	0x3ac4cede	0.0015015265
125	0x3b261bc8	0.0025346149
126	0x3ae4e160	0.0017462187
127	0x3aea58ec	0.0017879284
128	0x3b03118d	0.0019999475
129	0x3b127a28	0.0022350643
130	0x3b235021	0.0024919587
131	0x3af7b9e3	0.0018900003
132	0x3aebe35f	0.0017996839
133	0x3ae0409a	0.0017109097
134	0x3b02fab2	0.0019985852
135	0x3aa2261b	0.0012370975
136	0x3a3d9d9b	0.0007233263
137	0x3a20f1fa	0.0006139573
138	0x3a119559	0.00055535656
139	0x3a502649	0.0007940275
140	0x399f9420	0.00030437205
141	0x39679fc3	0.00022089393
142	0x3960dae0	0.00021443842
143	0x3961e614	0.00021543383
144	0x39937959	0.00028128436
145	0x397b58ce	0.00023970308
146	0x395668c6	0.00020447662
147	0x3953ca42	0.00020197875
148	0x3961bdf8	0.00021528441
149	0x39a296fe	0.00031011546
150	0x3a0f27db	0.0005460956
151	0x392452bb	0.00015671078
152	0x396472f2	0.00021786595
153	0x3a1386aa	0.00056276715
154	0x3a864af4	0.0010245726
155	0x390dba05	0.00013516106
156	0x390d717d	0.00013489086
157	0x39a8c777	0.0003219207
158	0x3a860d62	0.0010227377
159	0x3ac0de1c	0.0014714631
160	0x39451460	0.00018794974
161	0x39bc0c23	0.00035867197
162	0x3a935a23	0.0011242073
163	0x3af51943	0.0018699545
164	0x3adeb626	0.001699154
165	0x3a304e86	0.0006725568
166	0x3aa9c76d	0.001295311
167	0x3b0052bb	0.0019580561
168	0x3aebbee9	0.0017985973
169	0x3aa109c6	0.0012286238
170	0x3ab745b0	0.001398256
171	0x3b0c17c4	0.002137647
172	0x3b12c4fd	0.0022395246
173	0x3ad5ec89	0.0016321103
174	0x3a925f97	0.0011167404
175	0x3b30bcdd	0.002696804
176	0x3b157526	0.0022805422
177	0x3b051179	0.0020304604
178	0x3b1bdfb8	0.002378447
179	0x3b7f6579	0.0038970395
180	0x3b2cb654	0.0026353793
181	0x3b0c00b1	0.0021362717
182	0x3a6b6181	0.0008979068
183	0x3a8775b0	0.0010334756
184	0x3b2eebf4	0.0026690932
185	0x3b4f8325	0.0031663862
186	0x3b4f49da	0.0031629712
187	0x3aa8f019	0.0012888937
188	0x3af66935	0.0018799665
189	0x3b46cb57	0.0030333602
190	0x3b7012e2	0.0036632349
191	0x3b9817fc	0.004641531
192	0x3b84e69a	0.00405581
193	0x3b943e2b	0.0045240126
194	0x3b8eee5d	0.004361911
195	0x3b6742b5	0.0035287563
196	0x3ba749d9	0.005105239
197	0x3be5dad9	0.007014614
198	0x3bd8e287	0.006618801
199	0x3ba75ef2	0.005107754
200	0x3abfa8ff	0.0014622508
201	0x3a9bae11	0.0011877437
202	0x3a280fd2	0.0006411049
203	0x39359ecb	0.0001732066
204	0x392bf3eb	0.00016398697
205	0x3af61007	0.0018773087
206	0x3ac36715	0.001490804
207	0x3a6149d0	0.0008594068
208	0x39d12828	0.00039893505
209	0x39d8a7b9	0.00041323694
210	0x3b0a6ce1	0.0021122026
211	0x3ae1b5e6	0.0017220348
212	0x3aaa44ab	0.0012990435
213	0x3a888a56	0.0010417204
214	0x3a827460	0.0009952895
215	0x3ae24da1	0.0017265567
216	0x3aad25cc	0.0013210117
217	0x3aa7283e	0.0012753082
218	0x3ac20b1e	0.0014804339
219	0x3afb5c24	0.001917724
220	0x3ad5687d	0.001628175
221	0x3aa9b798	0.0012948392
222	0x3aa1fa8f	0.0012357997
223	0x3aecbb97	0.0018061277
224	0x3b13e352	0.0022565913
225	0x3ae71bc4	0.0017632176
226	0x3b11585b	0.0022177908
227	0x3b2ac7a0	0.0026058927
228	0x3b2ac8a9	0.0026059544
229	0x3b1cf172	0.0023947624
230	0x3aa0704b	0.0012240497
231	0x3a8390f3	0.0010037705
232	0x3a4d686f	0.0007835691
233	0x3a549b9b	0.0008110345
234	0x3a90e640	0.0011054948
235	0x3a32e7cb	0.0006824701
236	0x3a07a31c	0.00051741465
237	0x3a07b2f0	0.0005176505
238	0x3a06f554	0.0005148251
239	0x3a45d37c	0.0007546467
240	0x3a606b19	0.00085608807
241	0x3a2af473	0.0006521411
242	0x3a1fdc92	0.0006098236
243	0x3a64cf29	0.0008728379
244	0x3b06d6ed	0.0020574883
245	0x3abe6866	0.0014526963
246	0x3ace6c92	0.0015748909
247	0x3b043326	0.0020172088
248	0x3b34eb28	0.0027605984
249	0x3b870fbf	0.00412175
250	0x3a9e7e10	0.0012092013
251	0x3aac5bab	0.0013149878
252	0x3b16e292	0.002302323
253	0x3b425043	0.002964989
254	0x3b6c906c	0.0036096824
255	0x3b0bcd15	0.0021331955

exp_avg f4 [16]
0	0x3bd568de	0.0065127453
1	0xbc0924ba	-0.008370573
2	0x3c96a724	0.018390246
3	0xbbcad9d0	-0.006190516
4	0x3c02f445	0.007992809
5	0xbb1163a4	-0.0022184635
6	0xbc27442c	-0.010209125
7	0xbc8c44f7	-0.017122729
8	0x3b2865b5	0.0025695388
9	0x3b68715a	0.0035467953
10	0xbc218615	-0.009858628
11	0x3c56c070	0.013107404
12	0x3bf5bf2d	0.0074995966
13	0xb9885ebd	-0.00026010527
14	0xbbb4a504	-0.0055128355
15	0x3b90061d	0.00439526

exp_avg_sq f4 [16]
0	0x3ade2bb1	0.0016950277
1	0x3b1adae6	0.0023629009
2	0x3a4d6842	0.0007835665
3	0x3a7a865b	0.00095567637
4	0x3a4b260b	0.00077495043
5	0x3a9489c2	0.0011332559
6	0x3a1e5e56	0.0006041279
7	0x3b135341	0.0022480043
8	0x3a0a6e6e	0.00052807375
9	0x3b34590f	0.0027518903
10	0x3ab6e321	0.0013953188
11	0x3abe293f	0.0014508142
12	0x3a2c8811	0.0006581555
13	0x39d005d9	0.00039677208
14	0x3ab7ceb2	0.0014023392
15	0x39f7fccc	0.0004729986
