models/colab_best_MNIST_STN2_20_ver_1.pth (torch, 590889 bytes, 80 tensors)

base.base_net.0.0.weight f4 [16, 1, 5, 5]
00000000: ef6f 04bd 5148 79bd 26a1 f2bd 42b3 48be
00000010: a27e ddbc 522b 3c3e 7e28 31be 1963 a2bc
00000020: 8af4 1d3e 315c 4c3e 725b 513e 7ade 55bd
00000030: e61e 373e c0e7 123e c2f5 34bd 2d20 16be
00000040: 75eb 153d ab36 2e3c f3c7 8c3d 495a cbbd
00000050: b542 54be 06e5 91be 1b7a aebe c77c 98be
00000060: 3af3 0ebe 4430 82bd aa0b 333d eb6c c2bd
00000070: 2036 443e 0a4a 81be 7fc9 083d 89dd b13d
00000080: 9cd5 11bd 833a 9c3e d68e c43d 46a8 7abe
00000090: 4f3a fcbd 300c 0c3c 41d0 f13c 0f17 9a3e
000000a0: 83bc cfbd f7b4 6bbe 548c afbd 95e4 12be
000000b0: 1bda 263c 2c96 d3bd 35c0 dfbd 7874 8dbe
000000c0: ec0c 71be 1936 cfbd 8e2e 273d e689 a33b
000000d0: 3cdc 2b3d eafa 883d b82b 2b3e 0005 7f3d
000000e0: bc23 06be afde 32be 236f 96be 9623 0bbe
000000f0: b105 80bb 9cf2 54bd bc17 713e a4b0 cbbd
00000100: 45e2 8abe f5ec 543e 81dd d5bd 9038 663e
00000110: b348 903e b7b7 bebc 61ed 1fba 2b6a 3e3a
00000120: cba8 35be ef8f 8b3d f660 52be e805 13bd
00000130: 9313 47be 4196 703c e1d8 ed3d e8e9 1b3e
00000140: b359 87bd 30df fc3b 8b0c bdbe 2c37 84be
00000150: 6947 6dbc 7a8d cfbd 21bb bdbd 996b 5cbd
00000160: adeb 78be f08c 86be 074c 203d abb6 603e
00000170: 8259 413e 0d1c d33c df3d 19be eadf 8dbd
00000180: 1397 9ebd ec4d fc3d b212 603e b0ab 88bd
00000190: 16fa 06bc 8001 56be 1f79 84be b85b 81be
000001a0: cd81 13bd 553e 93be a009 06be 0fe4 db3d
000001b0: e586 253e 6554 9b3e f907 81be 9eb3 98bc
000001c0: c699 2d3e 76bd 093e c84d 4cbd 8072 313e
000001d0: 50e0 283d 8e1f b63d 6d9b a6bc 6bf0 d2bd
000001e0: 987a 02bd 1651 6ebc 59f3 96bd f94a 2ebe
000001f0: 5066 143e 0245 e9bd 5b82 98bc 6ac9 1cbd
00000200: 505f 9abe 1d17 9abe 74c4 003e 0d81 abbd
00000210: da83 c33c 7af5 99be 0977 adbd 2261 303d
00000220: c6cd 053e 30c4 19bd 34a2 a83d f4b6 3b3d
00000230: dd2c c43d ac19 373e b284 3f3e 47e5 533d
00000240: 509c 16bd ce45 6a3e 2464 91bd 9e55 213e
00000250: 9af8 003d ca6e a03e eade 2d3e 053e 683d
00000260: fdd1 593e 0844 ad3d 78cf 1e3e f5c7 053e
00000270: 2bee 373a 39f2 673e 97c9 933d 6610 aabd
00000280: 9545 12be 8cc6 e23b 6a1c ec3c 327f 71bd
00000290: 73bb 73be 8092 e6bd 7528 38be e2fd 2cbe
000002a0: bb4b c3be 62a9 10be 3483 98bd ecc6 7cbd
000002b0: 5d4d ddbd 8aef 08be 79bb 843e 5ffa 823b
000002c0: 4812 90bd 5058 a73c 42b7 af3d b9fb 15be
000002d0: 0b4d 45bd a762 5fbc 6a47 263e 929e 39be
000002e0: fb42 92be 34f8 71be b4b7 1abe 309e 843e
000002f0: 536d 4abe 8cc7 903d 4ef3 9ebe 2c5c 54bc
00000300: 0772 013e 8c49 21be ba0a 39be 78f7 643e
00000310: 93ec bd3d b7c5 423e bfff 613c 2e84 17bc
00000320: 6fbe 3b3c acc6 ae3d 31e8 b5bd ba3a 6bbe
00000330: 65b9 9abe 3550 813e afc7 9fbd 1a3c b4bb
00000340: ce3f 7bbe 759d cb3d 26b0 c53d e133 81be
00000350: c754 d7bc c472 b8bd 33e6 8f3d 6761 c2bd
00000360: d6ae 15be 00dc 59be d74d 063e e8c6 2f3d
00000370: ad86 96be 56f0 4ebe db11 febd 486f 6c3e
00000380: 699b 6a3e d354 ddbd 257d 483e 66a7 c43d
00000390: d52b 643e 03e6 cabd 3593 dc3d 5961 343d
000003a0: 9472 813e 297a 013e 679e 48be cb9e 313d
000003b0: d02a 873d dd6e 683e f1e4 363e 2c57 33be
000003c0: 684c 343d 40a5 663d 298d 283d 9529 723e
000003d0: d0ec 2ebe 4fdb 5dbd c0b1 d3bd 23ae 243e
000003e0: 0a32 9ebd c953 153e e947 873d 07c5 263d
000003f0: 929a 043e a4d2 18be 4705 8cbe b6e7 3bbd
-0.03233331 -0.060859982 -0.11847143 -0.19599631 -0.027037922 0.183759 -0.17300603 -0.019822644
0.15425315 0.19957043 0.2044504 -0.052214123 0.1788288 0.14346218 -0.044179685 -0.14660712
0.036601502 0.010633151 0.06874075 -0.0992933 -0.20728572 -0.28495044 -0.34077534 -0.29782698
-0.13959971 -0.06356862 0.043712296 -0.09493431 0.19161272 -0.252518 0.033395287 0.086848326
-0.035604104 0.3051339 0.09597556 -0.24478254 -0.12315809 0.008547828 0.029518249 0.30095717
-0.10143378 -0.23018251 -0.08571687 -0.1434501 0.010183836 -0.103313774 -0.109253325 -0.2762792
-0.23540086 -0.1011774 0.040815882 0.004990804 0.04195808 0.06688483 0.16715896 0.062260628
-0.13099569 -0.1746776 -0.29381666 -0.13587794 -0.0039069285 -0.051989183 0.2354421 -0.09945801
-0.27125755 0.20793517 -0.10442639 0.22482514 0.28180465 -0.023280961 -0.0006100741 0.0007263745
-0.1774017 0.068145625 -0.205448 -0.035894305 -0.1944106 0.014684261 0.11613632 0.15225947
-0.06608906 0.0077170357 -0.36923632 -0.25823343 -0.014482358 -0.101344064 -0.09264208 -0.05381355
-0.24308653 -0.26279402 0.039135005 0.21944682 0.18881801 0.025770212 -0.14965008 -0.06927474
-0.07743659 0.1231955 0.21882132 -0.06673372 -0.008238336 -0.2089901 -0.25873658 -0.25265288
-0.03601246 -0.28758493 -0.13089609 0.10736858 0.1616474 0.30337825 -0.25201395 -0.018640336
0.16953191 0.1345118 -0.049878865 0.17328835 0.041229546 0.08892737 -0.020337785 -0.10299762
-0.031855196 -0.0145457 -0.07370634 -0.17020787 0.14492154 -0.11390115 -0.018616846 -0.03827802
-0.30150843 -0.3009576 0.12574941 -0.08374224 0.023866583 -0.30070096 -0.0846997 0.043061383
0.13066778 -0.037540615 0.08234063 0.045828775 0.095788695 0.17880887 0.18702963 0.051732328
-0.036770165 0.22878191 -0.070991784 0.15755317 0.031487085 0.31334525 0.16979566 0.05669977
0.2127151 0.084602416 0.1550883 0.13064559 0.0007016386 0.22650994 0.072161846 -0.08303909
-0.14284356 0.0069206413 0.028822143 -0.058959194 -0.23801975 -0.112584114 -0.17984183 -0.16893724
-0.38143715 -0.14127114 -0.074469 -0.061713144 -0.108057715 -0.13372627 0.2592428 0.0039971317
-0.07034737 0.020427853 0.085798755 -0.14646806 -0.048169177 -0.01363436 0.1623818 -0.18126896
-0.28566727 -0.23629838 -0.1510914 0.25901937 -0.19768266 0.070693105 -0.31045002 -0.012961429
0.12641154 -0.15750712 -0.18070498 0.22360027 0.092736386 0.19020735 0.013793885 -0.009247823
0.011458977 0.085339874 -0.088821776 -0.22971621 -0.3021957 0.25256506 -0.078017585 -0.0055003287
-0.24536058 0.09942142 0.09652738 -0.25234893 -0.026285542 -0.09006265 0.07026329 -0.09491234
-0.14617476 -0.2127533 0.13115631 0.0429143 -0.29399624 -0.20208868 -0.124057494 0.23089325
0.22910847 -0.108071946 0.19578989 0.09602241 0.22282346 -0.099071525 0.10770265 0.04403815
0.2528273 0.12644257 -0.19591676 0.043364327 0.06599963 0.22698541 0.17860772 -0.17513722
0.04401818 0.05630994 0.041150246 0.23648675 -0.17082524 -0.054164227 -0.103366375 0.16082053
-0.07724388 0.14582743 0.06605513 0.040715244 0.12949589 -0.14924103 -0.27347776 -0.045875274

base.base_net.0.0.bias f4 [16]
00000000: 2828 173d dd0d ba3d 47f2 16be 88cb 29be
00000010: 8f1f 21be 62b5 c33b 05c6 98bd d855 c63d
00000020: 9a6c 57be 4230 a23d d0d4 adbc 5d84 16be
00000030: e7a4 343d 72df e43d 0682 433d 6ded 763e
0.03690353 0.090846755 -0.14740859 -0.16581547 -0.15734695 0.0059725503 -0.07459644 0.09684342
-0.21037522 0.07919361 -0.021219641 -0.1469893 0.044102576 0.11175431 0.047731422 0.24114008

base.base_net.0.2.weight f4 [16]
00000000: 30c9 943f ca63 923f 36ac 543f f2f6 913f
00000010: 25ec 833f 3633 483f 5fa0 763f 8cde 743f
00000020: e67a 9a3f c143 253f 17db 703f 9c73 893f
00000030: cfc6 873f 5a37 873f d0f3 943f 7358 473f
1.1623898 1.1436703 0.83075273 1.1403487 1.030644 0.7820314 0.96338457 0.9565208
1.2068756 0.6455651 0.94084305 1.0738406 1.0607547 1.0563767 1.1636906 0.7786934

base.base_net.0.2.bias f4 [16]
00000000: 50e0 25be c1b5 3fbe 4b38 93be e001 03be
00000010: 7b36 40be bbbc 07be fa5c 50bd 5dca a5be
00000020: 4fe9 3dbe 0ff7 14bf 281d e6be be21 83be
00000030: 5110 64be b3b7 2cbe 26bb 29be 1a76 d1be
-0.1619885 -0.18721677 -0.28753886 -0.12793684 -0.18770783 -0.13255589 -0.05086992 -0.32380953
-0.18546031 -0.5818948 -0.4494412 -0.2561168 -0.22271849 -0.1686695 -0.16575298 -0.40910417

base.base_net.0.2.running_mean f4 [16]
00000000: f77b 603e 19e3 953e 7ec4 ed3c 1b67 723c
00000010: 468a a93d 895d c83e 8f34 763e 76e6 933e
00000020: 7190 b53d bddf 043f 5151 273e 5f34 df3d
00000030: fcdd b83e 1b28 783e 2c89 863e a13d 013f
0.21922289 0.29274824 0.029024359 0.01479509 0.08278327 0.39133862 0.24043487 0.28886765
0.08865441 0.519039 0.16339613 0.10898661 0.3610686 0.24234049 0.2627653 0.50484663

base.base_net.0.2.running_var f4 [16]
00000000: 1369 163f d005 483f 4d09 143e d563 f63e
00000010: 2ccc da3e 3391 883f 5702 4d3f 4a1d ae3e
00000020: 6e37 673f 8e7e e83f a988 373e 605e fb3e
00000030: 52c9 6d3f 1bd0 0f40 ae08 1c3f d97a 633e
0.5875408 0.7813387 0.14456673 0.4812304 0.42733896 1.0669311 0.80081695 0.3400672
0.90318954 1.8163621 0.17923225 0.4909544 0.92885315 2.2470767 0.60950744 0.22214831

base.base_net.1.0.weight f4 [32, 16, 5, 5]
00000000: 48e7 21be fa9e 92be 7ed7 ecbd 00fd e2bd
00000010: 7167 c4bd 665e d5bd ba7d 19be b244 1bbe
00000020: 556a 4fbe c29e 81be 3e34 01be 4e18 54bd
00000030: fc3d 2abe cb58 7bbd d8af 873d fa04 c53c
00000040: a2c8 253d ccd2 333d 3716 a93d ecd2 bc3d
00000050: 64f4 083d b848 abbc de74 15be 49df aabd
00000060: 3600 023d 0c3b 113d 5ea3 84be 45d4 5bbe
00000070: 9f1b c63c 1252 843d 663a 8abd 2a49 463d
00000080: 5dee 43be d21a 86bc 610d 10bd 83b2 4dbe
00000090: 8989 2f3d b89e 183d 703f 13be c853 49be
000000a0: 21fa 073d d06e d4bd 4228 76bd ac91 98bd
000000b0: 8f8e 02be 56e6 c43d 3cc8 d3bd 7ee4 28be
000000c0: fa50 e1bd 3dc9 1c3e 07ca 8a3d 3649 b9bd
000000d0: 6253 01be adfd bcbd dc2a 27bd 4925 7cbd
000000e0: a249 8a3d dbc1 6e3e d01f 1e3e d1b5 89bc
000000f0: 0efb ff3c 973b 143e c16d d63c 3482 44bd
00000100: adbe 83bd 48ff 123d 3be5 72bd 8da5 d23b
00000110: dbef d13d 3126 bf3d f04a acbd 37d8 7fbe
00000120: ac8b 10be 8c46 833d 806a d73d ab10 5abd
00000130: c909 aebd 68c8 48bd 7d36 ae3d 9f10 733d
00000140: cd58 2dbd a295 a3bd f8f0 653e 2548 403e
00000150: 1e7d 3c3c 82df e3bd 6f2c 2cbd 9514 b0bd
00000160: 5fb3 13bd 67eb b23c 0891 6cbe f0c8 75bd
00000170: e0af 68bd dad9 a6bc d259 f1ba 5c48 eb3d
00000180: 2e85 1fbe 98ba b6bd fc62 133d c297 093e
00000190: 34f5 bb3c f2a0 773d c83c f03d f38c cb3d
000001a0: 3592 42bd 4c20 fdbc c930 f6bc 99d9 dbbd
000001b0: f5a2 f6bd d1f9 2bbc 78db fd3c 50ee 4cbd
000001c0: e954 adbd 9387 d3bd 1387 fdbb 9fec 153d
000001d0: 785b 3fbc 635c 683c 2836 fcbd ff50 17bc
000001e0: 90da 13bd 5016 ee3d 8af2 433e bb7d 56bd
000001f0: 4273 b7bc a6a8 dc3d e922 85bc 6f36 a5bc
00000200: 9fc6 37be db9c edbd 03d0 713c 275f adbd
00000210: bab9 ddbb d86d 19bd a437 8fbd 5727 1abe
00000220: 8512 0bbe 2696 96bd 92d5 443d b16c 36bd
00000230: b340 07bc 1647 0ebe 4d86 5ebd 71ad 383d
00000240: be92 11be 1a23 0b3c 9649 03bc b5b9 913d
00000250: 0b8d 773b fd38 383a aa39 2fbe f529 9abe
00000260: d663 ae3c b7bd 0b3e 24df 393e 07d5 acbd
00000270: 7b01 06be 1b78 8fbb 856c 8abd 336b 5c3d
00000280: 0861 5e3c 2ec4 17be 1b1c 0fbe 59f5 1bbe
00000290: b03d ebbd 505a 6fbd bfca 65be 9ff5 18be
000002a0: 0607 a7bd 261a 553d 6e5c f0bd 9c62 173d
000002b0: c506 7fbb 8925 45bc f244 b63d c9bd 83be
000002c0: 3c0b 6dbd b63b d23c 0307 a13c 0369 3fbc
000002d0: 4e98 08be dc3b 71bd 90ae c83d b213 3bbd
000002e0: fa0c a6bd ce2b 9a3b 09c0 b9bd b838 2b3d
000002f0: 4b04 dc3d d7ee a1bd c158 1fbd a23d 53be
00000300: 32f5 96bc e539 0d3e 1e52 89bd 4f56 093c
00000310: 4080 2bbe 337d 17be 00cc b53d 2144 463d
00000320: 2d17 533d 3a11 d43d 4f59 103c b3e0 1e3d
00000330: d81d 253e af8e 11bd bead d3bd e853 39bd
00000340: 3b9d 4abe 15a1 76bd d23c d7bd 8e1f 47be
00000350: 6c59 fdbc d189 90bd a434 85bd 11e2 653d
00000360: 192f 6b3d 4ed4 853d 7252 7e3d 81ea 693c
00000370: b948 463e e83f b83d a244 1dbd b72d de3c
00000380: 1467 2d3d cd8c 9abb 5b00 ffbc 1bc6 06be
00000390: d4c5 d2bd a9c4 63bc c04f 7e3d c284 8c3d
000003a0: cf62 b03c 8eb4 11be efec 0abe a4ca bc3d
000003b0: b0c6 a0bc 363a 7f3d 0d1d 70be 117d cebd
000003c0: f73b 24bc 78f7 f3bd 40f8 433c 5cfd 12be
000003d0: 0cea dabc 6a53 f0bd cbd9 82bd 670b 8b3c
000003e0: 56d0 f83c 713e f23a 0cc8 603e 8a19 c3bc
000003f0: 1cdd 36be 697b 533c edcc cabd 4f2e 9abb
-0.15810883 -0.28636914 -0.115645394 -0.11083412 -0.095900424 -0.10418396 -0.14989367 -0.15162924
-0.20255406 -0.25316435 -0.12617585 -0.05178099 -0.16625208 -0.061363976 0.066253364 0.024050225
0.04047454 0.043902203 0.0825619 0.09219918 0.033436194 -0.020908698 -0.14595363 -0.083433695
0.031738482 0.035456702 -0.2590589 -0.21467693 0.024183093 0.06460966 -0.0674942 0.04840962
-0.19133897 -0.01637021 -0.03516901 -0.20087628 0.042855773 0.03726074 -0.14379668 -0.19660866
0.033197526 -0.10372698 -0.060096987 -0.0744966 -0.12749694 0.096142456 -0.10340926 -0.16493413
-0.11001773 0.15311141 0.06776815 -0.09047167 -0.12629464 -0.09228072 -0.04081236 -0.061558995
0.067523256 0.23316137 0.15441823 -0.01681033 0.031247642 0.14475857 0.026175382 -0.047975734
-0.06432853 0.035887986 -0.059300642 0.0064284266 0.10250827 0.09333456 -0.08412731 -0.24984823
-0.1411578 0.0640994 0.1051836 -0.053238552 -0.0849796 -0.049019247 0.085064866 0.059342023
-0.042321015 -0.079875246 0.22455204 0.18777521 0.01150444 -0.11126615 -0.042034563 -0.08597676
-0.036059733 0.021840764 -0.231022 -0.060006082 -0.056808352 -0.020367552 -0.0018413609 0.11488411
-0.15578148 -0.08922309 0.03598307 0.13436797 0.02294407 0.060456224 0.11730343 0.09938993
-0.047502715 -0.03089919 -0.03005256 -0.10734863 -0.120428 -0.010496573 0.03098844 -0.05003196
-0.08463461 -0.10328593 -0.0077370494 0.036602613 -0.011679523 0.014182183 -0.12315017 -0.00923562
-0.03609711 0.116253495 0.1913549 -0.052366 -0.022393826 0.10774355 -0.016251998 -0.020167558
-0.17946862 -0.116021834 0.0147590665 -0.084654145 -0.006766525 -0.03745827 -0.069930345 -0.1505407
-0.13581283 -0.07352857 0.04805524 -0.04453725 -0.008255172 -0.13894305 -0.054327298 0.04508728
-0.14216134 0.008492256 -0.00801315 0.07115499 0.0037773277 0.0007027535 -0.17111841 -0.30110136
0.02128784 0.13646589 0.18151528 -0.08439069 -0.13086502 -0.0043783314 -0.0675898 0.05381317
0.013572939 -0.1482093 -0.13975565 -0.15230311 -0.11486375 -0.058435738 -0.22440623 -0.14937447
-0.081556365 0.05202689 -0.117363796 0.036959276 -0.0038913947 -0.012032875 0.08899869 -0.25730732
-0.057872042 0.025663238 0.019656664 -0.011682752 -0.1333935 -0.058894977 0.0979892 -0.04567308
-0.08107944 0.004704929 -0.09069831 0.041802138 0.10743006 -0.07906883 -0.038903 -0.2062898
-0.018427465 0.13791616 -0.06705116 0.008382394 -0.16748142 -0.14793853 0.088768005 0.048404817
0.051535774 0.10354848 0.008810355 0.03878851 0.16124666 -0.035536464 -0.10335873 -0.045246035
-0.19786541 -0.060212214 -0.105096474 -0.19445631 -0.030926429 -0.070575364 -0.06504181 0.056123797
0.057417963 0.065346345 0.062090345 0.0142771015 0.19363679 0.08996564 -0.03839553 0.027121408
0.04233463 -0.004716492 -0.0311281 -0.13161509 -0.10291639 -0.013901868 0.062087774 0.06861259
0.02153149 -0.14229032 -0.13566945 0.09218338 -0.019625992 0.062311374 -0.23448582 -0.10082448
-0.010024062 -0.11912435 0.011961043 -0.14354461 -0.02672293 -0.1173466 -0.06389197 0.01697321
0.03037278 0.0018481744 0.21951312 -0.023815889 -0.17857784 0.012907841 -0.09902368 -0.0047052274

base.base_net.1.0.bias f4 [32]
00000000: 207a 8fbc d0e0 14bd 39b0 ab3b 4a43 0a3d
00000010: 2891 273d b112 4fbd 70d2 93bc 8573 213d
00000020: d100 41bc 4762 52bd 4260 1bbd 5077 ebbc
00000030: 8aa5 743d 63ca 383d 7352 d4bc a0b2 69bb
00000040: 2082 99bc 12d3 583b 17fb 243c 6b56 b03b
00000050: 50ab 26bc af71 13bd c184 cb3c ab42 54bb
00000060: f888 8f3b 2d02 283d 85d3 313d ddbb 113b
00000070: 2dbd 01bd 2c74 18bd 1e64 d03c 0d42 1d3d
-0.017514288 -0.03634721 0.0052395132 0.033755578 0.040909916 -0.050554935 -0.01804468 0.03941681
-0.01177998 -0.051363256 -0.037933595 -0.028743416 0.059728183 0.045114886 -0.025918221 -0.0035659447
-0.018738806 0.0033084792 0.01006963 0.0053813956 -0.01017268 -0.03599709 0.024843575 -0.003238837
0.0043803416 0.0410177 0.04341461 0.002223722 -0.031674553 -0.037220165 0.025438365 0.03839307

base.base_net.1.2.weight f4 [32]
00000000: 6b57 9d3f 1062 b03f 5de1 b73f d26d a23f
00000010: 16fe 9e3f 47c2 ac3f b69f 933f c469 a33f
00000020: dc1f b43f a929 a93f 5d6f 983f 2c90 963f
00000030: 8706 963f f743 ae3f ce4d b93f cec2 993f
00000040: 4496 a03f 4942 a53f ce7c 943f 516a a13f
00000050: 167d 983f 4af7 aa3f 2113 a23f 886a aa3f
00000060: 8f5e 9f3f dd40 9c3f cd8d a33f 372f 973f
00000070: acc7 9f3f ba47 9d3f abc3 a63f b240 973f
1.2292303 1.3779926 1.436565 1.2689764 1.2421291 1.3496789 1.1533115 1.2766652
1.4072223 1.3215839 1.1908985 1.1762748 1.1720742 1.3614491 1.4476869 1.2012575
1.2545857 1.2910854 1.1600587 1.261057 1.1913173 1.3356717 1.2662088 1.3313761
1.2450732 1.2207295 1.2777649 1.1811284 1.248281 1.2287514 1.3028463 1.1816618

base.base_net.1.2.bias f4 [32]
00000000: ef61 1dbe f5e1 35be 103f babe 3507 23be
00000010: e9f3 3dbe 6913 41be a255 96be 6006 0abe
00000020: 0a05 6ebe f070 cebd f270 69be 361b 8abe
00000030: efad 58be 6c31 1bbe 871a 95be c79b 47be
00000040: 5fa5 7abe 5e31 06be da8e 5abe 93d4 56be
00000050: ee15 26be e1e1 28be af94 4fbe 7868 b0be
00000060: 13f3 81be 0015 65be 34d1 62be e833 3dbe
00000070: cc46 84be 8f31 cbbe 5d89 53be 03dd 5bbe
-0.1536939 -0.17761977 -0.36376238 -0.15920718 -0.18550076 -0.1885506 -0.29362208 -0.13478994
-0.2324411 -0.10080135 -0.22796991 -0.26973885 -0.211601 -0.15155572 -0.291218 -0.19493018
-0.24477147 -0.1310477 -0.21343556 -0.20979528 -0.16219303 -0.16492416 -0.20271562 -0.34454703
-0.25380763 -0.22371292 -0.22150117 -0.18476832 -0.25835264 -0.39686248 -0.20657869 -0.21471028

base.base_net.1.2.running_mean f4 [32]
00000000: b027 9bbf f98b 38be 405e ce3f 01aa de3f
00000010: 61b1 3fbd 5beb 67be 09c5 03bd 47ef d03f
00000020: 09ea 56be 534e 6a3f 6262 703e 7ba6 cb3e
00000030: 3d9d 35bf 4ab3 51be 858f 83be 24c7 1ebf
00000040: 6168 48bf b53d d0bd c661 01bf 09aa 94bf
00000050: 9a9a 753f 2fb6 9ebf 140e b53f aeb9 a7bf
00000060: a7af ffbe 81a2 8b3f e953 883f eba6 093f
00000070: b624 ebbe 86a3 35bf cb70 923f 7484 da3e
-1.2121487 -0.18022145 1.6122513 1.7395631 -0.04680002 -0.22648375 -0.03217033 1.6323022
-0.20987715 0.91525763 0.2347503 0.39775452 -0.7094305 -0.2047855 -0.25695434 -0.62022614
-0.7828427 -0.1016802 -0.50539815 -1.1614391 0.9593903 -1.2399348 1.4144921 -1.310354
-0.499387 1.0908967 1.0650607 0.5377032 -0.45926446 -0.7095264 1.1440672 0.4267918

base.base_net.1.2.running_var f4 [32]
00000000: 6562 0540 3895 2f40 f433 1e40 41bc 0d40
00000010: e157 4c40 db99 0c40 54dd 8440 1041 3740
00000020: 762e 5540 91f3 5940 9a22 5640 92bd 6a40
00000030: 5be2 1e40 e22f a040 992e 4b40 12a2 1f40
00000040: 38f8 5840 eca5 2d40 7337 7340 81ff 4940
00000050: 81e3 1240 2061 7f40 7fc7 1640 16ef 4c40
00000060: 4af5 4140 df42 4340 58d9 8540 06cf 4d40
00000070: 3532 5040 4625 2b40 35d5 a840 4fba 4f40
2.0841305 2.7434826 2.471921 2.214615 3.1928637 2.1968906 4.1520176 2.863346
3.3309608 3.405491 3.345862 3.6678205 2.4825656 5.005845 3.174719 2.494267
3.39015 2.713252 3.8002594 3.1562197 2.2951357 3.990303 2.3559263 3.2020926
3.0305963 3.0509565 4.182781 3.2157607 3.2530644 2.67415 5.2760262 3.2457464

stn.localization.0.0.weight f4 [8, 1, 5, 5]
00000000: 290a e53b 329e 5cbe 2784 99be 3861 9e3e
00000010: 0586 483e 54b7 f33d 4171 e03d 8206 84bc
00000020: 1589 9b3c 0c86 48be 4cdf e03d 4a88 2d3e
00000030: 8a82 373e 481d 2e3e ca1d dbbd ae34 88be
00000040: 023d 4fbd a46f 81bd 68c6 493e 267b bcbc
00000050: 48d3 99bd 0916 163e c703 3d3d c686 b2bc
00000060: f9e7 313d b2c3 61bd bdf9 9c3d 67b0 333e
00000070: 8feb c0bd 0af6 80bd b65b 823e 9cfb 593d
00000080: b241 013b a72c 51bb ac97 7ebd 71c6 b93d
00000090: 71ca 6cbd 70c8 28be 3f19 003e 84b9 4cbe
000000a0: cfbe cbbd 54fd b3be 50e6 33bd a04e 9bbe
000000b0: fc6b 84be 2c91 36be be3a 8d3d 75ac dc3c
000000c0: a286 1fbe fe6f 533e 7fad 253e cd59 70b9
000000d0: 3da4 16bd 8572 edbd d5c8 613d fe24 aa3d
000000e0: 265a 0bbe 75b0 75bd 94b4 0c3d bb42 0d3d
000000f0: 5e29 aebc 4887 353d fadd e1bd b606 56bd
00000100: 2480 0fbd 6ce3 8f3e a546 a5be e58a 37be
00000110: 42d5 893e 8e62 2a3d e588 603e 93fc b3be
00000120: 4bcf b1bd 5f79 633e dd7e 21be 29d6 e23d
00000130: 4c62 fe3d c1d6 a7be b675 d93d a771 ec3d
00000140: 47c7 393d a8d8 0cbd 7213 60be ad7c 64be
00000150: 8b89 34be e688 283e f548 393d 20ee 08bd
00000160: 704f 833d bcba da3d 9552 5c3e 1c52 5c3e
00000170: 7ade 373c 3629 3abe 74da 913d 4778 e3bd
00000180: d60c 383e 61ac dd3d 01b8 b73c 552b 57be
00000190: 8bfa 86be 3539 573d 1033 49be e6f1 963d
000001a0: fb54 a7bd 9426 ff3d 976b 42be 675d 94be
000001b0: 981e 273c 1d09 03be 56d9 30be 1d8a 3bbd
000001c0: 05c3 7bbe 03c5 6ebe b4b8 8abd c82d 983e
000001d0: 5862 cd3c ad0e 433d ca51 363c 1d1e 1d3e
000001e0: 9610 023e 4ce5 523e 0883 173e 76d3 94bc
000001f0: 15c9 9a3d 5dd3 80bd 59c8 643e 798d aabd
00000200: 0449 6fbe 91e2 363e a42a d13c a47c d43d
00000210: c4b7 b2bd 78ca 20bd e20c 0cbe a2b5 943d
00000220: d97d aabd d685 6b3e 82ed ab3e e05e 5c3e
00000230: 2ff3 863d 0845 bdbd cde4 ba3c 48a6 1f3d
00000240: 444a 943d b636 71be e489 7ebe e3da 80be
00000250: 45c8 0ebe dbd4 26be 8455 ea3d 4921 15be
00000260: 5af4 05bd 047b a03e 2aa3 203e d1a9 0a3e
00000270: 7809 92bd dfd9 e63e cbc9 8cbd 61e5 2ebe
00000280: ab08 c93d 1f81 3e3e 13cf 0c3a 7c75 353e
00000290: d6a4 893d 9b63 0a3e 484e 67be c8de 943d
000002a0: 4b72 723e 026b 15be 77eb 583d 636f 6fbc
000002b0: 02a5 1f3d f302 123e c511 293d add6 06bd
000002c0: b626 fc3b d0c5 07be eee4 233e c2db 80be
000002d0: 3fbf 7d3e 4fb6 cb3d 1dae 303e c827 bfbd
000002e0: a2df 6abe 41a9 173d bee9 e8ba be8f 88be
000002f0: b8ef 4dbe 0e75 50be b3b9 d2bc d399 5abe
00000300: 23da 18be 1915 6dbe 6a66 0cbd 2645 ceba
00000310: e8dc 0dbe 1d37 0bbd 05bf ddbd a006 73be
0.0069897366 -0.21544722 -0.29983637 0.30933547 0.19582374 0.119002014 0.109591015 -0.016116384
0.018986264 -0.19582385 0.109800905 0.16946521 0.1792089 0.17003357 -0.10699041 -0.2660269
-0.05059529 -0.06320122 0.19704592 -0.02300794 -0.07511002 0.14656843 0.04614618 -0.02179278
0.043434117 -0.05511827 0.07664821 0.17547761 -0.09419929 -0.06296928 0.25460595 0.05321847
0.0019722995 -0.0031917484 -0.062156364 0.09071053 -0.05781025 -0.16482711 0.1250963 -0.19992644
-0.09948503 -0.35154212 -0.043920815 -0.30333424 -0.25863636 -0.17828816 0.0689597 0.026937703
-0.15578702 0.2064819 0.16179465 -0.00022921637 -0.036777724 -0.115941085 0.05512317 0.08307837
-0.13608608 -0.059982736 0.0343519 0.034487467 -0.02125996 0.044318467 -0.11028667 -0.052252494
-0.035034314 0.28103197 -0.3228046 -0.17924078 0.26920515 0.041597895 0.21927221 -0.35153636
-0.08682116 0.22214268 -0.15771051 0.11076004 0.124210924 -0.32781032 0.10618155 0.11545115
0.04535606 -0.034386307 -0.21882418 -0.22313185 -0.17630593 0.16458473 0.045235593 -0.03343022
0.06411636 0.10680148 0.21515878 0.21515697 0.011222476 -0.18179783 0.07121745 -0.111069255
0.17973647 0.10823894 0.022426607 -0.21012624 -0.26363024 0.05254479 -0.19648385 0.07370357
-0.081705056 0.1245853 -0.18986355 -0.2897751 0.010200165 -0.12796445 -0.17270407 -0.045786012
-0.24586113 -0.23317342 -0.067735106 0.29722428 0.025071308 0.047621418 0.0111278985 0.15343519
0.1270164 0.20595282 0.14796078 -0.018167239 0.075578846 -0.06290314 0.22342052 -0.08327765
-0.23367697 0.17859866 0.025533028 0.10375336 -0.08726457 -0.03925559 -0.1367679 0.07261206
-0.08324785 0.23000273 0.33579642 0.21520567 0.06589352 -0.09241682 0.022814179 0.038976938
0.072407275 -0.23556027 -0.24857289 -0.25166997 -0.13943584 -0.16292135 0.11442092 -0.14563479
-0.032703735 0.31343853 0.15687242 0.13541342 -0.07130712 0.45088097 -0.068744265 -0.17079689
0.098161064 0.18603943 0.00053714326 0.17720598 0.06720893 0.13514559 -0.22588456 0.07269055
0.23676412 -0.14591601 0.05295893 -0.014613959 0.038975723 0.14258938 0.041276712 -0.032919575
0.0076950444 -0.13259053 0.16005298 -0.25167662 0.24779986 0.09946882 0.17253919 -0.093337595
-0.22936872 0.037026647 -0.0017769856 -0.26672167 -0.20110977 -0.20357153 -0.025723314 -0.21347742
-0.14926963 -0.2315258 -0.034277357 -0.001573716 -0.138538 -0.033988107 -0.1082745 -0.23732996

stn.localization.0.0.bias f4 [8]
00000000: 16fa c73c 7b7a 2e3e b2f6 65be 0bc9 2c3e
00000010: febd 793a 159d 693d 5caa e0bb 00b1 243e
0.024411242 0.1703891 -0.22457388 0.16873567 0.0009526907 0.05703457 -0.006856246 0.16083145

stn.localization.0.2.weight f4 [8]
00000000: 226c 723f b07d 8d3f 5e76 863f b47d 873f
00000010: ff8e 843f 5deb 733f 09b6 5a3f 5e68 8f3f
0.9469625 1.1053982 1.0504873 1.0585237 1.0356139 0.9528101 0.85434014 1.1203725

stn.localization.0.2.bias f4 [8]
00000000: cb05 073e 9fc3 01bc 3ddd b43d 8ea0 203e
00000010: a702 0a3d 3ad9 a7bc 0660 9e3d d5b4 ae3d
0.13185804 -0.007920175 0.0883126 0.15686247 0.033693936 -0.020489324 0.07733159 0.08530585

stn.localization.0.2.running_mean f4 [8]
00000000: 7718 c23e 825d c83e 342f 213d 2395 fd3e
00000010: d4d4 913e de80 af3e 456a 0c3f 6593 b13e
0.3790929 0.3913384 0.039351657 0.49527845 0.28482687 0.34278005 0.54849654 0.34682766

stn.localization.0.2.running_var f4 [8]
00000000: 6ad5 1b3f 9a7b 553f 1d72 8c3e 45bb 1c3f
00000010: 264d 713f 7f3c ff3e 24c8 0640 202b f43f
0.6087252 0.83391726 0.27430812 0.6122325 0.94258344 0.49850842 2.1059656 1.9075661

stn.localization.1.0.weight f4 [10, 8, 5, 5]
00000000: 089d 48bd 4c35 9fbd d8b4 a2bc 3a34 a23d
00000010: 3a0c 5d3d ebf2 1dbe 99e4 fd3c 60d6 c53d
00000020: 9cc9 ee3d f9c7 083e 8e6c 9cbd bee6 0abd
00000030: 8244 313e c86e 6cbc b9d5 873d 116f 12be
00000040: f051 583d 5a66 593d b925 da3d 067a b33d
00000050: a68b ccbd 2d79 113b fcaf 84bd 06ff 973e
00000060: 6809 9b3d 9d70 913d f211 383d e9ac bdbc
00000070: d00c e23c a4a5 263e 2f15 7c3d 9805 403e
00000080: ae16 ebbd d56e 0fbb 0488 d13d 5793 8f3d
00000090: c443 7bbd 9ee6 96bd 4a95 0f3e 4f4f 61bc
000000a0: 7722 db3c 04ed f0bd da27 a5bd 6cb9 91bc
000000b0: c214 9bbd fa84 403b c1bb dabd ed82 4b3e
000000c0: 3944 883d 2f96 c03d f6a9 853d 83b0 113d
000000d0: 5811 273c a85e d03d a168 023e a94f 14ba
000000e0: c873 283e 14c9 6c3e 6e6b 163e abef 0b3e
000000f0: a949 ffbd 6f7f 2c3e 1609 193e b835 843e
00000100: 3c3d 5c3e 1686 0cbd 2c6c 263e c4ca 86bd
00000110: 286d 013e 5c8a 323b 93d3 a93d 1313 733d
00000120: 9b53 ea3d ad90 413e c3fc fb3d db1a 0b3e
00000130: 99f4 f43c d531 6e3c 20cd 423d d65a 1e3d
00000140: fb25 11be e5f9 70be 91e4 99bd 2a93 3cbc
00000150: f413 3e3d 0b88 25be c52f 2bbd 436b a1bc
00000160: 64b6 f23d 7e84 053e d794 40be fc1a eebd
00000170: 89d8 5abc d1fb b13d 1449 7f3d 7f3b 433b
00000180: b1cc b9bc cdb2 f5bc cdfc 84bd e912 533d
00000190: 8d80 a33c 0d21 a93d f66c 513e 20ed 3d3e
000001a0: b082 2d3e 6ac1 d03b 607e e1bd 945c 68be
000001b0: 91a5 fbbd 818e d0bd 84a5 9abc 118d 3fbd
000001c0: cfbb d4bd 3e55 b5bd 738f 6dbd fee9 28be
000001d0: cf61 13be 1884 99bd 312a 03bd 433c 5abc
000001e0: 2b32 603d 8f8c 083c 1deb 003d 8dc3 3939
000001f0: fbc6 4e3d 82f5 1f3b e547 293b d55e c93d
00000200: 2cd4 ab3c e2fa a43d 9e9c b43d db68 cc3d
00000210: 6568 773d 9791 cebc 2e50 673d 737e d8bd
00000220: 2fde debb f882 7ebc cfe7 1bbe 637f c8bd
00000230: a36b 11bb 0715 333e 7b70 013e 8585 3abc
00000240: 56d4 83bd a006 43bd 7a3e 203d 8e61 de3d
00000250: a4e4 0d3e d922 b83d 5b1e 39ba 67cf 05be
00000260: ad68 57be 5ee1 6a3d c9ba 41bd 301d 1a3c
00000270: 4c5e b5bd ea04 373d 6d00 b83d 5398 a13d
00000280: e7b5 9fbd c398 a4bd 6849 02bd 9753 d13c
00000290: 872b 9cbc a9ca 16bd f7cd 193d af4a 58bd
000002a0: 2149 6a3d 40a4 c73c 0eac f0bd 7d5b 08bb
000002b0: 3467 51bd 1711 993d 6441 9d3d 7d20 be3d
000002c0: 54c0 0fbe d4bd 69be 97f3 87be 46e2 7bbc
000002d0: 8e51 103e ab1f 94bd c5f7 93be bcf5 a1bb
000002e0: e32f 0e3e 0217 163e 7a82 31bd 6892 6bbe
000002f0: 9355 c23c ad56 333d 2215 fa3d 98c6 03be
00000300: f0b1 38bd df9d 043d ec14 51bd faa3 e93c
00000310: f603 adbd d844 133d 7978 98bd 64fb 8a3d
00000320: c968 60bd e2e6 f0bd 71e0 dabb 1d72 6d3d
00000330: b2b5 f13d 0ec2 0dbe b491 83b9 9c19 cabd
00000340: 7870 b83d a3cb c53d 883d 703d 90d2 98bd
00000350: dd4d db3d 838a 0bbc db22 403e 44ea efbd
00000360: 1541 3bbd 1456 54bd 65ba dc3d 1f08 61bc
00000370: 931f d63c d2fe bfbd b5c9 e23d 3a2e 4cbb
00000380: c65c 843e be5f fc3c 3867 9cbd 9261 95bd
00000390: 6a49 d3bd 46a6 a9bd bb16 bcbd a7b1 22be
000003a0: 0b50 23be 746d 47bd 9e7f 72bd 7e72 f6bc
000003b0: 8b32 4dbc 33fc 58bc 696d c33c 2580 103d
000003c0: 189d 97bd 0b51 94bd d0b3 763d 2995 00bd
000003d0: 6ef7 9e3c 55f8 efbc 352f 9f3d a7ff 203d
000003e0: d7b5 5ebb 9726 63bc 95c2 28be 88b3 46be
000003f0: c69e 51be 1190 fabc cb15 c2bc 6e24 58be
-0.04897788 -0.077738374 -0.019861624 0.07920118 0.05396674 -0.15424697 0.030992793 0.096600294
0.11659548 0.13357534 -0.07637893 -0.03391146 0.1731129 -0.014430709 0.06632561 -0.14300181
0.052812517 0.053076126 0.10651726 0.087635085 -0.09987573 0.002219747 -0.06478879 0.29686755
0.075701535 0.071015574 0.04493899 -0.023153739 0.027594 0.16274124 0.06154364 0.18752134
-0.11478935 -0.002188613 0.10231021 0.07010525 -0.061343923 -0.073682055 0.14021793 -0.013751819
0.026749833 -0.11763957 -0.08064242 -0.017788611 -0.075723186 0.0029376135 -0.106803425 0.19874163
0.066536374 0.09403645 0.06526558 0.035568725 0.010197006 0.10174304 0.12735225 -0.0005657622
0.16450417 0.2312358 0.14689419 0.13665645 -0.124652214 0.16845487 0.14944872 0.25822234
0.21507734 -0.03430756 0.16252202 -0.06581643 0.12639296 0.0027243113 0.08292308 0.059344362
0.11441728 0.18902846 0.1230407 0.13584463 0.02990179 0.014538248 0.047558904 0.038660847
-0.14174645 -0.23532827 -0.07514299 -0.011509696 0.046405748 -0.16165178 -0.041793603 -0.019704467
0.118511945 0.13038823 -0.18806778 -0.116262406 -0.01335729 0.08690608 0.062325552 0.00297901
-0.022680612 -0.029992485 -0.064935304 0.051531706 0.019958759 0.08258257 0.20451722 0.18547487
0.16944385 0.006370713 -0.11010432 -0.22691566 -0.12287439 -0.101834305 -0.018877752 -0.04676539
-0.10387384 -0.08854149 -0.057998132 -0.16495511 -0.1439278 -0.07495898 -0.03202266 -0.013320032
0.054735344 0.008334293 0.03147422 0.00017715823 0.05048273 0.0024407809 0.0025830206 0.09832541
0.020975195 0.080556646 0.08818935 0.09980937 0.060402293 -0.025215907 0.05647295 -0.10570993
-0.0068013887 -0.015534155 -0.15225147 -0.09789922 -0.00221894 0.1748849 0.12640564 -0.011384373
-0.06436984 -0.04761374 0.039122082 0.10858451 0.1385675 0.08991022 -0.0007061713 -0.13067399
-0.21036024 0.057343833 -0.047297273 0.009406373 -0.08855876 0.04468242 0.08984456 0.07890382
-0.07798367 -0.080369495 -0.031808287 0.025552554 -0.019063724 -0.036814366 0.03754994 -0.0528056
0.057198647 0.024370313 -0.11751567 -0.0020806484 -0.051123813 0.07473963 0.07678488 0.092835404
-0.14038211 -0.2282632 -0.26553032 -0.015373772 0.1409361 -0.07232603 -0.2889997 -0.004942624
0.13885455 0.14657214 -0.043337323 -0.23005068 0.023722446 0.043783832 0.12211062 -0.12868726
-0.04509157 0.03237712 -0.051045343 0.028520573 -0.08448021 0.035954326 -0.07444853 0.0678623
-0.05478743 -0.117627874 -0.0066795875 0.057970155 0.11802234 -0.13843557 -0.00025094824 -0.09868166
0.09005827 0.09657981 0.05865243 -0.074620366 0.107082106 -0.0085169105 0.18763296 -0.117146045
-0.045716364 -0.051839903 0.107777394 -0.013734846 0.026138103 -0.09374775 0.11073629 -0.0031155483
0.2585203 0.030807372 -0.07636875 -0.07294001 -0.10316737 -0.08283667 -0.09184023 -0.15888081
-0.15948503 -0.048688367 -0.059203736 -0.030083891 -0.012524257 -0.013243723 0.023855882 0.03527846
-0.0740301 -0.0724202 0.060230076 -0.03139225 0.019405093 -0.029293219 0.07772676 0.03930631
-0.0033982897 -0.013864181 -0.16480477 -0.19404423 -0.20470724 -0.030586274 -0.023692032 -0.21107647

stn.localization.1.0.bias f4 [10]
00000000: eaae 9dbd b3fa eebb 629b 413d 47a5 45bd
00000010: 0971 533d 5440 9cbd 3e44 903c 55f8 d43c
00000020: 8a26 9c3c 0d9b 233d
-0.07699378 -0.0072930693 0.047267325 -0.048253324 0.05162147 -0.07629457 0.017610665 0.02599732
0.019061346 0.03994279

stn.localization.1.2.weight f4 [10]
00000000: 96dd 3f3f f404 443f 21fb 3b3f 206c 3d3f
00000010: 823f 203f a060 1d3f f0c2 2d3f a318 303f
00000020: db2d 423f fb64 283f
0.7494749 0.7657006 0.7343007 0.7399311 0.62596905 0.61475563 0.67875576 0.6878759
0.7585122 0.65779084

stn.localization.1.2.bias f4 [10]
00000000: e304 1bbe 1c4f 16be 3cb4 9fbe be48 32be
00000010: e483 72be 0d59 74be 65f4 95be aecb a2be
00000020: fb1c 2abe 3354 3bbe
-0.15138583 -0.14678615 -0.31192195 -0.17410561 -0.23683125 -0.23862095 -0.2928802 -0.3179602
-0.16612618 -0.18293838

stn.localization.1.2.running_mean f4 [10]
00000000: a24a 4540 60b0 72bd c875 05c0 252c fe3f
00000010: 16f2 b73f e179 8140 3f61 b4be 2172 0540
00000020: f1ee d63f 6aa2 9a40
3.0826802 -0.059250236 -2.0853138 1.9857222 1.4370754 4.046128 -0.35230443 2.0850909
1.6791669 4.832326

stn.localization.1.2.running_var f4 [10]
00000000: 844a a740 ba6e 0341 9aa3 d740 00be b540
00000010: aaa7 c940 0a43 e440 9b68 b440 0137 8840
00000020: cb79 f940 ac7f d040
5.227846 8.214533 6.738721 5.6794434 6.301717 7.1331835 5.637769 4.2567143
7.7961173 6.515585

stn.fc_loc.0.weight f4 [32, 160]
00000000: 4641 36bd 13b6 8cbd ff94 1abe dac1 65bd
00000010: 49f8 37bd d437 c3bc dc31 41bd 3b6a 3abd
00000020: f7b6 e2bc 2608 19be fcea aabd a5de b1bd
00000030: 9125 90bd 549a a3bd ced2 95bd 3e15 1f3e
00000040: 0806 243d 1292 37bd bd82 13bd 75ee 8d3d
00000050: 144f 2a3b 535b 173d 3d27 ecbd 979c 543b
00000060: 99ae aebd 9102 d8bd 5308 8bbd c7e3 3d3d
00000070: e2a7 e1bc 58db af3b 6743 c3bd 50ab 883d
00000080: 60fd 2cbd ca66 1bbe 77e9 243d 8be6 2f3d
00000090: dfbf a63d 0ac2 9cbd dd56 22be a6f1 a5bd
000000a0: 6050 13bd 035f 353e 7959 43ba 0a6b 28be
000000b0: f1f9 e63c f3aa 023e 29c8 1e3e 982b da3c
000000c0: 6acc 283e f232 493d 738e a6bd d01a 263d
000000d0: b7f6 0d3e 84ae c73d a902 cdbd 5646 373b
000000e0: 91c8 733d cb03 c9bc 7a89 ba3b 3b1d 88bc
000000f0: 274e abbd 6520 3bbd 61fd a1bd 7016 46be
00000100: 7611 4abc 9357 78bd 9a84 f4bd b6d4 30bd
00000110: 647f d4bc 9353 543d bedd 62be 7a51 a6bd
00000120: b935 bdbd d55f b5bd e4ea 743c 0845 a23d
00000130: c47d 923c de22 cdbc 684a 06be 9118 94bd
00000140: f461 013e 46b3 aebc 8ee0 83bd 036e 0bbe
00000150: 50b2 983c 4a25 08bd 8960 2cbe 2add 0bbe
00000160: 3982 0c3e d707 c83d 4862 48be 0e36 30be
00000170: 5d74 0e3e 4bcf 823d b45e 92bd 5f9d 9b3d
00000180: c565 273d dc9e 413d 76d9 81bb 5aef 82bc
00000190: 8e7e 0ebe e557 c23b 7f4b d33c 8f70 3bbd
000001a0: bd30 ecbd 5a36 6ebd 11f9 bf3b 23eb 83bc
000001b0: 95aa d2bd d98f 02be adda ed3b 7d1e 693d
000001c0: 56c2 173e c521 08be 5c56 0ebe ebcb dbbd
000001d0: 7c28 8e3d 10ac 883d 1897 8ebd fab6 97bc
000001e0: 0d5c 8a3c 0ae0 06be a951 763d 0207 613c
000001f0: 4507 29be 593c 82bd 8449 ee3d 9926 e63d
00000200: 196a 473d 2175 443e 4469 fa3d 73fe 7abe
00000210: 012f 20be b820 393d e30e 0f3e a6e1 9bbd
00000220: 6f73 f0bd 4275 e9bd 3000 fd3d bf1a 4bbc
00000230: 7a54 88bd ad2e 1fbe 5b21 75bc d3c5 0d3d
00000240: cce2 f2bd b708 c8bb 50d1 17be 5fb6 adbd
00000250: 4b24 28be 4952 153e 5c01 97bd 8f2c 03be
00000260: 505b d4bd 28c7 edbd e56d e2bc c840 9dbd
00000270: e547 02be 5bab 133c cb5f 86bd 0bed edbc
00000280: 5ba6 20be 1493 7bbd a2b7 b8bd 4b1c fdbd
00000290: dfbf 9cbd 5e63 a73c 66d3 49be 466d 22be
000002a0: e198 82bd bb0c f8bd d10e 8ebd d9c6 d5bc
000002b0: 2c09 00bd fe5d a5bd 0777 00be f1c3 32bc
000002c0: 5b28 383b f972 b7bc 78ae 60bd df68 003e
000002d0: 83dd eb3d d248 f33c b246 babd a87f 323d
000002e0: 2edb 9fbd e225 b03c 9b45 5cbd d7fa 273b
000002f0: 3d00 92bd 99b0 883c 8722 7c3d 351a e1bd
00000300: 04ef a63c ace2 0fbc f512 263d 3ef0 d4bc
00000310: 0ef9 87bd 0be9 db3d a872 dd39 4026 a9bc
00000320: b7a4 703d 0245 3dbc 1b65 cbbd 7ca7 89bc
00000330: 8925 263d a62b 0fbd 3a74 7fbe db40 04be
00000340: 5030 91bc 3b51 10be 22db 683c 503f e1bc
00000350: e3bb 93bd b1a1 96bd eb98 0abb 881c 8abd
00000360: 7ee8 56be c23d 3cbd 732c afbd 3fc2 d6bd
00000370: d4f7 3cbd e6e4 253b 1b0c 64bc b944 5cbd
00000380: 94b7 823d 1da5 3bbd 1ce0 aebd 7937 293d
00000390: 8aad a63a 9d15 48bc a62f 53be 74fc d0bd
000003a0: de2b ca3c b208 8fbd 060f 7f3d fd2a e6bd
000003b0: 457d 73bd f175 afbd 4a79 3fb8 6e06 d3bd
000003c0: 65af 823c cd2a 6dbd 5abe 3d3c 0bcf 81bc
000003d0: 1b70 95bd 2b62 bcbd 9ba7 94bd 96a9 da3d
000003e0: d962 2bbe 69cf 28bb 41c9 a4bb f1ce e2bd
000003f0: 2e5c 80bd 2aa3 3dbe 94da fcbd 1241 a5bd
-0.044495843 -0.068706654 -0.150959 -0.056093074 -0.044914518 -0.023830332 -0.04716669 -0.045511466
-0.027675135 -0.14944515 -0.08345601 -0.08685044 -0.07038415 -0.0798842 -0.073155984 0.15535447
0.040044814 -0.044817038 -0.036013354 0.06930248 0.0025987076 0.036952328 -0.115309216 0.0032441968
-0.085293956 -0.105473645 -0.06788697 0.046359804 -0.027545873 0.005366724 -0.0953434 0.066733
-0.042233825 -0.1517593 0.040261712 0.042944472 0.08142065 -0.076541975 -0.15853448 -0.081027314
-0.035965323 0.17712025 -0.0007451992 -0.16447082 0.028195353 0.12760524 0.15506043 0.026632115
0.16484228 0.04912085 -0.08132639 0.040552914 0.13863645 0.09750083 -0.10010273 0.0027965507
0.059517447 -0.024537941 0.005692658 -0.0166155 -0.08364516 -0.04568519 -0.07909656 -0.19344497
-0.012333265 -0.060630392 -0.11939354 -0.043171607 -0.02593965 0.051837515 -0.221549 -0.08121009
-0.092387624 -0.08856169 0.01494858 0.07923323 0.017882235 -0.02504104 -0.13114321 -0.07231248
0.12635022 -0.021325719 -0.06439315 -0.13616185 0.018639714 -0.033238687 -0.168337 -0.13658586
0.13721551 0.0976712 -0.19568741 -0.1720812 0.13911577 0.06387194 -0.071469694 0.075983755
0.04086854 0.04727064 -0.003962691 -0.015983272 -0.13915464 0.005930888 0.025792835 -0.04576164
-0.115327336 -0.058157302 0.0058585485 -0.016103333 -0.10286442 -0.12750186 0.007258734 0.05691384
0.14820227 -0.13294132 -0.13900131 -0.10732254 0.069413155 0.06673443 -0.069624126 -0.018519867
0.016889596 -0.13171402 0.06013647 0.013734581 -0.1650668 -0.06359167 0.11635116 0.11237831
0.048685167 0.19185306 0.12227109 -0.24511127 -0.1564293 0.04519722 0.13970523 -0.076113984
-0.11740767 -0.11399318 0.123535514 -0.0123965135 -0.066567376 -0.15545149 -0.014961566 0.034612488
-0.11859664 -0.0061045545 -0.1482594 -0.0848205 -0.16420095 0.1458217 -0.07373306 -0.12809967
-0.10368979 -0.11610252 -0.027640292 -0.07678372 -0.12722738 0.009013022 -0.0656124 -0.029043695
-0.1568846 -0.06141956 -0.090194 -0.12358912 -0.07653784 0.020433124 -0.19709548 -0.15861997
-0.063768156 -0.12111803 -0.0693642 -0.026095795 -0.031258747 -0.08074568 -0.12545405 -0.010910974
0.0028100226 -0.02239369 -0.054853886 0.12540005 0.115168594 0.02969781 -0.09095515 0.043578774
-0.07805477 0.021502439 -0.05377732 0.002563169 -0.07128952 0.01668577 0.061556365 -0.10991327
0.020377643 -0.00878207 0.040545423 -0.025993463 -0.066393 0.10737809 0.0004223783 -0.020648122
0.058750834 -0.011552097 -0.09931394 -0.016803496 0.04056314 -0.034953736 -0.2494668 -0.12915365
-0.017723233 -0.14093487 0.014212402 -0.02749601 -0.07213571 -0.07355059 -0.0021148275 -0.06743723
-0.20987126 -0.045957334 -0.085534 -0.10486268 -0.046134785 0.0025313436 -0.013918902 -0.053776477
0.06382671 -0.04581176 -0.08538839 0.04131267 0.0012716514 -0.012212184 -0.20623645 -0.102044016
0.02467912 -0.069840804 0.062270187 -0.11238668 -0.05944564 -0.085674174 -4.5650908e-05 -0.10303961
0.015952775 -0.057902146 0.011581028 -0.015845796 -0.07296773 -0.091984116 -0.07258531 0.10676877
-0.16736926 -0.0025758392 -0.005028874 -0.11074627 -0.06267582 -0.18519273 -0.12346378 -0.08069052

stn.fc_loc.0.bias f4 [32]
00000000: a188 213d 6284 a9bd 8e8a ce3d 5c5a 143c
00000010: a037 afbd da50 20bc 02d7 823d 77d4 06be
00000020: 15f3 a3bd 9067 6f3c 76d5 eabd 9c3a 7bbd
00000030: 0cf9 febc 023c c1bd 2e5d c7bd 1410 9abd
00000040: 2c70 4a3c 8e2e dfbd fd2e 163d f5ae ac3d
00000050: 5767 eebc d9ec 5dbd ae9a 17bd a6e9 c8bc
00000060: 116f 8dbc e044 e9bc 2a6e 69bc 15f5 c6bd
00000070: 0e06 3dbd 91af 713d 457f f13d a3ce 6dbc
0.03943694 -0.08277203 0.10085021 0.0090547465 -0.085555315 -0.0097849015 0.06388666 -0.13166986
-0.080053486 0.014612094 -0.11466496 -0.06133519 -0.031124614 -0.09435274 -0.097345695 -0.07522598
0.012355845 -0.108975515 0.036665905 0.08431808 -0.02910201 -0.054180954 -0.03701275 -0.024525475
-0.017264875 -0.028475225 -0.014247457 -0.097147144 -0.046148352 0.059005324 0.11791853 -0.014514598

stn.fc_loc.2.weight f4 [6, 32]
00000000: bacb c0bb 7e1b b93c 5f63 e53d b72d 0c3b
00000010: 5bd5 113d c6a1 333e 4d7a 1bbd a82c 393d
00000020: 059e 933d 992e 183e d493 ccbc 62f3 883d
00000030: a568 40bb d1ad e4ba cba0 92bc e0fc d93c
00000040: 2350 1d3d 86ce 953d 49af b63d d1dc ab3d
00000050: e879 10bd 05e5 d03d e54f 19be 1338 b63d
00000060: 3a10 43bc 7522 b8bb c6cd a3bd 95c5 2d3c
00000070: 3b9e e2bc c7ea febd 9da4 14bd 922a adbd
00000080: 92dd 093e 1079 d53d 7061 14be 0857 26be
00000090: 924f cf3c b33b f13d 1c3e 443e 83ba 143d
000000a0: 75bb 15bd dcab 443d 2f8a 713c 0086 293d
000000b0: 04b7 493b 282f 12bc 0739 3ebd b8d6 663c
000000c0: dc9f 543d 9662 443b 8272 2e3e 2060 893d
000000d0: d23d 7e3d 0b37 123c 436d 41bd 1bde e2bd
000000e0: c6e5 02bd 6e09 513c 80c0 f6bd 746f 72bd
000000f0: 99d5 b2bd 1c91 abbd 0fab 08be 5629 b7bc
00000100: 91a6 15bd 1fde 80bd 0c0f a7ba 77c2 faba
00000110: f30d ee3b cea5 cabc 6db5 a2ba d411 96bc
00000120: 0e71 c7bb 311e ec3c 25a2 573c 207c 1b3d
00000130: 3091 66bc 15db 673b 6ba9 b0bb 5eb2 c8bc
00000140: 2498 c9bc 7e88 82bc 2229 a63c 7dc2 87bc
00000150: e4f0 a7bc f1d8 653c b125 603c 1a42 79bc
00000160: 1838 e7bc 5d15 053b cb74 063c 617f cabc
00000170: e289 cabb da49 4fba bbff 1c3a 76ca 153c
00000180: 609a d8bd 91ad a1bc 00d0 67bd d645 823d
00000190: 9e40 773d edf0 3abd fe28 99bc 0ed8 9cbd
000001a0: 015b d7bc 6ceb 243d a5c2 f83c 66e9 fbbc
000001b0: 570a a6bd 0eca 3abb 4dde 27bd e469 2cbd
000001c0: db52 0cbe 9f25 19be d828 58bd 8b70 29be
000001d0: 05d5 f6bd ae05 a1bc 6e20 b23b 480f bb3d
000001e0: 9ff0 b2bc e183 36bc 4081 043d 1daa 50bc
000001f0: b81a 17bd 6d21 debc 640b d73d 59cb 2bbd
00000200: 4fa0 cdbc 201d 01bd b165 bd3c d7fd 90bc
00000210: 652c ae3d d850 5dbd 1dc3 db3c 012e 293c
00000220: a4c3 6fbb 2753 493d e22a 57bd c587 5e3d
00000230: c53d 0d3d 82ab d5bd 94ac c23d 6d60 153e
00000240: 9394 ebbc f866 ecbc 7479 ccbd 9687 783d
00000250: df45 b2bc 6333 c8bc 765c df3a f2a4 353c
00000260: 32a9 723c 792a 863c b649 c4bd 670b 193c
00000270: af16 353c 9026 7e3d 5f16 963c 162f 3d3d
00000280: f005 19bd f5eb ddbc c929 913c fec8 3ebc
00000290: ee80 63bb 284d 423b d003 57bc 4d76 cc3c
000002a0: 7c1e 28bc 88e5 cc3b 17c1 3ebd 69fd 83bd
000002b0: 00a9 6dbb bddc bc3b 6749 c5bc fbb7 44bd
000002c0: 1869 d93c 78c2 fcbc 17df 593d dd5c 7e3c
000002d0: 4b00 edbc 13da 0c3c 1d01 883c 81e2 dd3c
000002e0: ed25 443d a2e5 8e3a 64c1 373b 5f6a 903d
000002f0: 947a 2f3c 5d9b 0a3d 47f4 d43c 3d87 56bd
-0.005883661 0.022596117 0.11200594 0.0021389553 0.035603862 0.1754218 -0.037958432 0.045208603
0.07207874 0.14861526 -0.024972834 0.066870466 -0.0029359248 -0.0017446821 -0.017898938 0.026609838
0.038406502 0.07314782 0.08920152 0.08391727 -0.03527251 0.10199932 -0.14971884 0.08897414
-0.011905724 -0.005619342 -0.079982325 0.010606189 -0.02766334 -0.12447124 -0.0362898 -0.08455385
0.13463429 0.104234815 -0.14490294 -0.16244137 0.025306497 0.11778965 0.19164318 0.036310684
-0.036555726 0.04801546 0.014742418 0.041387558 0.0030779252 -0.008922376 -0.046441104 0.014089279
0.051910266 0.0029965988 0.17035869 0.067077875 0.062070675 0.008924256 -0.04722334 -0.110775195
-0.03195741 0.012758596 -0.12048435 -0.05918832 -0.08732147 -0.08377287 -0.13346504 -0.022358578
-0.036535803 -0.06292366 -0.0012745573 -0.0019131441 0.0072648465 -0.024737265 -0.0012413688 -0.018319048
-0.006086475 0.02882299 0.013161217 0.03796017 -0.014072701 0.0035378386 -0.00539129 -0.024499115
-0.02460868 -0.015934225 0.020283286 -0.016572231 -0.020500608 0.014028774 0.013680861 -0.015213514
-0.02822499 0.0020306923 0.008206557 -0.024718942 -0.0061809877 -0.0007907428 0.00059890345 0.009142509
-0.1057632 -0.019736083 -0.05659485 0.063609764 0.060364358 -0.04563992 -0.018696304 -0.07658397
-0.026288511 0.04026358 0.030366251 -0.030750941 -0.08107441 -0.0028501782 -0.040983487 -0.042093173
-0.13703482 -0.14955758 -0.052773327 -0.16546838 -0.12052349 -0.019656029 0.005435995 0.09133774
-0.021843253 -0.011139841 0.032349825 -0.012735871 -0.036890715 -0.027115548 0.105002195 -0.041941974
-0.025100855 -0.031521916 0.02311978 -0.017699165 0.08504561 -0.054032177 0.026826436 0.01032591
-0.0036585117 0.049151566 -0.05253113 0.0543287 0.034482736 -0.10433103 0.09505573 0.14587565
-0.02875737 -0.028857693 -0.09984103 0.06067618 -0.021761833 -0.024438566 0.0017041105 0.011086689
0.014810847 0.016377674 -0.09584372 0.009341097 0.0110527715 0.062048495 0.018321214 0.046187483
-0.037359178 -0.027090052 0.01772012 -0.0116446 -0.00347143 0.002964804 -0.013123468 0.024958754
-0.010261174 0.006252948 -0.046570864 -0.064448185 -0.0036264062 0.0057636187 -0.024082853 -0.04802702
0.02653937 -0.030854449 0.05319127 0.01552507 -0.028930804 0.008596915 0.016602093 0.027085545
0.04788773 0.0010902176 0.0028038854 0.07051539 0.010710377 0.033839572 0.025995387 -0.052375067

stn.fc_loc.2.bias f4 [6]
00000000: b406 813f 2d93 903c a1af b63c c3b0 7fbd
00000010: 0fcd 7e3f 7dff 7bbb
1.0080171 0.017648304 0.022300543 -0.062424432 0.99531645 -0.0038451843

fc1.weight f4 [50, 512]
00000000: c926 233e 7db0 c5bd ef01 bd3d 4bb4 c03d
00000010: 595e 92be a1ff 72be 0fa7 d53d cc3a 233d
00000020: 67cf 623d 7a07 acbd a4d3 393d b145 8e3d
00000030: 54cf e0bd 8ba1 203e 53bd 86bc 617a 27bd
00000040: 3b6d 953d 444f 2d3e 7489 483e 38ad adbb
00000050: dfe4 4d3e 8189 383e 570b 27bc 893a fbba
00000060: 6105 713e 7608 4a3e 060a 2c3e 3af8 2d3d
00000070: c1e0 7cbd 5fd6 ab3a 6987 a03d 7154 993d
00000080: 84e6 0bbe 4682 d3bc 03e2 1d3e d198 673e
00000090: 482c 3abe b4c1 5cbd 7645 013e d98a 9ebc
000000a0: 4cd4 c13d 153b 0c3e 609b e43c 8b40 8ebe
000000b0: 46f6 503e bcaa 893d e006 a8bc ffd6 ef3d
000000c0: f0f5 c33c e09c 9d3c 426b a4bd 1e7b 01bd
000000d0: 4ba6 943d 5850 823d 1c99 edbd d36c 59be
000000e0: 8460 a73d 1446 bbbc d361 27be 950e 69be
000000f0: 5f5a 0e3d e9a9 223c 2a88 10be c495 3ebe
00000100: 8491 3dbe 0376 8cbe 517a d0bd 803d 123e
00000110: 325b 44bc 2c68 14be ffda c03c 0ebe 983d
00000120: 019d 683d 8bcb 37bd cd70 be3d 28bf e7bd
00000130: b92b 04be 93de b2bd cf84 f13c f439 bebc
00000140: 7d14 87bb 58ca ad3d 9c7b 033d ee3a cdbb
00000150: de23 d1bd cfef 563c fa04 963d aead d9bd
00000160: 4610 97be 593c 26be 93b4 843d 3a1e 083c
00000170: ca77 71bd 3713 bc3d c543 3b3e ed61 bf3c
00000180: bd78 bcbb 6c33 cebc 8cc5 0ebd 18be d6bd
00000190: b52e 20be 4d50 d0bc 1de2 67bd d68f 47bc
000001a0: 2720 81bd 5465 7dbc 41d9 473d 1e9f ff3c
000001b0: f5ce 4c3e fb17 8a3d cb38 56bc f863 3fbe
000001c0: 0864 b73b 9f27 d03d b01c ab3c e713 fb3d
000001d0: cca0 95bd 5d8e 64bd 03d1 e0bc 0add bb3d
000001e0: 0fb8 5abe bf65 8cbd 4f34 18bd 337c 66be
000001f0: 96f1 91bd 2b2a aa3d fa36 e5bb 6473 3ebd
00000200: 0a92 4fbd ff8b ddbd c710 02be 5003 f1bd
00000210: b74d 27bd ae74 1cbd 9fbc ad3e cfc8 933d
00000220: 1009 8bbe 734e 73bc fd6b 703e e326 4ebd
00000230: bab5 85be fa45 023e 99ec 783d c2d1 c73d
00000240: bacc aebd 17cc d83c 3b66 a23d 814e cd3d
00000250: b9df 1dbe 76ed 4abe 46da 9d3d 5895 4c3c
00000260: 850f 0ebd 4e70 093d ea1d 1c3d 52b3 e93d
00000270: 3fb2 2f3e 708c 8e3d 5d7f d93d 5c8b e73d
00000280: 5199 d5bd 8896 1a3d 4bc7 b1bc 0c78 45be
00000290: 6096 693d e097 2aba d58a 03be 95ca e03d
000002a0: 3281 e0b9 3384 86bd ee3e 82bd b6d4 6e3d
000002b0: 29ca 4f3d 63c9 92bd c5a7 b43d cb5f 5f3d
000002c0: 80a1 d4bd 558b 403c c72a 63bd cf46 7d3a
000002d0: c002 a5bd 24c2 0abb d398 a43d 2b56 b23e
000002e0: 2a47 973d 1072 0e3e 6970 12be c6ca 263e
000002f0: b738 233d c4bd b13d 0f54 8dbe 1582 74be
00000300: 6701 82bd 3daa 13bd af6b 4d3c ff40 c5bd
00000310: 0abf e63c c601 22be ef63 72bd c0b5 f6bb
00000320: 921f 033e 1fbb 11bd 0c78 51be cb06 933c
00000330: 778c 883d 97fc cd3c af2b 2abd ab7d 5cbd
00000340: 9b33 1fbe 2caa cebd d298 11bd 5a05 a13c
00000350: 3af3 13be a1f2 2bbd d1c8 8bbc ab6e 38be
00000360: 2ad3 153c 6ce5 06be 1910 4bbe fcf2 81be
00000370: 5a4e 43bd d017 38be 946b 0a3d 39dd d2bd
00000380: 6ccf 5f3e c534 163e 92da fc3d 935d 093d
00000390: b0a9 8e3e c80c aa3d b087 e5bc b323 993c
000003a0: 6485 013e acc5 b03d fa76 16bc ab92 fb3b
000003b0: 6c08 003c e63b e7bd 3663 93be a556 07be
000003c0: 64a6 9f3d 2913 b53d 7766 2e3e 65ef 6e3e
000003d0: 734b 6bbc ea06 0f3d 24b8 c93d e491 3a3e
000003e0: 03eb 41be 1074 39be e915 11be 228e a33d
000003f0: 285b e2bd f0ab 34be 5548 17be 3afa 4bbd
0.15932764 -0.09652803 0.092288844 0.09409388 -0.28587607 -0.23730327 0.104322545 0.039850995
0.055373576 -0.083998635 0.04536785 0.06946886 -0.10977045 0.15686624 -0.016447699 -0.040888194
0.07296225 0.16924769 0.19583684 -0.0053001903 0.20106839 0.18021204 -0.010195575 -0.0019167225
0.23537208 0.1972979 0.16800699 0.042473055 -0.06173778 0.0013110152 0.078383274 0.07486809
-0.13662153 -0.025818955 0.15418248 0.22616889 -0.18180954 -0.053895667 0.12624153 -0.019353317
0.094643205 0.13694413 0.02790612 -0.27783617 0.20406446 0.06722018 -0.02051109 0.11710929
0.023920983 0.019239843 -0.0802827 -0.031611554 0.0725828 0.063629806 -0.11601469 -0.2123292
0.08172706 -0.022860564 -0.1634591 -0.22759469 0.034754153 0.009928205 -0.14114442 -0.18611819
-0.18512541 -0.27433786 -0.1017958 0.14281273 -0.011984633 -0.14492863 0.023541925 0.07458125
0.056790356 -0.044871848 0.09298859 -0.11315757 -0.12907304 -0.08733859 0.029482273 -0.023220994
-0.0041223154 0.0848586 0.032100305 -0.0062631285 -0.10211919 0.013118698 0.07325168 -0.1062883
-0.29504603 -0.16233958 0.06479754 0.008307988 -0.05895213 0.091833524 0.18287571 0.023362124
-0.005751698 -0.025171004 -0.034856364 -0.10485476 -0.15642817 -0.025428915 -0.056612123 -0.012180289
-0.06304961 -0.015466053 0.048791174 0.031203803 0.20000823 0.06742855 -0.013075064 -0.18690479
0.0055966415 0.10163807 0.020887703 0.122596554 -0.0730606 -0.05579983 -0.027443415 0.09173019
-0.21359275 -0.06855344 -0.03715926 -0.22508316 -0.07126157 0.08308824 -0.006995079 -0.046496764
-0.050676383 -0.10817718 -0.12701713 -0.1176821 -0.0408456 -0.038197212 0.3393297 0.072160356
-0.27155352 -0.014850247 0.23478694 -0.050330054 -0.2611521 0.12722006 0.060772512 0.09756805
-0.08535142 0.026464505 0.07929655 0.10024739 -0.15417375 -0.19817147 0.07707648 0.012486778
-0.03468277 0.033554368 0.038114466 0.11411156 0.17157839 0.0696038 0.10619996 0.113058776
-0.104296334 0.037741214 -0.021701476 -0.19284075 0.057028174 -0.00065076165 -0.12845929 0.109761395
-0.00042820867 -0.06568184 -0.06359659 0.058308326 0.050729904 -0.07167318 0.08821062 0.054534715
-0.10382366 0.011751969 -0.055460718 0.00096617354 -0.08057165 -0.0021172846 0.080369614 0.34831366
0.0738662 0.13910699 -0.14300694 0.1628829 0.03984901 0.08678773 -0.27603194 -0.23877747
-0.06347924 -0.036051024 0.012537881 -0.09631538 0.028167266 -0.15820989 -0.059177335 -0.0075289905
0.12805012 -0.035578843 -0.2045595 0.017947575 0.066674165 0.025144858 -0.041545566 -0.053830784
-0.1554703 -0.100910515 -0.03554613 0.019655872 -0.14448252 -0.041979436 -0.01706353 -0.18010966
0.009144584 -0.13173455 -0.1983036 -0.25380695 -0.047682144 -0.17977834 0.033794 -0.10296101
0.21856469 0.14668567 0.123463765 0.033536505 0.27863836 0.08303219 -0.028018802 0.01869378
0.1264854 0.08631453 -0.00918364 0.0076773963 0.007814508 -0.112907216 -0.2878663 -0.13216646
0.07795408 0.08841545 0.17031275 0.2333351 -0.01436125 0.034918703 0.09849575 0.18219715
-0.18937306 -0.1811068 -0.14168514 0.07986094 -0.11052543 -0.17643714 -0.14773686 -0.04979918
