models/STN_model.pth (torch, 184629 bytes, 16 tensors)

conv1.weight f4 [16, 1, 5, 5]
0	0xbdf46e99	-0.11935157
1	0xbdf439c1	-0.11925078
2	0xbd69b0ae	-0.05705326
3	0x3d64b4dd	0.055836547
4	0x3e55e05d	0.20886369
5	0xbd5d4d23	-0.05402864
6	0xbe59e7e3	-0.21279864
7	0x3e0669a2	0.13126233
8	0x3bd79499	0.0065789935
9	0x3e3dc006	0.18530282
10	0xbd95aab1	-0.073079474
11	0x3d9999f4	0.07500067
12	0xbdf114f3	-0.11771574
13	0x3e90493e	0.2818088
14	0xbdc032f2	-0.09384717
15	0xbd063cc3	-0.03277279
16	0xbe0ced84	-0.1376248
17	0xbd2799ff	-0.040918346
18	0xbd8cf6ee	-0.068830356
19	0x3e332d6b	0.17497794
20	0xbe41d4eb	-0.18928878
21	0xbd95db54	-0.07317224
22	0x3d0ca8c7	0.034340646
23	0x3e1f3adb	0.15549795
24	0x3c9f589d	0.019451434
25	0xbe59b2a4	-0.21259552
26	0xbe7fc4d4	-0.24977428
27	0xbe01d529	-0.1267897
28	0xbe74dea6	-0.23913059
29	0xbe69263a	-0.22768489
30	0xbe076b7b	-0.13224594
31	0xbe6633a2	-0.22480634
32	0xbe8a5f91	-0.27026036
33	0xbb3c03cc	-0.0028688787
34	0xbe271e0e	-0.16320059
35	0x3d5899a9	0.052880917
36	0x3e83e9fa	0.25764447
37	0x3dc9be57	0.098507576
38	0x3eaa8747	0.33306333
39	0x3e969e87	0.29417822
40	0x3e9cff0e	0.3066334
41	0x3eb5ac38	0.35482955
42	0x3e7af6bc	0.24508184
43	0x3e4d01b8	0.20020187
44	0x3ea1722b	0.31532416
45	0x3c573433	0.013135004
46	0xbda0268a	-0.07819851
47	0x3c82afc5	0.015952954
48	0xbe5ea4fb	-0.21742623
49	0xbe89a9de	-0.2688741
50	0x3dbe7764	0.09300116
51	0xbe3cc0ee	-0.18432972
52	0x3da54c94	0.08071247
53	0x3c950ca4	0.018194504
54	0xbde93f49	-0.11389024
55	0xbe425119	-0.18976249
56	0xbe1eca09	-0.15506758
57	0x3d28621b	0.041109186
58	0x3d548661	0.051885966
59	0xbdbb594f	-0.09147894
60	0x3e0c23b5	0.13685496
61	0xbd05d700	-0.032675743
62	0xbdd82703	-0.10554316
63	0xbbf2e794	-0.00741286
64	0x3dfad274	0.12247172
65	0x3e3aa778	0.18227947
66	0xbe472615	-0.19448121
67	0xbe7d6772	-0.24746493
68	0xbdadb6a0	-0.084820986
69	0x3dfc144d	0.123085596
70	0xbd5e9f5b	-0.054351192
71	0x3e5e906a	0.21734777
72	0x3cd4bdfe	0.025969502
73	0xbe1b0a11	-0.15140559
74	0xbe5b8452	-0.21437195
75	0x3eb386c7	0.35063764
76	0x3e5e0461	0.21681358
77	0x3df487b2	0.11939944
78	0xbeaebcf3	-0.34128532
79	0xbe5a0f94	-0.21295005
80	0x3ee07622	0.43840128
81	0x3dca4488	0.098763525
82	0x3d954cea	0.07290061
83	0xbe8a3e1a	-0.27000505
84	0xbeb2d68d	-0.34929314
85	0x3ea0969a	0.313649
86	0x3dd7f0b3	0.105439566
87	0xbc03e33b	-0.008049781
88	0xbe3dc5cb	-0.18532483
89	0xbe95ed16	-0.29282445
90	0x3e7e5879	0.24838437
91	0x3e99d740	0.30047035
92	0xbbb750a1	-0.0055943285
93	0xbc8931ae	-0.016747322
94	0xbdb4b4eb	-0.0882357
95	0xbd832e05	-0.06405262
96	0x3de2ebb0	0.1108011
97	0x3e780d3a	0.24223796
98	0xbe66e18f	-0.22546981
99	0xbe34ba94	-0.17649299
100	0xbe71c90d	-0.23611851
101	0xbd7964b1	-0.060887042
102	0x3e368235	0.17823108
103	0x3dde8569	0.1086529
104	0xbdec5a7b	-0.11540695
105	0xbdb84ecf	-0.089994065
106	0xbe7b9e0f	-0.24572013
107	0xbe5aeb5c	-0.21378845
108	0x3e9804a5	0.29691043
109	0x3dd82759	0.1055438
110	0xbc282e8c	-0.010265004
111	0xbe4e2dba	-0.20134631
112	0x3d352c4b	0.044231694
113	0x3eb15ade	0.3463964
114	0x3e37f99f	0.17966317
115	0xbe2cdbb1	-0.1688068
116	0xbca09b23	-0.019605225
117	0x3e9d2a83	0.30696496
118	0x3e0126ca	0.12612453
119	0x3dfda05a	0.123841
120	0xbddb2224	-0.10699871
121	0x3e8dd762	0.27703387
122	0x3e2d7775	0.169401
123	0xbba9288c	-0.0051623043
124	0xbe005e39	-0.12535943
125	0xbcca1349	-0.024667399
126	0xbe3f98bb	-0.18710606
127	0x3d78932c	0.06068723
128	0xbd26550e	-0.04060846
129	0x3e7294bd	0.23689552
130	0xbea71eb9	-0.32640627
131	0xbec8afc5	-0.39196602
132	0xbe16685f	-0.14688252
133	0x3d12a82f	0.035804924
134	0xbd54ee73	-0.051985215
135	0xbe26c7ff	-0.1628723
136	0xbe577c88	-0.21043599
137	0xbd2de496	-0.042454325
138	0xbe7e48d1	-0.24832465
139	0xbd9ff4b9	-0.07810349
140	0x3ebc7eab	0.3681539
141	0x3e858067	0.26074526
142	0xbd998792	-0.07496561
143	0xbdf29f0d	-0.11846743
144	0x3b8fea5e	0.0043919524
145	0x3eb6c4c7	0.35697004
146	0x3e95372e	0.2914366
147	0x3ea3d63a	0.3199938
148	0x3e1d53e3	0.15364031
149	0x3e091992	0.1338866
150	0x3e588cdd	0.21147485
151	0xbe307ec7	-0.17235862
152	0x3e8d92af	0.27650973
153	0x3dfdaba4	0.123862535
154	0xbd842a0a	-0.06453331
155	0xbde0914a	-0.10965212
156	0xb9c2fc2a	-0.0003719044
157	0x3e4b750c	0.19868869
158	0x3e082a83	0.13297467
159	0xbd3537af	-0.044242557
160	0x3e11691e	0.14200255
161	0x3e245a0e	0.16049978
162	0xbdb6a66b	-0.089184605
163	0x3d6eb051	0.058273617
164	0x3dc33592	0.09531702
165	0x3d9bf284	0.076146156
166	0x3e8e1a6c	0.27754533
167	0xbd5f1af1	-0.054469053
168	0x3e1d1f34	0.15343934
169	0xbdb9cddf	-0.0907247
170	0xbd8c6701	-0.06855584
171	0xbdca4314	-0.098760754
172	0x3e881042	0.26574904
173	0xbd25d8ed	-0.04049008
174	0x3e1eb368	0.15498126
175	0xbdb5678c	-0.088576406
176	0xbe0a79b2	-0.13522986
177	0xbe0cb9d7	-0.13742767
178	0xbd966e5a	-0.07345267
179	0xbdfe5b84	-0.12419799
180	0xbda5fe71	-0.081051715
181	0x3c128b7d	0.008944389
182	0x3ce3d72e	0.027812567
183	0xbe42dbe7	-0.19029199
184	0x3da33a81	0.07970143
185	0xbe1b8ebc	-0.15191168
186	0xbe4fb88f	-0.20285247
187	0xbe293a9b	-0.16526262
188	0xbd10e773	-0.035376977
189	0xbe15c6b4	-0.1462658
190	0xbdd138a6	-0.10215883
191	0x3d96e0ec	0.07367119
192	0xbc025be3	-0.007956478
193	0x3ca2c9e5	0.019871661
194	0xbe131c2c	-0.14366215
195	0xbe2da7d6	-0.16958556
196	0x3dbdec02	0.092735305
197	0xbe5d69f6	-0.21622452
198	0xbe0b1e25	-0.13585718
199	0x3cf2482d	0.029575432
200	0xbb2736d3	-0.0025514856
201	0x3ea23058	0.31677508
202	0x3eaf507a	0.34241086
203	0x3ee15680	0.44011307
204	0x3e125881	0.14291574
205	0xbed5ede8	-0.4178307
206	0xbe891194	-0.26771224
207	0xbe26f22c	-0.16303319
208	0x3e76dce3	0.24107699
209	0x3e9998ce	0.29999393
210	0xbdf5b8ca	-0.11998136
211	0xbec94f29	-0.39318207
212	0xbe88fb1e	-0.26754087
213	0xbecb78ea	-0.39740688
214	0x3cba3bf2	0.022733662
215	0xbe418f1c	-0.18902248
216	0xbe3d7b85	-0.1850415
217	0xbea01628	-0.31266904
218	0xbe9b3837	-0.30316326
219	0xbe750b1e	-0.23930022
220	0x3db81178	0.08987707
221	0x3e06c3f6	0.1316069
222	0x3d13d410	0.03609091
223	0xbdd9a454	-0.10627046
224	0xbdbad8e9	-0.091234036
225	0x3e001481	0.12507822
226	0x3e458a3a	0.1929101
227	0xbe37a6e2	-0.17934754
228	0xbdacb4f4	-0.084329516
229	0xbe51c738	-0.20486152
230	0x3dca4002	0.0987549
231	0x3dbcd0e5	0.09219531
232	0xbe3502e9	-0.17676891
233	0x3d5cd15a	0.05391059
234	0xbe30df69	-0.17272724
235	0x3e84dd42	0.25950056
236	0xbe3940ba	-0.18091097
237	0xbda14cee	-0.07876001
238	0xbe73bd9a	-0.23802796
239	0x3cc7a82d	0.024372185
240	0x3e02f349	0.12788118
241	0xbe6da723	-0.23208289
242	0xbe1875ae	-0.14888641
243	0xbd9e26d9	-0.07722253
244	0x3e5c0774	0.21487218
245	0xbd95888b	-0.07301434
246	0xbd7148bd	-0.05890726
247	0x3a17e9df	0.00057950424
248	0xbd923d76	-0.07140629
249	0x3e91b5f9	0.28459147
250	0xbe29d3eb	-0.16584747
251	0xbe8838b0	-0.2660575
252	0xbd2465be	-0.04013609
253	0xbc19cbd1	-0.0093869725
254	0x3de3f706	0.111311
255	0x3c8bf6f9	0.01708554

conv1.bias f4 [16]
0	0xbd17cd69	-0.03706113
1	0x3d02c781	0.031928543
2	0x3daa0fc0	0.08303785
3	0x3e825dee	0.25462288
4	0x3e8dadd5	0.27671686
5	0x3d9b5fd9	0.07586641
6	0x3e799b92	0.24375752
7	0xbd233990	-0.039849818
8	0x3da21a6d	0.079151966
9	0x3d8ddcd9	0.06926889
10	0xbd84f592	-0.06492151
11	0xbd18c28f	-0.03729492
12	0x3db431a3	0.0879853
13	0x3e36f282	0.17865947
14	0xbda6d721	-0.08146501
15	0x3d193d0c	0.037411734

conv2.weight f4 [32, 16, 5, 5]
0	0x3cd3be6b	0.025847634
1	0xbc0ec05e	-0.008712856
2	0xbb9efc20	-0.004851833
3	0xbd1fa902	-0.038979538
4	0xbce0a125	-0.02742059
5	0xbce8105c	-0.028328113
6	0xbcd3b58c	-0.025843404
7	0xbbcc5277	-0.0062354165
8	0xbc8ab1f2	-0.016930554
9	0x3d1be071	0.03805584
10	0xbd7bb367	-0.06145039
11	0xbd61f2ca	-0.055163182
12	0xbcce2c71	-0.025167676
13	0xbd0a9a73	-0.0338387
14	0x3ce38db7	0.027777536
15	0xbd07c46e	-0.033146314
16	0xbc0811c3	-0.008305016
17	0xbc98e294	-0.018662728
18	0x3d3de918	0.046364874
19	0xbd40812c	-0.046998188
20	0xbd74d4e6	-0.05977335
21	0xbd4f72f3	-0.050646733
22	0x3d0a6144	0.033784166
23	0x3c46ff43	0.01214582
24	0x3b9cfda0	0.0047909766
25	0xbd0eb357	-0.034839
26	0xbb93c2ae	-0.0045092916
27	0x3c9dbc5e	0.01925486
28	0x3d6935e6	0.056936167
29	0x3c72e165	0.014824246
30	0xbd054c39	-0.032543395
31	0xbc87ff94	-0.016601361
32	0x3d6de31f	0.058077928
33	0x3d11451e	0.035466306
34	0x3d864be3	0.06557443
35	0x3c6b1447	0.014348096
36	0x3a8de660	0.0010826103
37	0x3d01c856	0.031685196
38	0xbd4541f9	-0.04815862
39	0xbd50fca0	-0.051022172
40	0x3dd1c7e8	0.10243207
41	0x3ca69944	0.020336755
42	0x3d647eaa	0.05578486
43	0xbd264e6a	-0.040602125
44	0xbda710b9	-0.081574865
45	0x3d81561f	0.063152544
46	0x3d67d238	0.056596965
47	0x3d033180	0.03202963
48	0xbc0c05da	-0.008546317
49	0xbc92a7cf	-0.017902283
50	0xbc2c9c5f	-0.010535329
51	0x3cecb4a5	0.028894732
52	0x3d1d0d90	0.038343012
53	0x3d814cf2	0.06313504
54	0xbd177118	-0.03697309
55	0xbd444637	-0.047918525
56	0xbd2c140b	-0.042011302
57	0xba60dd75	-0.00085779215
58	0xbaa93d3d	-0.0012911927
59	0x3d432293	0.047640394
60	0x3d1062f4	0.03525062
61	0x3d367839	0.044548247
62	0x3c9e7770	0.019344062
63	0xbd1a2feb	-0.037643354
64	0x3d1a544a	0.03767804
65	0x3c0f5bda	0.008749926
66	0xbd5c7a47	-0.05382755
67	0x3cc416c3	0.023936635
68	0xbd624687	-0.05524304
69	0x3c86bdfd	0.016448015
70	0xbcf5784e	-0.029964592
71	0xbd101ad9	-0.035181854
72	0x3ce22b25	0.027608464
73	0xbb9b4de2	-0.004739509
74	0xbd3505e0	-0.044195056
75	0xbd168ccb	-0.036755364
76	0xbd04d4b4	-0.032429412
77	0x3cb0aa59	0.021565603
78	0xbd34d991	-0.0441528
79	0xbd097c01	-0.033565525
80	0xbd3a6d4f	-0.0455144
81	0xbcc15e82	-0.023604635
82	0x3bff0289	0.0077822846
83	0x3c1ec9fd	0.009691712
84	0x3c2bd4c7	0.010487742
85	0xbc8f37c1	-0.01748264
86	0xbd4e89ae	-0.05042427
87	0xbccd99ce	-0.025097754
88	0x3d0df6dc	0.03465925
89	0x3c7b8c3a	0.015353257
90	0xbd4817ac	-0.0488507
91	0xbdad1b85	-0.084525146
92	0xbd4cc7c7	-0.04999521
93	0x3af23882	0.0018479975
94	0x3d59919c	0.05311738
95	0xbceb9c5f	-0.028761087
96	0xbdb68a5a	-0.08913107
97	0xbdae00bf	-0.08496236
98	0x3c880fa6	0.016609024
99	0x3cab26a1	0.020892443
100	0xbc6e5f41	-0.0145490775
101	0x3d0aaf27	0.033858445
102	0xbc84e87f	-0.016224144
103	0xbcaee9b1	-0.021351667
104	0xbd558d4d	-0.052136708
105	0x3c897029	0.016777115
106	0x3a46b933	0.00075806974
107	0xbce1e345	-0.02757419
108	0xbd93073e	-0.07179116
109	0xbdb0341f	-0.08603691
110	0x3b7f23b5	0.0038931195
111	0xbd91be45	-0.07116369
112	0x3c9ec31e	0.019380149
113	0xbc718612	-0.0147414375
114	0xbc6b9743	-0.014379325
115	0x3c98eee6	0.018668603
116	0xbbe87fdb	-0.0070953197
117	0x3d2bf8e6	0.041985415
118	0x3dd9b4a9	0.10630161
119	0x3d2407cd	0.040046502
120	0x3c989d86	0.0186298
121	0x3c899820	0.016796172
122	0x3ac37cb6	0.0014914486
123	0x3d5c9302	0.053851135
124	0x3d75705f	0.05992162
125	0xbbf565b2	-0.0074889297
126	0xbd78f047	-0.06077602
127	0x3c1bc0b6	0.009506395
128	0x3d17184f	0.036888417
129	0x3d73bab7	0.059504237
130	0xbd34675f	-0.044043895
131	0x3d56c41c	0.05243312
132	0x3ae5c509	0.0017530035
133	0x3d0dee9d	0.034651387
134	0x3df19c85	0.11797432
135	0x3c0e149d	0.008671907
136	0x3d836fd8	0.06417817
137	0x3bb42262	0.005497263
138	0xbd9c2e6b	-0.07626041
139	0x3ba130ee	0.004919163
140	0x3beab63a	0.0071628364
141	0x3afad73b	0.001913763
142	0x3d9bbe66	0.07604675
143	0x3d22af28	0.039717823
144	0xbd8cda57	-0.068775825
145	0x3b7ca97d	0.0038553171
146	0xbc4d8602	-0.012544157
147	0xbd183ca2	-0.0371672
148	0xba8bb793	-0.0010659568
149	0xbd6dda59	-0.05806956
150	0x3cfc4f33	0.030799484
151	0xbba9a4ed	-0.0051771314
152	0x3cc25e53	0.023726618
153	0xbbc29961	-0.0059386943
154	0xbbbc59f9	-0.0057480303
155	0x3c0dd589	0.008656868
156	0x3c3e130a	0.011601219
157	0x3cd66a7b	0.02617382
158	0xbd29e7c5	-0.0414808
159	0x3c8dd0aa	0.017311413
160	0xbd804798	-0.062636554
161	0xbda95ab4	-0.082692534
162	0x3c8e58b2	0.017376278
163	0x3ccb2a41	0.024800422
164	0x3cd59ab4	0.026074745
165	0xbd87cc6e	-0.06630789
166	0xbc39a359	-0.011330449
167	0xbd2103ad	-0.039310146
168	0xbcf82a3f	-0.030293582
169	0xbba0e61b	-0.004910243
170	0x3d10b551	0.035329167
171	0x3c17a6ff	0.009256124
172	0x3d5f1e5c	0.054472312
173	0x3ce50e5e	0.027960952
174	0x3d1f67e8	0.038917452
175	0x3d2c3323	0.042040955
176	0xbbecfd3e	-0.0072323373
177	0xbd0f0f5a	-0.03492675
178	0x3cb700c3	0.02233923
179	0x3c9edf80	0.019393682
180	0xbd3dcb52	-0.04633648
181	0xbcd1f5ef	-0.025629966
182	0xbced59a3	-0.028973406
183	0xbd1a0212	-0.03759963
184	0x3cea4ce4	0.028601117
185	0xb9adaedd	-0.00033127415
186	0xbc04faa9	-0.008116403
187	0x3d31a994	0.043374613
188	0xbba996f4	-0.0051754657
189	0x3c8f4ca3	0.017492598
190	0x3ce3b4b3	0.027796125
191	0xbc0288be	-0.007967172
192	0xbd0e3507	-0.03471854
193	0x3d51625b	0.05111919
194	0x3d643a7f	0.05571985
195	0x3c5216aa	0.012822786
196	0x3c9bb579	0.019007431
197	0x3d231990	0.0398193
198	0xbc3c4a56	-0.011492332
199	0x3b7945d0	0.0038035996
200	0xbb8d8df0	-0.004319899
201	0x3cc35c3a	0.023847688
202	0x3d093aa9	0.03350321
203	0x3d227be4	0.039668933
204	0x3c59b8a4	0.013288651
205	0x3c1cc4c1	0.009568394
206	0x3cc0944c	0.023508213
207	0x3de4e82b	0.11177095
208	0x3d82cfea	0.06387313
209	0x3d398f08	0.04530242
210	0x3d7a1914	0.061059073
211	0x3cfb25e5	0.030657718
212	0x3ce9f269	0.028557973
213	0x3c85c614	0.016329803
214	0x3d0eaa75	0.03483053
215	0x3d792e16	0.060834967
216	0x3c492d52	0.012278872
217	0xbdc79fe1	-0.09747291
218	0xbd4f388a	-0.05059103
219	0xbdeb9bf7	-0.11504357
220	0x3d309d1d	0.043118585
221	0xbb84ef2f	-0.004056833
222	0xbce3a99a	-0.027790833
223	0xbdb301ac	-0.08740553
224	0xbd42a480	-0.04752016
225	0xbd418235	-0.047243316
226	0x3d221efd	0.039580334
227	0xbd396a84	-0.045267597
228	0xbd501989	-0.050805602
229	0x3ceb56df	0.028727947
230	0xbc49af00	-0.01230979
231	0xbd808818	-0.06275958
232	0xbd47efeb	-0.048812788
233	0xbd5e492c	-0.054269
234	0xbd156893	-0.036476683
235	0x3cd68234	0.026185133
236	0x3aeb932b	0.0017972937
237	0xbda38da2	-0.07985999
238	0xbdc0fa54	-0.09422746
239	0x3af7008c	0.0018844767
240	0xbb484776	-0.0030560172
241	0x3c6fdab1	0.014639542
242	0x3bc23b5d	0.005927487
243	0xbc78c955	-0.01518472
244	0xbd3dfc65	-0.04638328
245	0xbd14b85c	-0.03630863
246	0x3d88ceca	0.06680067
247	0xbcce2200	-0.025162697
248	0x3d325dd3	0.04354651
249	0xbcb46487	-0.022020591
250	0x3cec5461	0.028848829
251	0xbcedfc55	-0.029050985
252	0xbd132bc1	-0.0359304
253	0x3d2eaaa3	0.0426432
254	0xbcd2db86	-0.025739443
255	0x3c53eec8	0.012935348

conv2.bias f4 [32]
0	0xbce01bc8	-0.027356997
1	0xbb1e3c75	-0.0024144922
2	0x3ba86fe5	0.005140292
3	0x3c94e98d	0.018177772
4	0xbc9dac1b	-0.019247105
5	0x3caa01bf	0.020752786
6	0xbced8ae1	-0.028996887
7	0x3c624a65	0.013811682
8	0x3d0ec31e	0.034854047
9	0x3cb4a70d	0.022052312
10	0xbb04bd17	-0.0020254308
11	0xbd1260b6	-0.035736762
12	0x3d03641b	0.03207789
13	0xbc44854a	-0.011994669
14	0xbd5d0b3d	-0.053965796
15	0x3cf4e9c1	0.029896619
16	0xbc5b2dc9	-0.013377615
17	0x3d0eadbc	0.034833655
18	0x3b812bf9	0.0039420095
19	0x3d2615be	0.04054808
20	0xbd0e9a3f	-0.03481507
21	0xbcb115e7	-0.02161689
22	0xbd1447b0	-0.03620118
23	0x3d2bebaa	0.041972794
24	0xbcd64b8f	-0.026159076
25	0x3d00dbb8	0.03145954
26	0x3d116bfe	0.03550338
27	0xbd55fc69	-0.05224267
28	0x3c9dbcb1	0.019255014
29	0x3d0d0e99	0.03443775
30	0x3c058361	0.008148999
31	0xbc5ccee6	-0.013477063

fc1.weight f4 [50, 512]
0	0x3dd19b55	0.10234705
1	0xbce75c16	-0.028242152
2	0xbc692e99	-0.014232301
3	0xbd041336	-0.032244883
4	0xbd644f19	-0.055739496
5	0xbcb8142e	-0.02247056
6	0x3c617090	0.013759747
7	0x3bd0d3a4	0.006372886
8	0xbce26578	-0.027636275
9	0x3d2fd226	0.042925023
10	0x3c2258fd	0.009908912
11	0x3ca57d94	0.020201482
12	0xbd1ee3d5	-0.038791496
13	0xb9c39d57	-0.00037310526
14	0xbc71a850	-0.0147496015
15	0x3c21b448	0.009869643
16	0xbc1150db	-0.008869375
17	0xbcfea60c	-0.031085037
18	0x3ca0b13b	0.01961576
19	0x3c6227ed	0.013803464
20	0x3d14431e	0.03619682
21	0xbc4dff62	-0.012573095
22	0x399af3cd	0.00029554815
23	0xbd2fb039	-0.04289267
24	0xbd9beb87	-0.07613283
25	0x3bc5850b	0.006027823
26	0x3b6c32e8	0.0036041085
27	0x3d1e27ab	0.03861205
28	0xbb32a5c1	-0.0027259442
29	0xbc6be90f	-0.014398827
30	0xbd21f5b4	-0.03954096
31	0xbcdf6a27	-0.027272297
32	0xbd570b3e	-0.052500956
33	0x3ca968bb	0.020679822
34	0x3d6e0537	0.058110442
35	0x3dab4eba	0.08364625
36	0x3ca3d5ba	0.019999374
37	0x3d99d61e	0.07511543
38	0xbce98014	-0.028503455
39	0x3d1f19d3	0.038842987
40	0xbc8af964	-0.016964622
41	0xbceb1c1c	-0.028699927
42	0xbc19d0bd	-0.009388146
43	0xbc3b51e8	-0.011433102
44	0x3cf56263	0.029954141
45	0x3b56f152	0.0032797647
46	0x3ca31e4e	0.019911911
47	0xbcc027ed	-0.023456538
48	0x3ce56793	0.02800349
49	0xbd800001	-0.06250001
50	0xbd2570b8	-0.0403907
51	0xbd31bcb5	-0.043392856
52	0x3d095374	0.033526853
53	0x3d4364c2	0.047703512
54	0x3c907575	0.017634133
55	0x3c68080a	0.014162073
56	0x3d2835d5	0.041066963
57	0x3d295c50	0.0413478
58	0xbc9783f8	-0.018495545
59	0xbd005e80	-0.031340122
60	0xbd925f09	-0.07147033
61	0xbdf6d35a	-0.12052031
62	0x3d06c1a7	0.032899525
63	0x3cc07568	0.023493484
64	0x3d1e044a	0.03857831
65	0x3c9728a0	0.018451989
66	0x3d1eb3ef	0.038745817
67	0xbd268440	-0.040653467
68	0xbd179a4d	-0.037012387
69	0xbc80e5fe	-0.015734669
70	0x3ce4fad9	0.027951645
71	0x3d58927b	0.05287407
72	0x3bf1551a	0.007364881
73	0xbcb9dd22	-0.022688452
74	0x3ccb1808	0.024791732
75	0x3d03b254	0.03215249
76	0xbc447cb1	-0.011992619
77	0xbc8e0903	-0.017338281
78	0xbd60afeb	-0.05485527
79	0xbd756e39	-0.05991957
80	0x3dd9e0d7	0.10638588
81	0x3d33675d	0.043799747
82	0xbc6b4d26	-0.014361655
83	0x3da7f5b3	0.0820116
84	0xbd88fce8	-0.06688863
85	0xbd2de715	-0.042456705
86	0xbd1ea472	-0.038731046
87	0xbd2ae368	-0.041720778
88	0xbd962cfa	-0.07332797
89	0x3c34973b	0.011022384
90	0x3b3cef31	0.0028829093
91	0x3cfbdc1e	0.030744608
92	0x3d88bb36	0.06676333
93	0xbc5c0950	-0.013429955
94	0xbc1e320b	-0.009655486
95	0xbd94b2f7	-0.07260697
96	0xbd6e7e4c	-0.058225915
97	0xbcce73b2	-0.025201652
98	0x3c8714bf	0.016489385
99	0xbd282bb1	-0.041057292
100	0xbcaf229e	-0.021378811
101	0x3cb4984b	0.022045275
102	0xbc931255	-0.017953077
103	0x3d932b82	0.07186033
104	0x3c187bf6	0.009306898
105	0x3d2685d2	0.040654965
106	0xbbd21fa3	-0.006412463
107	0xbc2990d8	-0.010349475
108	0xba3246b7	-0.00068006985
109	0xbde18e73	-0.11013498
110	0xbc31ae5f	-0.010844796
111	0x3a1ecf65	0.0006058126
112	0xbcd89bfd	-0.026441569
113	0x3b9155e1	0.0044352864
114	0x3cdb35c2	0.026759032
115	0xbbb07483	-0.005384983
116	0xbcc6b0c9	-0.02425422
117	0x3d24f883	0.04027606
118	0x3d9512b5	0.07278959
119	0x3d311a38	0.043237895
120	0x3bab6b9c	0.005231334
121	0x3cc65788	0.02421166
122	0xbd6488f0	-0.055794656
123	0xbb98b9d4	-0.0046608243
124	0xbcf6eca8	-0.030142143
125	0xbd3e84b4	-0.046513274
126	0xbc09b479	-0.008404844
127	0x3c86560a	0.016398448
128	0x3d47eeba	0.04881165
129	0xbc6e2d95	-0.014537235
130	0xbc3299e5	-0.010900949
131	0xbc2cbe7a	-0.01054346
132	0x3d1ea77d	0.038733948
133	0x3d1698f7	0.036766972
134	0x3c7ac0aa	0.015304724
135	0x3d800850	0.062515855
136	0xbcbb2d9d	-0.022848899
137	0xbc4016e9	-0.011724212
138	0x3d27867c	0.04089974
139	0xbd4476ca	-0.04796485
140	0x3d002bec	0.031291887
141	0xbd38ec18	-0.04514703
142	0xbcac1795	-0.021007339
143	0xbb7df70f	-0.0038751995
144	0x3d4cc590	0.049993098
145	0x3b02903a	0.0019922392
146	0x3d6faab5	0.05851241
147	0x3d80089a	0.062516406
148	0x3c71ded8	0.014762603
149	0xbd5421a9	-0.051789913
150	0x3c696674	0.014245618
151	0xbcf25a91	-0.029584201
152	0xbcd288f7	-0.025700076
153	0xbb1fb232	-0.0024367687
154	0x3cb14d8b	0.02164342
155	0x3d73149d	0.05934583
156	0xbd08bc24	-0.03338255
157	0x3c9302c2	0.017945651
158	0xbd12c059	-0.03582797
159	0xbcbc3042	-0.02297223
160	0x3d34f069	0.044174585
161	0x3cdedff4	0.027206399
162	0x3ca5da9e	0.020245846
163	0x3b5c5b7c	0.0033623865
164	0xbc2aeebf	-0.010432898
165	0x3d0cd58b	0.034383338
166	0x3df40558	0.11915082
167	0x3dc8fb4f	0.09813558
168	0xbc0bbff1	-0.008529649
169	0x3d365076	0.044510327
170	0x3cff0cb3	0.031133985
171	0x3cb68ac0	0.022282958
172	0xbd625ea9	-0.055266056
173	0xbc5d0b52	-0.0134914685
174	0xbd8e8f38	-0.069609106
175	0x3c1a77a9	0.009427943
176	0x3d0c18a7	0.034203198
177	0xbd413e26	-0.04717841
178	0xbd375f92	-0.044768877
179	0x3bd9d6fe	0.0066479435
180	0xbcd7aef0	-0.026328534
181	0xbd293efd	-0.041319836
182	0x3bbd10bf	0.0057698186
183	0xbd0b08b2	-0.03394384
184	0x3d391368	0.045184523
185	0x3cebd4ea	0.028788049
186	0x3d639e16	0.055570684
187	0x3c8b5595	0.017008582
188	0xbd2d1c1d	-0.04226314
189	0x3b4d563c	0.0031331917
190	0xbd55c65f	-0.052191135
191	0xbc9b3924	-0.018948145
192	0x3d344de7	0.044019606
193	0xbc5d50b9	-0.013508015
194	0xbd6939db	-0.05693994
195	0xbc32f0e4	-0.010921691
196	0x3ca6bda8	0.020354107
197	0x3d44d8a6	0.048058175
198	0xbb0705c1	-0.0020602795
199	0x3d292ff4	0.041305497
200	0xbcb226a0	-0.021746933
201	0xb9cc01d1	-0.00038911265
202	0x3bec4da7	0.0072114053
203	0xbd7633ca	-0.060107984
204	0x3bb64dc4	0.0055634696
205	0xbc49ffa3	-0.012329015
206	0xbb832d1c	-0.00400318
207	0xbc9b36d8	-0.01894705
208	0x3d2a08f5	0.04151245
209	0x3ce21b14	0.027600802
210	0xbadd3ab2	-0.0016878454
211	0x3b85b389	0.00408024
212	0xbca75bc2	-0.020429496
213	0xbd0db1da	-0.03459344
214	0xbd9fb697	-0.07798498
215	0x3c56898f	0.01309432
216	0x3d03c119	0.032166574
217	0xbc88e557	-0.01671092
218	0xbc0d0448	-0.008606978
219	0x3d21ef5b	0.039534908
220	0xbca4a464	-0.020097919
221	0x3d8db905	0.06920055
222	0x3c4b602e	0.012413068
223	0x3c8147eb	0.015781363
224	0x3cbbe76f	0.022937505
225	0xbd288eef	-0.041151937
226	0xbd1378f3	-0.036004018
227	0xbba84880	-0.005135596
228	0x3b87b71c	0.0041417014
229	0xbceedb9e	-0.029157456
230	0x3d6d3b68	0.057917982
231	0x3d40f3bc	0.047107443
232	0x3d99242e	0.07477604
233	0x3a66a4e9	0.0008798377
234	0x3c9a974a	0.018870968
235	0x3d8697ca	0.0657192
236	0xbc874e68	-0.01651688
237	0xbdb2b2d0	-0.08725512
238	0xbd143410	-0.036182463
239	0xbd36a00f	-0.044586238
240	0x3d527a5e	0.05138623
241	0x3d1604f5	0.03662582
242	0x3c78f7f2	0.0151958335
243	0x3d0eae9a	0.03483448
244	0xbc092f30	-0.008373067
245	0xbceb4ab1	-0.02872214
246	0xbcf93687	-0.030421508
247	0xbdba1671	-0.090863116
248	0x3d347311	0.04405505
249	0xbc85578b	-0.016277095
250	0xbc0b0d4c	-0.008487057
251	0xbcc6c63e	-0.024264451
252	0x3d2f9caa	0.042874016
253	0xbbb55943	-0.0055343225
254	0x3d14bbe0	0.036311984
255	0xbd3ec6b4	-0.046576217

fc1.bias f4 [50]
0	0x3d30b378	0.043139905
1	0x3c4e0d4e	0.012576414
2	0xbc66e4b8	-0.014092617
3	0x3c20be47	0.009810991
4	0x3d45c7ef	0.048286375
5	0x3d7c3081	0.061569694
6	0x3cb8dcbc	0.022566192
7	0x3d67002f	0.05639666
8	0x3c93e386	0.018052828
9	0x3d77c149	0.060487065
10	0xbbf18cc0	-0.007371515
11	0x3d7ae8ed	0.06125729
12	0xbcb3b0d0	-0.021934897
13	0x3d38940e	0.04506307
14	0x3d5d549a	0.05403576
15	0xbaf84001	-0.0018939973
16	0x3b84d7e9	0.004054059
17	0xbc3bd15a	-0.0114634875
18	0x3d855548	0.06510407
19	0x3ba2f0bf	0.004972547
20	0x3bdeac60	0.006795451
21	0xbcc83fd6	-0.024444502
22	0xbc167a2e	-0.009184403
23	0x3c7aa618	0.015298389
24	0x3d405fdc	0.04696642
25	0x3c85ddcb	0.01634111
26	0x3d6f41c3	0.058412325
27	0xbc543630	-0.012952372
28	0x3c90b500	0.017664433
29	0x3d62ca7e	0.055368893
30	0x3da046f2	0.07826032
31	0x3b01197f	0.0019699035
32	0x3cc9b108	0.024620548
33	0x3cfc0e16	0.030768435
34	0x3d8dcda3	0.06923988
35	0x3cf1a7a0	0.029498875
36	0x3c811eba	0.015761722
37	0xbc59a340	-0.013283551
38	0xbb2842d5	-0.00256746
39	0x3cc09949	0.023510592
40	0x3ccbe84d	0.024891043
41	0x3ba5eec1	0.005063862
42	0xbbee3646	-0.0072696535
43	0x3bb78679	0.005600747
44	0x3cdf24a1	0.027239146
45	0xbbdbe4ae	-0.0067106104
46	0x3d727cac	0.059200928
47	0x3d8a3f0d	0.06750307
48	0xbc37da74	-0.011221517
49	0x3c292f18	0.010326169

fc2.weight f4 [10, 50]
0	0x3e25bb50	0.16184735
1	0x3e460a46	0.19339857
2	0xbe9e4a40	-0.30916023
3	0x3e36150d	0.17781468
4	0xbe31410a	-0.17309967
5	0xbe81179a	-0.2521332
6	0xbe41cac4	-0.18925005
7	0xbe2f0875	-0.1709307
8	0x3e603b0f	0.21897529
9	0xbe4fb2e0	-0.20283079
10	0x3e444ac9	0.19169153
11	0xbe3caee3	-0.18426089
12	0x3e884c27	0.266206
13	0x3e65073b	0.2236604
14	0xbe1dbce6	-0.1540409
15	0xbe2d0ead	-0.1690013
16	0xbe67697e	-0.22598836
17	0xbe5e0c4d	-0.2168438
18	0xbd705034	-0.058670238
19	0xbe11ecf0	-0.1425054
20	0xbe3d86f1	-0.18508507
21	0x3e0b3333	0.1359375
22	0x3b3bcb58	0.0028655138
23	0x3e2af614	0.16695434
24	0xbda8f0c7	-0.0824905
25	0xbe16fed9	-0.14745654
26	0xbdecdcb2	-0.11565532
27	0xbe211677	-0.15731226
28	0x3e60b7a4	0.21945053
29	0xbdc2e533	-0.095163725
30	0x3e630f21	0.2217374
31	0xbe8cc25f	-0.27492043
32	0x3c2fec61	0.0107375095
33	0xbe02794f	-0.12741588
34	0x3e727b2a	0.23679796
35	0xbe539962	-0.2066398
36	0xbdc9e474	-0.09858027
37	0x3e54da48	0.20786393
38	0xbe45c80f	-0.19314598
39	0xbe5fd33a	-0.2185792
40	0x3e970834	0.29498446
41	0xbe25046d	-0.1611497
42	0x3e5b4ddc	0.2141642
43	0x3e33d9d9	0.17563571
44	0xbe68012c	-0.22656697
45	0x3e85dba4	0.26144135
46	0x3e0e8f5b	0.13921873
47	0xbe842048	-0.2580588
48	0xbe2594da	-0.16170064
49	0xbde53c77	-0.111931734
50	0xbe4638da	-0.19357625
51	0xbda77665	-0.08176879
52	0xbe8d6587	-0.27616522
53	0xbc973bc8	-0.018461123
54	0xbe1fda2f	-0.15610574
55	0x3e96a368	0.29421544
56	0xbe5e172d	-0.21688528
57	0xbdd67bca	-0.1047283
58	0xbe1d230e	-0.15345404
59	0x3e610287	0.2197362
60	0xbcf07d5e	-0.029356655
61	0x3e5c65fb	0.21523277
62	0xbe117df1	-0.14208199
63	0xbe454e39	-0.19268121
64	0x3e5e5e48	0.21715653
65	0xbe32e885	-0.17471512
66	0x3e4e78ef	0.2016332
67	0xbdfae86a	-0.12251361
68	0xbd91aa05	-0.07112507
69	0x3e82ca07	0.2554476
70	0x3e6aab16	0.22916827
71	0xbe01fe70	-0.12694716
72	0xbe29d178	-0.16583812
73	0x3e2a5372	0.16633394
74	0xbd24facd	-0.040278245
75	0x3e63a74e	0.2223179
76	0xbe4fcc86	-0.20292863
77	0xbd8e4825	-0.06947354
78	0xbe4ac00f	-0.19799827
79	0xbe5298d0	-0.20566106
80	0x3e3e6672	0.18593767
81	0x3e5ae6be	0.21377084
82	0x3e84005c	0.25781524
83	0xbe3364d1	-0.17518927
84	0x3e7572ed	0.23969622
85	0xbd92db3e	-0.071707234
86	0xbe31ab8b	-0.17350595
87	0xbe3a986f	-0.18222211
88	0x3e42e44b	0.190324
89	0xbdc96990	-0.098345876
90	0xbdd5fcd9	-0.104486175
91	0x3e8b0d84	0.2715875
92	0xbe60fb76	-0.21970925
93	0xbe6126e3	-0.2198749
94	0x3e3dd2be	0.18537423
95	0xbe65cc94	-0.22441322
96	0x3dbd7288	0.09250361
97	0x3e479a66	0.19492492
98	0xbe195c7f	-0.1497669
99	0xbe02bc1f	-0.12767075
100	0xbdb90173	-0.090334795
101	0xbe393594	-0.18086845
102	0xbe4a0bd5	-0.19731076
103	0x3e42e516	0.19032702
104	0xbe2e1465	-0.16999967
105	0xbdc8c3ea	-0.09802993
106	0x3e6f0c6b	0.23344581
107	0xbe13ad05	-0.1442147
108	0x3e55a6c3	0.20864396
109	0x3e3f61ef	0.18689702
110	0xbe21e65b	-0.1581053
111	0xbe2788b2	-0.16360739
112	0xbdd0e805	-0.10200504
113	0x3e55d0e5	0.20880468
114	0xbdbef1e3	-0.0932348
115	0xbe541b05	-0.20713432
116	0x3e29cdd8	0.1658243
117	0x3e4bce63	0.19902949
118	0x3e81900a	0.25305206
119	0xbdffec0c	-0.12496194
120	0x3e5e3188	0.21698582
121	0xbcafd8fc	-0.02146577
122	0xbda6bde7	-0.0814169
123	0x3e0c0070	0.13672042
124	0x3e6d9d75	0.23204596
125	0xbdbf22e8	-0.0933283
126	0xbe606514	-0.21913558
127	0xbe15a004	-0.14611822
128	0x3d62d24b	0.055376332
129	0x3cdcacee	0.026937928
130	0x3e278abe	0.1636152
131	0xbde3634a	-0.11102922
132	0xbd91290f	-0.070879094
133	0x3e3942f7	0.18091951
134	0xbdbf2fa6	-0.0933526
135	0xbdecf203	-0.115695976
136	0x3e634235	0.22193225
137	0x3e2c0c2f	0.16801523
138	0xbd57a060	-0.05264318
139	0xbe3fba7f	-0.18723486
140	0xbdeff68e	-0.117169484
141	0xbd4f3949	-0.05059174
142	0xbe4ec482	-0.2019215
143	0xbe08034d	-0.13282509
144	0x3e29be78	0.16576564
145	0x3e503abf	0.2033491
146	0x3e248bf4	0.16069013
147	0x3e463d78	0.19359386
148	0x3df792ab	0.120885216
149	0xbe08c118	-0.1335491
150	0x3e525613	0.20540647
151	0x3e27598a	0.1634275
152	0x3e0258ee	0.12729236
153	0x3e443951	0.1916249
154	0xbdb7eade	-0.08980344
155	0xbe4ad64b	-0.19808309
156	0xbc97cec4	-0.01853121
157	0xbe2ba85d	-0.16763444
158	0xbe12cef5	-0.1433676
159	0x3e3825ed	0.17983218
160	0xbe5526de	-0.20815608
161	0xbe57e639	-0.21083917
162	0xbe236099	-0.15954818
163	0xbe01e79a	-0.12686005
164	0x3e6dda66	0.23227844
165	0xbd9e07e1	-0.077163465
166	0xbe11a735	-0.1422394
167	0x3e3aa4f3	0.18226986
168	0xbe0988e1	-0.13431121
169	0xbe2262af	-0.15857957
170	0xbe121718	-0.14266622
171	0xba68c65f	-0.0008879657
172	0x3e5b6ad3	0.21427469
173	0xbe4bde00	-0.19908905
174	0x3e73c45b	0.23805372
175	0x3e52156b	0.20515983
176	0xbe277c78	-0.16356075
177	0x3e86fe53	0.2636591
178	0xbd94bf36	-0.07263033
179	0xbe1e51fb	-0.1546096
180	0xbdcda177	-0.100405626
181	0x3e389442	0.18025306
182	0xbdd18885	-0.10231117
183	0x3e3d3574	0.18477422
184	0xbe86062b	-0.2617658
185	0xbd5548bb	-0.052071314
186	0x3e674efa	0.22588721
187	0xbdf185d1	-0.117931016
188	0x3e39f7ae	0.18160889
189	0xbda63ba7	-0.081168465
190	0xbe0d85de	-0.13820598
191	0xbe4e45bf	-0.20143794
192	0x3e425c1d	0.18980451
193	0xbe3d5cc3	-0.18492417
194	0x3e35ec16	0.17765841
195	0xbe28b624	-0.16475731
196	0x3e22c6ce	0.1589615
197	0xbdeec9d1	-0.11659587
198	0x3e13a366	0.144178
199	0xbd7f2ef2	-0.06230063
200	0xbe5cf62f	-0.21578287
201	0xbe5f521d	-0.21808667
202	0xbe1185c7	-0.14211188
203	0xbe17664a	-0.14785114
204	0x3e7eeb94	0.24894553
205	0x3e8e386d	0.27777424
206	0x3e4d96e3	0.2007709
207	0x3d6941a0	0.05694735
208	0x3e5934f3	0.21211605
209	0xbdc2ad5a	-0.095057204
210	0xbe2f635e	-0.1712775
211	0x3e2cdd5e	0.1688132
212	0xbe011eab	-0.12609355
213	0xbd868ee4	-0.06570223
214	0xbd403ee6	-0.046934985
215	0x3e7b3523	0.24531989
216	0x3e428a5e	0.18998095
217	0xbe5ac812	-0.21365383
218	0x3e949a56	0.29024
219	0xbdc60a20	-0.096699
220	0xbd77f97f	-0.060540672
221	0x3ea605af	0.3242621
222	0xbe32b2a8	-0.17450964
223	0x3d4c27f3	0.049842786
224	0x3e5b91d5	0.2144235
225	0xbbb345ad	-0.0054709525
226	0x3e5e877c	0.2173137
227	0x3d98b6c7	0.07456737
228	0xbe104421	-0.14088489
229	0x3e9beb5d	0.30453005
230	0xbe14bc8c	-0.1452505
231	0x3e5b0e18	0.21392095
232	0xbd5ca009	-0.05386356
233	0xbe511399	-0.20417632
234	0xbddf1fc8	-0.10894734
235	0x3eaf896f	0.3428454
236	0xbd4a5aa9	-0.049402867
237	0xbdd873d6	-0.10568969
238	0x3e3a0dee	0.18169376
239	0x3e64319b	0.22284548
240	0xbd3d7e91	-0.04626328
241	0x3e899c09	0.26876858
242	0xbe40a69a	-0.18813553
243	0xbe109926	-0.14120921
244	0xbe0fe9b7	-0.14053999
245	0x3e698647	0.22805129
246	0xbe6fdffc	-0.23425287
247	0xbda31085	-0.07962135
248	0x3e11cb80	0.14237785
249	0xbdc0e32f	-0.09418332
250	0x3e2c1ba5	0.1680742
251	0x3e221306	0.1582757
252	0x3dd3edb5	0.103480734
253	0xbe44e8f2	-0.19229487
254	0x3e403bf5	0.18772872
255	0xbe46cc1d	-0.194138

fc2.bias f4 [10]
0	0x3d9da5d7	0.07697647
1	0x3ed1e1a3	0.4099246
2	0x3d5793c4	0.052631155
3	0x3d6eefca	0.05833415
4	0x3e4b6b46	0.1986514
5	0xbe0b42c5	-0.1359969
6	0xbe0c33ec	-0.13691682
7	0xbd0d9561	-0.034566287
8	0x3e23eab2	0.16007498
9	0xbe8eaa21	-0.27864173

localization.0.weight f4 [8, 1, 7, 7]
0	0xbd4e031e	-0.05029594
1	0xbc1f566d	-0.009725195
2	0x3a4cf43a	0.0007818375
3	0xbd8f6093	-0.07000842
4	0xbd79de48	-0.061003
5	0xbe341ae1	-0.17588378
6	0xbd846463	-0.0646446
7	0x3d8a6cb2	0.06759013
8	0x3d51f906	0.051262878
9	0xbdaa22a1	-0.08307386
10	0xbe5daf31	-0.21648861
11	0xbe545125	-0.20734079
12	0xbd9da533	-0.07697525
13	0x3d64dd37	0.05587503
14	0xbd9c7ddd	-0.07641194
15	0xbe3afb2d	-0.18259878
16	0xbe73ec0e	-0.23820516
17	0xbe0e6932	-0.13907316
18	0xbd815d52	-0.063166276
19	0x3c918921	0.017765583
20	0x3cbed962	0.023297016
21	0xbd8315bf	-0.06400632
22	0xbe710657	-0.23537575
23	0xbd9687fe	-0.07350157
24	0x3df1db5c	0.118094176
25	0x3db4442a	0.08802064
26	0x3dc14957	0.094378166
27	0xbbcf3ca7	-0.006324369
28	0xbe8669b7	-0.2625253
29	0xbdee6766	-0.116408154
30	0x3cfd3fc2	0.030914191
31	0x3e005af4	0.12534696
32	0xb9fb8927	-0.00047976637
33	0x3db348a1	0.08754087
34	0xbca39d42	-0.019972447
35	0xbd9c9c0e	-0.076469526
36	0xbd524852	-0.0513385
37	0x3d75bf4f	0.0599969
38	0xbd7a3c21	-0.0610925
39	0x3d8bd788	0.06828219
40	0xbe0745a2	-0.13210157
41	0xbd7edf95	-0.062224943
42	0xbdea7876	-0.11448757
43	0x3d8a7999	0.06761474
44	0x3d9a3333	0.07529297
45	0x3d8e458e	0.0694686
46	0x3d3ae48b	0.04562811
47	0x3ce389f3	0.02777574
48	0x3ca7411b	0.020416787
49	0xbe07f3d0	-0.13276601
50	0x3dd43c68	0.10363084
51	0x3d9b15c3	0.0757251
52	0x3d82cda8	0.06386882
53	0x3e251e86	0.16124925
54	0x3dea89b9	0.1145205
55	0x3dda0b47	0.10646682
56	0xbdc5e1f7	-0.0966224
57	0xbe489e84	-0.19591719
58	0x3d93435a	0.07190581
59	0x3e41a00e	0.18908712
60	0xbd17e695	-0.037085135
61	0xbd8f4c34	-0.069969565
62	0x3dd4103d	0.1035466
63	0x3cd7a1f9	0.026322352
64	0xbe5bbc66	-0.21458587
65	0xbe7f6501	-0.24940874
66	0xbe7c40f8	-0.24634159
67	0x3d302473	0.04300351
68	0xbb9d4980	-0.0048000216
69	0xbc4efdca	-0.01263375
70	0xbda01940	-0.07817316
71	0xbd673291	-0.05644471
72	0x3cf10178	0.029419646
73	0xbe3ad98a	-0.18247047
74	0xbd9ba6af	-0.07600152
75	0x3d5955f1	0.053060476
76	0xbe4604df	-0.19337796
77	0x3d32c1e3	0.043641936
78	0xbc7be176	-0.015373578
79	0xbbd20e92	-0.0064104283
80	0xbbcb88ba	-0.0062113674
81	0x3da854bd	0.082192875
82	0x3c6db116	0.014507553
83	0xbded54f0	-0.11588466
84	0x3d9440e0	0.072389364
85	0xbd618f60	-0.055068374
86	0x3c2dd66c	0.010610204
87	0xbc28cb60	-0.010302395
88	0x3d1f8a07	0.038949993
89	0xbd574b37	-0.052561965
90	0xbda41f8b	-0.08013829
91	0xbd1316cb	-0.03591041
92	0x3dd2dd24	0.102960855
93	0xbe1c44dc	-0.15260643
94	0x3e57f66c	0.21090096
95	0x3cfafffd	0.030639643
96	0xbe51d93a	-0.20493022
97	0x3d1c8eeb	0.038222235
98	0xbd06fcce	-0.032955937
99	0x3d6cb238	0.05778715
100	0xbded2745	-0.11579756
101	0x3d8191dc	0.063266486
102	0xbcc5e253	-0.024155771
103	0x3d97b1b7	0.07406943
104	0xbcaa9dfb	-0.020827284
105	0x3ce0a243	0.027421122
106	0x3de84c15	0.113426365
107	0xbbe7c378	-0.0070728622
108	0xbdd79882	-0.105271354
109	0xbd80d683	-0.06290915
110	0x3b878f12	0.0041369284
111	0x3dfa8557	0.12232464
112	0xbd65f0ac	-0.056137726
113	0xbcb7313b	-0.022362342
114	0x3bcc7bed	0.006240359
115	0x3cdd7c58	0.02703683
116	0x38a3a58f	7.8032834e-05
117	0xbe04b109	-0.12958159
118	0xbdbe306d	-0.0928658
119	0x3dc6aa11	0.09700406
120	0xbe3fbec9	-0.18725123
121	0x3da71d0e	0.081598386
122	0x3c8a691c	0.016895823
123	0x3c82d704	0.015971668
124	0xbdb812f1	-0.08987988
125	0xbe03d797	-0.1287521
126	0x3dd96bf0	0.106162906
127	0xbe859a5d	-0.26094332
128	0x3d4cc62c	0.04999368
129	0x3e2d5db2	0.16930273
130	0x3d594d7c	0.05305241
131	0xbd2da3d4	-0.042392567
132	0x3e31f7ae	0.17379639
133	0x3d8d59aa	0.06901868
134	0xbe28536d	-0.16438074
135	0xbdab7253	-0.08371415
136	0x3d80250b	0.062570654
137	0x3c7ed4c9	0.015553662
138	0xbd2a132e	-0.041522197
139	0x3d987f57	0.07446163
140	0x3e88aeac	0.26695764
141	0x3dc2dd30	0.095148444
142	0x3c6cdaa6	0.014456427
143	0xbca14480	-0.019685984
144	0xbd0c252b	-0.034215134
145	0x3e10ad8f	0.14128707
146	0x3d870e83	0.06594565
147	0xbd279787	-0.040915992
148	0xbd53a24e	-0.051668458
149	0xbd86cf9e	-0.065825686
150	0x3ccd8f93	0.025092876
151	0xbcd38406	-0.02581979
152	0x3dfe4928	0.12416297
153	0xbe006a1d	-0.12540479
154	0x3c32cf64	0.010913704
155	0x3cca368d	0.024684215
156	0x3e15155e	0.14558932
157	0xbd5ea8c2	-0.05436016
158	0x3d611d92	0.05495984
159	0xbcf5dc9b	-0.03001242
160	0xbdacb69b	-0.08433267
161	0x3e14a8be	0.14517495
162	0xbd1041be	-0.035218947
163	0xbd8cb222	-0.06869914
164	0x3d85b271	0.065281756
165	0x3d72f38e	0.059314303
166	0x3d282e90	0.04106003
167	0xbda05462	-0.07828595
168	0xbde204e8	-0.11036092
169	0xbd224567	-0.03961697
170	0xbd231180	-0.03981161
171	0x3e3e5bf9	0.18589772
172	0x3d9ebc9d	0.07750819
173	0x3c69a3f1	0.014260278
174	0x3d3eeec5	0.046614427
175	0x3d79efbb	0.06101964
176	0x3b8ce94d	0.0043002726
177	0x3e3c39e3	0.18381457
178	0x3cebb74d	0.028773928
179	0xbc809863	-0.015697664
180	0xbe055c8d	-0.13023587
181	0xbd201bde	-0.039089076
182	0x3ceac639	0.028658973
183	0x3d83bd94	0.064326435
184	0x3dafbbfe	0.085807785
185	0xbd05922e	-0.03261011
186	0x3b57adf8	0.003291009
187	0xbd6ff2af	-0.05858105
188	0xbe352352	-0.17689255
189	0x3d98bf64	0.0745838
190	0x3d0ae5b7	0.03391048
191	0xbd78a192	-0.06070096
192	0xbd6835b4	-0.05669184
193	0xbe0a17e9	-0.13485684
194	0xbcfd320f	-0.030907659
195	0xbdd152d4	-0.10220876
196	0xbe27f0c7	-0.16400443
197	0x3cf1cdf2	0.029517148
198	0xbd26e9f7	-0.04075047
199	0xbdd80a9d	-0.10548899
200	0xbcc571af	-0.02410206
201	0xbb4f886d	-0.003166701
202	0x3d78dced	0.060757566
203	0x3e5087d7	0.20364319
204	0x3d7f5c69	0.06234399
205	0xb98f28e2	-0.00027305546
206	0x3d5e3dfe	0.05425834
207	0xbd451cc9	-0.048123155
208	0x3d92f0b6	0.07174818
209	0xbdd81a3f	-0.10551881
210	0x3d5b1267	0.053484347
211	0xbc49b318	-0.012310766
212	0xbe13bc5b	-0.1442732
213	0x3cea11dd	0.028572971
214	0xbda551d9	-0.08072252
215	0x3cfa44d8	0.030550405
216	0x3c02858d	0.007966411
217	0xbba5ba2d	-0.0050575943
218	0xbdaa98ed	-0.083299495
219	0xbd865ff2	-0.06561269
220	0xbd6a722c	-0.05723779
221	0xbde4b128	-0.111666024
222	0xbdfd93c4	-0.123817
223	0xbd0d02c8	-0.03442648
224	0x3e1eca2b	0.15506808
225	0x3d2b74d2	0.041859455
226	0xbe201355	-0.15632375
227	0xbe5f9bc2	-0.2183676
228	0xbdcf1f15	-0.1011335
229	0xbd905804	-0.07048038
230	0xbdc2fd5d	-0.095209815
231	0xbdbbcebc	-0.09170291
232	0x3c2c813f	0.010528862
233	0xbd222e33	-0.03959484
234	0xbe66435b	-0.22486632
235	0xbe7346f9	-0.23757543
236	0xbc819d76	-0.015822154
237	0x3cb73b59	0.022367166
238	0xbd3aa3e5	-0.04556646
239	0x3df0bbcf	0.11754572
240	0x3e7018fe	0.23447034
241	0x3daf7584	0.08567336
242	0xbe72937f	-0.23689078
243	0xbe77f689	-0.2421514
244	0xbe170967	-0.1474968
245	0xbb7d3b77	-0.003864018
246	0x3b93914a	0.004503404
247	0x3d1bea50	0.038065255
248	0x3e18e980	0.14932823
249	0x3e252424	0.16127068
250	0x3cc3f94e	0.023922589
251	0xbd0668d6	-0.032814823
252	0xbe14898e	-0.14505598
253	0xbd175320	-0.03694451
254	0xbe1bd4f2	-0.15217951
255	0xbe0ef860	-0.13961935

localization.0.bias f4 [8]
0	0xbe8ea4ee	-0.27860206
1	0xbe5f8f64	-0.21832043
2	0xbe3378e7	-0.1752659
3	0xbe6f4044	-0.23364359
4	0xbc7b7a29	-0.0153489495
5	0xbe8f0057	-0.27929947
6	0xbe1fdfdb	-0.15612738
7	0xbeb6e732	-0.35723263

localization.3.weight f4 [10, 8, 5, 5]
0	0xbc6a2595	-0.014291187
1	0xbd86efeb	-0.065887295
2	0xbe026648	-0.1273433
3	0xbd03f53c	-0.032216296
4	0x3df25a05	0.11833576
5	0x3c8aa3b6	0.016923767
6	0xbc29d4c7	-0.0103656715
7	0x3d08d072	0.033401914
8	0x3d947d39	0.07250447
9	0x3dc97921	0.09837557
10	0xbd723c97	-0.059139814
11	0xbd6b70df	-0.05748069
12	0xbe0478ba	-0.12936679
13	0xbc4e1ec8	-0.012580581
14	0x3cea5ca7	0.028608633
15	0xbe1ff824	-0.15622002
16	0xbe3c2ac4	-0.18375689
17	0xbe161ab5	-0.14658625
18	0xbbf61a9d	-0.007510497
19	0xbc9c849e	-0.019106206
20	0xbda9f873	-0.08299341
21	0xbdb7898c	-0.08961782
22	0xbdb2c44f	-0.08728849
23	0xbdcc39bd	-0.0997195
24	0xbd7e84fd	-0.062138546
25	0xbd23e858	-0.040016502
26	0xbd85542d	-0.06510196
27	0xbd9776f6	-0.07395737
28	0xbe13065c	-0.14357895
29	0xbd88ef4a	-0.06686266
30	0x3d9242f3	0.07141676
31	0xbd0d2b67	-0.03446522
32	0x3cb8a1cd	0.02253809
33	0xbd70a3e3	-0.058750045
34	0xbb8d0e6f	-0.004304699
35	0x3d4f37bd	0.050590266
36	0x3c29a1e0	0.010353535
37	0xbc15c506	-0.009141212
38	0x3e09faac	0.1347453
39	0x3db255dc	0.087077826
40	0x3d6978e5	0.05700006
41	0xbda9263d	-0.082592465
42	0xbd5775f3	-0.05260272
43	0x3d299fb6	0.041412078
44	0x3d224b7b	0.039622765
45	0x3d56bc26	0.052425526
46	0xbdb0af7b	-0.0862722
47	0x3cad6410	0.021165878
48	0x3da3adab	0.07992109
49	0xbdcb6f57	-0.09933346
50	0x3a9faef9	0.0012182883
51	0x3d0fc840	0.035103083
52	0xbd11806b	-0.03552286
53	0xbc0880d4	-0.008331496
54	0x3ddd68c9	0.10811002
55	0x3d8898e8	0.066697896
56	0xbdb7b19c	-0.08969423
57	0xbd6ab3db	-0.05730043
58	0xbdaf13e7	-0.08548718
59	0xbd12d577	-0.035848107
60	0xbd57e57a	-0.05270908
61	0xbcfc7864	-0.030819125
62	0x3da6f59d	0.08152316
63	0x3d2f62a4	0.04281868
64	0xbd1707f2	-0.03687281
65	0xbcb6a344	-0.022294648
66	0xbd07b797	-0.03313407
67	0x3d262259	0.0405601
68	0xbd5d0028	-0.053955227
69	0xb9cc9ff3	-0.00039029084
70	0xbddf722f	-0.10910451
71	0xbb02a6f0	-0.0019935928
72	0xbd299040	-0.041397333
73	0xbcb6a474	-0.022295214
74	0xbd197c60	-0.03747213
75	0x3e38a437	0.18031393
76	0x3e2d128d	0.16901608
77	0x3de3be33	0.11120262
78	0x3d70585a	0.05867801
79	0x3d33f399	0.043933485
80	0x3d480777	0.048835244
81	0x3b142a4e	0.0022608223
82	0x3c88be18	0.016692206
83	0x3a0659cc	0.0005125075
84	0xbc2b7603	-0.010465148
85	0xbd3ea2bd	-0.046541918
86	0xbcb80333	-0.022462463
87	0xbdbae522	-0.09125735
88	0xbcd23937	-0.025662048
89	0xbbba6282	-0.0056880126
90	0xbcf7e24a	-0.03025927
91	0xbdc2eb93	-0.095175885
92	0x3c6ae066	0.014335727
93	0xbc39e638	-0.011346392
94	0xbd87eba1	-0.066367395
95	0xbd9051e4	-0.070468694
96	0xbc8cc3d1	-0.017183216
97	0xbdc0e521	-0.09418703
98	0xbde79b36	-0.11308901
99	0x3b871e08	0.004123453
100	0xbdf2473e	-0.118299946
101	0xbd82ac34	-0.063805014
102	0x3cd7ae5f	0.026328264
103	0x3dd261b8	0.102725446
104	0x3d4526d9	0.04813275
105	0x3d09ba5d	0.033624995
106	0x3db4a48c	0.08820447
107	0x3cca15fa	0.024668682
108	0xbc323237	-0.01087623
109	0x3dba0588	0.09083086
110	0xbd8da4c0	-0.06916189
111	0xbcda85ae	-0.026675072
112	0x3daa4fce	0.08316003
113	0xbd4fc289	-0.050722633
114	0xbd0881ee	-0.033327036
115	0xba866fe3	-0.0010256734
116	0x3c96a59a	0.018389512
117	0x3c90ac87	0.017660392
118	0xbc9e489c	-0.019321732
119	0xbc528ff1	-0.012851701
120	0x3d9890ca	0.07449491
121	0x3d60bfb0	0.054870307
122	0xbceaef5c	-0.028678589
123	0x3d7a9190	0.061173975
124	0x3b2ec269	0.002666617
125	0x3d9aed59	0.07564802
126	0xbd43b49b	-0.04777966
127	0xbdb1e3c0	-0.08686018
128	0xbd84f19a	-0.06491394
129	0x3be282e6	0.006912577
130	0x3cca4f4f	0.02469602
131	0x3d3e910b	0.046525043
132	0xbda3a2c9	-0.07990033
133	0x3da52b47	0.08064895
134	0xbd0b5815	-0.03401955
135	0xbb43cbf4	-0.0029876204
136	0xbd2d6257	-0.042330112
137	0x3d6dcb7d	0.05805539
138	0x3d02e1ce	0.031953625
139	0x3d3ba6a5	0.04581322
140	0x3c671c6a	0.0141058955
141	0xbd3c8d5f	-0.04603326
142	0xbd95aff5	-0.07308952
143	0x3d0944cd	0.03351288
144	0x3d0c8f72	0.034316488
145	0xbc34f84d	-0.011045528
146	0x3d461e29	0.048368607
147	0xbdb39a39	-0.0876965
148	0xbde6884e	-0.11256467
149	0x3c02897c	0.007967349
150	0x3d7ad7bf	0.061240908
151	0x3da9dc80	0.0829401
152	0xbce18f56	-0.027534168
153	0x3cdc9fef	0.026931731
154	0x3d84b8f5	0.0648059
155	0x3ca43203	0.020043379
156	0xbd8c5fa4	-0.068541795
157	0xbcc02a56	-0.023457687
158	0xbd59b1de	-0.053148143
159	0xbc8ee7e8	-0.017444566
160	0xbd41c9a6	-0.047311448
161	0xbd9285a4	-0.07154396
162	0xbbf0b72e	-0.0073460555
163	0xbd912a67	-0.07088166
164	0xbd4874dd	-0.048939575
165	0x3c9a455e	0.018831905
166	0xbcfc7291	-0.030816348
167	0x3dd4f576	0.103983805
168	0xbd370bfb	-0.04468916
169	0x3d839ce5	0.0642641
170	0xbc9eff2b	-0.019408783
171	0x3c37c980	0.011217475
172	0x3d3fcb36	0.046824656
173	0xbd731be5	-0.059352774
174	0xbc54fba8	-0.012999453
175	0x3dc06377	0.093939714
176	0xbd51863d	-0.05115341
177	0xbdcce323	-0.100042604
178	0xbdad84c6	-0.0847259
179	0xbe15e506	-0.14638147
180	0x3dbdfe28	0.09276992
181	0x3d5da664	0.05411376
182	0xbdd81191	-0.105502255
183	0xbd3c8c61	-0.046032313
184	0x3a1efddf	0.00060650514
185	0x3e1be76d	0.15225
186	0xbbb964b5	-0.005657757
187	0xbda7f9b3	-0.08201923
188	0x3d818f50	0.06326163
189	0xbd234512	-0.039860792
190	0x3d47399f	0.048638936
191	0x3bf647ba	0.0075158747
192	0xbd4d2179	-0.05008075
193	0xbccc387f	-0.024929283
194	0xbd9a8f7c	-0.07546899
195	0x3d81821b	0.06323644
196	0x3cdfb509	0.027308004
197	0x3da9c29b	0.08289071
198	0x3c68b14e	0.014202429
199	0xbbf3adcb	-0.007436489
200	0x3c8f2e1b	0.01747804
201	0x3acdffb9	0.001571647
202	0x3df86ef1	0.121305354
203	0x3d5ba4a8	0.053623825
204	0xb9eda6f0	-0.0004532854
205	0xbcf8b442	-0.030359391
206	0x3c6145e9	0.013749578
207	0x3c56baba	0.0131060425
208	0x3dbe317d	0.09286783
209	0xbdbf09f6	-0.09328072
210	0xbdb3c413	-0.087776326
211	0xbcf55a3f	-0.02995026
212	0xbc2c5828	-0.010519065
213	0x3b8071f2	0.0039198333
214	0xbd173cdf	-0.036923286
215	0xbc81622e	-0.015793886
216	0xbd204d12	-0.039136
217	0x3d673601	0.056447987
218	0x3ca99172	0.020699237
219	0x3c42a51f	0.011880188
220	0x3d84a5cf	0.06476938
221	0xbd443550	-0.047902405
222	0x3a1d7cc7	0.0006007668
223	0xbd1b79e6	-0.03795805
224	0xba166df0	-0.0005738428
225	0xbd4ae2df	-0.049532767
226	0xbd395665	-0.045248408
227	0xbda00b8a	-0.07814701
228	0xbafa608c	-0.001910226
229	0xbd3b16b2	-0.04567594
230	0xbd1f195f	-0.038842555
231	0xbbeed829	-0.007288952
232	0xbbfad464	-0.0076547135
233	0x3d998f8e	0.07498084
234	0x3dab7199	0.083712764
235	0x3d8f337c	0.06992242
236	0xbd4a4408	-0.049381286
237	0x3dcf39db	0.10118457
238	0x3d048e2e	0.032362156
239	0x3de58839	0.11207623
240	0x3dec56da	0.11540003
241	0x3ce0ca7e	0.027440306
242	0x3dc6f9b4	0.09715596
243	0xbd844fb2	-0.06460513
244	0xbdb6b240	-0.08920717
245	0x3d1ee462	0.03879202
246	0x3d367b09	0.04455093
247	0xbcea1f72	-0.028579447
248	0x3dc687a8	0.09693843
249	0xbbbe3724	-0.005804913
250	0x3dabec8c	0.08394727
251	0x3c0e5a89	0.008688577
252	0x3d0e42a3	0.03473152
253	0x3cd56e7f	0.026053665
254	0x3d8976be	0.067121014
255	0xbdc305e8	-0.09522611

localization.3.bias f4 [10]
0	0xbc2e84b8	-0.01065176
1	0xbd31cf27	-0.043410446
2	0x3a836d3e	0.0010027064
3	0x3daf7a9a	0.08568306
4	0xbd6e22ab	-0.05813853
5	0x3d9b8990	0.07594597
6	0x3ba07330	0.004896544
7	0x3d9efab8	0.077626646
8	0xbd15d130	-0.03657645
9	0x3d39bfa3	0.045348775
