models/try_checkpoint.pth (torch, 373701 bytes, 32 tensors)

weight f4 [16, 1, 5, 5]
0.089814566 0.105865076 0.0025292397 0.18982203 -0.012450576 0.0400342 -0.18406127 0.11832266
0.026426649 -0.18511902 0.13909863 0.1541262 -0.13685063 0.00042626858 0.05343914 0.070251584
0.1436954 0.18013047 -0.18232982 -0.14455211 0.17041229 0.18530786 -0.14447156 0.17603688
-0.16773649 -0.16705985 -0.008061337 -0.18035741 -0.0751292 0.04068003 -0.1401033 0.19619992
-0.09942903 -0.08527684 -0.101075225 0.0014343978 0.030147552 0.10324752 -0.020092273 -0.17445242
0.17970406 0.049794793 -0.0025980473 -0.17168546 -0.048346784 0.10323117 0.12046065 -0.045749832
0.12380681 -0.04375119 -0.16501795 0.06718709 0.13052292 0.09451323 0.044346835 0.026347017
0.17370589 0.15313785 -0.040528845 0.14276183 -0.08043938 0.040498186 -0.043725587 -0.009372592
-0.16740108 -0.09503689 -0.1190377 -0.13841963 -0.15205275 -0.15643735 -0.076305084 -0.011642552
-0.11375578 -0.025381422 -0.16278604 0.15786064 0.0642392 0.042069223 0.12551022 0.09631653
0.023990227 -0.16739653 -0.002675414 -0.19714299 -0.035548974 -0.19883709 -0.039660525 0.18329899
-0.08089266 -0.15724455 0.0033307076 -0.05983093 0.15530074 0.09909697 -0.05566914 -0.18889001
0.12098124 -0.17236757 0.17984176 0.069244675 0.0037789107 -0.06996751 -0.031228615 0.06802833
-0.05024724 -0.15361837 0.13480857 -0.17919807 0.10109072 0.0053945305 -0.038482428 0.13688563
-0.004090524 -0.15991683 0.09831536 -0.1766785 0.15391114 -0.0915426 0.09310718 -0.07327423
0.015661169 -0.009517265 -0.07933011 0.19820563 -0.18156879 -0.14595364 0.19098626 -0.051411178
0.14135063 0.13679257 0.1550756 -0.023117876 -0.1339995 -0.17656136 0.1458021 -0.0039372207
0.14678526 0.0832808 -0.027834749 0.0069396496 -0.055505443 -0.037236333 0.16340493 -0.1994394
0.11881297 -0.1461912 -0.079217434 0.11054482 -0.18056309 -0.009680772 0.13640395 -0.020925784
0.11900284 -0.07125764 0.070162706 0.082140684 -0.1951714 0.16542199 -0.03978019 0.06530237
-9.052754e-05 -0.19167276 0.15458022 0.057558846 -0.109244466 -0.12098553 -0.013233877 -0.010015058
0.14360264 -0.11811447 -0.18614326 0.16268118 -0.09858837 0.1771091 8.323193e-05 -0.10050716
0.057166602 -0.02404368 -0.105966546 -0.029764056 0.1836442 -0.027396513 -0.053970505 0.029865671
-0.14164396 0.1546598 -0.09160938 0.14567088 0.1366043 -0.036395956 0.1993808 -0.03390317
-0.054755617 0.16947536 -0.143206 0.048639297 0.062301256 0.10690253 -0.045883298 0.018884731
-0.17282669 0.08675289 -0.104544334 0.043546107 0.012283611 -0.17499888 0.16694036 -0.03137908
-0.01744473 0.14938903 -0.09368761 0.018219471 -0.12129209 0.16776001 -0.18591444 -0.03937285
0.023397446 -0.09265564 -0.16412997 -0.14233501 0.122451834 -0.0968067 0.1230089 -0.019088054
0.027168417 -0.15173529 -0.14230601 0.18151465 -0.17927122 0.1266803 0.12531398 0.06720572
-0.11254647 0.068609096 -0.15399264 0.02616675 0.03860376 0.1389805 -0.15605874 0.10259731
0.052162506 0.18184789 0.05528548 -0.0054785013 -0.08481417 -0.15495332 0.05303514 0.0578048
-0.010185051 0.0952461 0.18111861 -0.001083088 -0.15146092 -0.031591702 0.06887593 0.113519385
00000000: b3f0 b73d cacf d83d 9ac1 253b b560 423e
00000010: 80fd 4bbc e7fa 233d 8f7a 3cbe 2753 f23d
00000020: b37c d83c d78f 3dbe df6f 0e3e 42d3 1d3e
00000030: 9222 0cbe cd7c df39 00e3 5a3d 10e0 8f3d
00000040: e324 133e 1f74 383e abb4 3abe 7805 14be
00000050: 8f80 2e3e 58c1 3d3e 5af0 13be 0343 343e
00000060: 1dc3 2bbe bd11 2bbe b313 04bc 9daf 38be
00000070: 57dd 99bd 1aa0 263d 3d77 0fbe a2e8 483e
00000080: 73a1 cbbd a0a5 aebd 8700 cfbd 6702 bc3a
00000090: 00f8 f63c 7073 d33d 8d98 a4bc a8a3 32be
000000a0: 5704 383e a0f5 4b3d 0044 2abb 50ce 2fbe
000000b0: 4707 46bd dd6a d33d 13b4 f63d 2d64 3bbd
000000c0: 6d8e fd3d 7334 33bd 77fa 28be 6399 893d
000000d0: cda7 053e 2790 c13d 07a5 353d b3d5 d73c
000000e0: f5df 313e 2bd0 1c3e 9301 26bd 2830 123e
000000f0: 67bd a4bd 6de1 253d 9a19 33bd 808f 19bc
00000100: 306b 2bbe b3a2 c2bd 0aca f3bd e0bd 0dbe
00000110: b7b3 1bbe 1d31 20be d745 9cbd 67c0 3ebc
00000120: caf8 e8bd b3ec cfbc 62b1 26be 38a6 213e
00000130: d78f 833d c750 2c3d c085 003e 9a41 c53d
00000140: 2787 c43c ff69 2bbe 0056 2fbb dadf 49be
00000150: cd9b 11bd f39b 4bbe 1373 22bd bbb2 3b3e
00000160: 0dab a5bd b704 21be 0048 5a3b 4711 75bd
00000170: 2807 1f3e 5af3 ca3d 5305 64bd 626c 41be
00000180: 03c5 f73d 2081 30be 7028 383e 27d0 8d3d
00000190: 9aa7 773b 204b 8fbd 27d3 ffbc 7052 8b3d
000001a0: 0dd0 4dbd 224e 1dbe 420b 0a3e b37f 37be
000001b0: a708 cf3d 9ac4 b03b c09f 1dbd bf2b 0c3e
000001c0: cd09 86bb 3dc1 23be 9059 c93d 35eb 34be
000001d0: e29a 1d3e b07a bbbd faae be3d cd10 96bd
000001e0: da4b 803c 4dee 1bbc d377 a2bd 6bf6 4a3e
000001f0: 2bed 39be df74 15be e791 433e 8794 52bd
00000200: 38be 103e 5a13 0c3e 23cc 1e3e b361 bdbc
00000210: 2a37 09be 80cc 34be 254d 153e cd03 81bb
00000220: e04e 163e 208f aa3d b305 e4bc 0066 e33b
00000230: ad59 63bd 2085 18bd 9f53 273e d839 4cbe
00000240: 3754 f33d 25b3 15be c03c a2bd 5365 e23d
00000250: 88e5 38be 1a9c 1ebc 7aad 0b3e 8d6c abbc
00000260: c3b7 f33d 87ef 91bd 77b1 8f3d 6039 a83d
00000270: 03db 47be 6264 293e 8df0 22bd 40bd 853d
00000280: 9ad9 bdb8 dd45 44be 474a 1e3e d3c2 6b3d
00000290: 90bb dfbd 43c7 f7bd e7d2 58bc 3316 24bc
000002a0: 920c 133e 00e6 f1bd 579c 3ebe e595 263e
000002b0: b3e8 c9bd 175c 353e cd8c ae38 b3d6 cdbd
000002c0: 8727 6a3d 40f7 c4bc fd04 d9bd c0d3 f3bc
000002d0: 3a0d 3c3e a76e e0bc 2d10 5dbd daa8 f43c
000002e0: 1d0b 11be 235f 1e3e b39d bbbd bf2a 153e
000002f0: ffe1 0b3e ed13 15bd 7b2a 4c3e 0dde 0abd
00000300: 6d47 60bd f38a 2d3e 98a4 12be 003a 473d
00000310: 9a2f 7f3d b7ef da3d 20f0 3bbd 27b4 9a3c
00000320: 7bf9 30be 80ab b13d 571b d6bd 675d 323d
00000330: 3341 493c e832 33be 6af2 2a3e 5a87 00bd
00000340: 40e8 8ebc 70f9 183e 4adf bfbd 0041 953c
00000350: fd67 f8bd 48c9 2b3e 5b60 3ebe 6d45 21bd
00000360: 00ac bf3c 3dc2 bdbd b011 28be 45c0 11be
00000370: 07c8 fa3d 9742 c6bd 17ec fb3d 8d5e 9cbc
00000380: 4d90 de3c 7f60 1bbe abb8 11be fade 393e
00000390: e092 37be 7bb8 013e 4f52 003e 27a3 893d
000003a0: c37e e6bd ed82 8c3d 3fb0 1dbe a75b d63c
000003b0: fa1e 1e3d e750 0e3e ddcd 1fbe 8a1e d23d
000003c0: 5aa8 553d 5536 3a3e 0773 623d 0085 b3bb
000003d0: 0db3 adbd 15ac 1ebe 603b 593d bac4 6c3d
000003e0: 33df 26bc 6310 c33d 2877 393e 67f6 8dba
000003f0: 9218 1bbe 4d66 01bd d30e 8d3d da7c e83d

bias f4 [16]
0.14344239 -0.08035538 0.0061917542 -0.09278007 -0.08958127 0.18684529 -0.062345576 0.19559577
0.15781637 -0.15907966 0.19412331 0.049009945 0.18991219 0.15361147 0.033558797 -0.1525275
00000000: 90e2 123e 5d91 a4bd 33e4 ca3b 7a03 bebd
00000010: 6376 b7bd 5f54 3f3e 135e 7fbd 424a 483e
00000020: 9d9a 213e c7e5 22be 43c8 463e a7be 483d
00000030: 5778 423e 534c 1d3e f374 093d 2b30 1cbe

weight f4 [32, 16, 5, 5]
0.0465523 -0.04603023 0.035140574 0.041491564 0.013227302 -0.02071513 0.04415483 -0.044675924
0.011811608 0.023768729 -0.018863415 -0.016962921 -0.047340948 -0.024851425 -0.03992605 0.00072073936
-0.014641005 -0.046611696 -0.012118811 -0.048155844 -0.049622834 -0.038787283 0.03883759 0.03144926
-0.017987324 0.0011173248 -0.030046416 -0.029844696 0.045819875 0.0032571852 -0.04770987 0.0036497356
-0.03250415 0.0478229 -0.004306942 0.02084564 -0.028751094 0.038692486 -0.005527377 0.0046426416
-0.0006822169 -0.01980297 0.043423153 0.033503365 0.01833796 0.016850108 -0.041897725 -0.047896367
0.040943947 0.02934779 -0.03745563 -0.04807658 0.015451002 0.04453674 -0.038128532 0.01789161
0.02148726 0.02730853 -0.04941104 0.040045526 0.02455905 -0.04846082 -0.04837769 0.048273504
-0.022359032 -0.03970438 0.024784489 -0.018576546 0.033228423 -0.04794399 0.005925709 -0.019184405
-0.02649569 0.034944665 0.019176496 -0.015846116 -0.026651585 -0.046419512 -0.012156421 0.017379671
-0.00860957 -0.04990625 0.045176663 -0.011206555 0.026705546 0.034886505 0.039456904 -0.03108496
-0.009536427 0.010347265 0.03590369 -0.046429355 -0.021556629 0.005410999 -0.016486704 -0.019768579
-0.030579096 0.047054023 0.040104497 0.046890505 -0.006408608 0.0448586 0.044983428 -0.032297403
0.0050889077 0.0140734315 -0.041604172 -0.041233 -0.04153023 0.020506734 0.046749115 -0.01883815
-0.013668383 -0.04356409 0.01606499 0.040624775 0.04605779 -0.022896761 0.014545262 0.048276603
-0.011503912 -0.035554994 0.030904008 0.018508106 -0.04536398 -0.036469337 0.0054870187 -0.02671594
0.028223747 -0.04981506 -0.03118053 0.033145517 0.010325742 -0.0147065045 0.049828626 0.039016455
-0.035587974 -0.028840257 0.033673685 -0.016291762 0.023201013 -0.026345182 -0.021276731 0.017544031
-0.0013347864 0.04895815 0.006575209 0.0058974265 -0.022902256 -0.024099428 0.033690643 0.0047259866
0.028529001 0.017810076 -0.018717652 0.033080585 0.034814864 -0.00599128 0.026159793 -0.012104452
0.032021035 -0.03275981 0.034256488 0.038330626 -0.024991482 -0.0073961853 -0.04228219 0.025207102
-0.03495465 -0.034548003 -0.042209238 -0.046482164 -0.008112276 0.043944236 -0.04777022 0.031176347
0.04147404 -0.047070652 -0.03529783 0.028992755 0.0074608447 0.04633915 0.036724705 -0.04799628
-0.049095333 -0.0063806176 0.039412744 -0.04821337 0.010225892 0.021147544 -0.029744804 0.008000356
0.026487052 -0.00985933 -0.020749206 0.03005436 0.004141945 0.03711475 0.03667573 0.031987436
0.049079265 0.048692822 -0.022600431 0.0408111 0.044681337 -5.3209067e-05 0.018181283 0.006555456
0.0049621523 -0.013021583 0.029587168 0.00981617 -0.010826016 -0.034529604 0.03746263 0.043478675
0.039476316 0.005621904 -0.035307802 -0.03143245 -0.030202508 0.023820657 0.022025038 0.0062794685
-0.014525908 -0.0061956584 0.011446202 -0.010842371 -0.02937497 0.040629517 0.035507794 0.029796708
-0.033975143 0.047120035 0.0075733187 -0.020823592 0.019407088 -0.037116732 0.03514543 0.017317666
0.0414374 0.01956038 -0.039922245 -0.035167437 -0.02749871 0.025450116 -0.0028670311 0.0036705553
0.01345073 0.025631709 -0.04307116 -0.010229004 -0.0035574497 0.04347923 0.022918278 0.0057180705
00000000: a0ad 3e3d 328a 3cbd 90ef 0f3d 0ff3 293d
00000010: 53b7 583c c7b2 a9bc b2db 343d 1afe 36bd
00000020: 7a85 413c a3b6 c23c 7387 9abc d3f5 8abc
00000030: 95e8 41bd 3795 cbbc 7f89 23bd 00f0 3c3a
00000040: d3e0 6fbc e8eb 3ebd fa8d 46bc 103f 45bd
00000050: 5041 4bbd 6adf 1ebd 2a14 1f3d f0d0 003d
00000060: 275a 93bc 3373 923a e723 f6bc dd7c f4bc
00000070: 9fad 3b3d 8076 553b 6d6b 43bd 6730 6f3b
00000080: 1223 05bd f2e1 433d 4021 8dbb 7ac4 aa3c
00000090: 6a87 ebbc 037c 1e3d 001f b5bb 4d21 983b
000000a0: cdd6 32ba d739 a2bc 7adc 313d d33a 093d
000000b0: 7d39 963c 3d09 8a3c f39c 2bbd fb2e 44bd
000000c0: d7b4 273d c76a f03c 136b 19bd f3eb 44bd
000000d0: 3326 7d3c 286c 363d aa2c 1cbd 6d91 923c
000000e0: 0d06 b03c 23b6 df3c 3b63 4abd c706 243d
000000f0: 1030 c93c da7e 46bd af27 46bd 70ba 453d
00000100: 4a2a b7bc 0fa1 22bd d708 cb3c d72d 98bc
00000110: 871a 083d eb60 44bd 732c c23b 9d28 9dbc
00000120: 7d0d d9bc 2322 0f3d 0718 9d3c b7cf 81bc
00000130: 6d54 dabc 6322 3ebd ba2b 47bc d05f 8e3c
00000140: 270f 0dbc 7f6a 4cbd 2a0b 393d b39b 37bc
00000150: 97c5 da3c 27e5 0e3d 909d 213d e3a5 febc
00000160: ad3e 1cbc 9387 293c bf0f 133d b52c 3ebd
00000170: 8797 b0bc c04e b13b 200f 87bc b7f1 a1bc
00000180: 0381 fabc b8bb 403d 9d44 243d 4210 403d
00000190: 4dff d1bb a7bd 373d 8b40 383d 484a 04bd
000001a0: dac0 a63b 4094 663c 2369 2abd efe3 28bd
000001b0: 9a1b 2abd bdfd a73c 007c 3f3d 7752 9abc
000001c0: 5af1 5fbc 4270 32bd ba9a 833c 2a66 263d
000001d0: 18a7 3c3d fd91 bbbc 404f 6e3c b0bd 453d
000001e0: e77a 3cbc 1da2 11bd 672a fd3c 509e 973c
000001f0: 95cf 39bd df60 15bd 73cc b33b 63db dabc
00000200: 7d35 e73c e00a 4cbd 506e ffbc 98c3 073d
00000210: 4d2d 293c 8df3 70bc 1a19 4c3d b8cf 1f3d
00000220: b2c4 11bd 6742 ecbc 6bed 093d 4d76 85bc
00000230: 0d10 be3c dad1 d7bc 8a4c aebc 80b8 8f3c
00000240: 00f4 aeba 5788 483d da74 d73b 333f c13b
00000250: 839d bbbc 2a6c c5bc 33ff 093d 73dc 9a3b
00000260: a7b5 e93c 70e6 913c c355 99bc 827f 073d
00000270: 089a 0e3d 8052 c4bb 104d d63c c051 46bc
00000280: 7d28 033d 272f 06bd 8850 0c3d 9300 1d3d
00000290: f0ba ccbc b35b f2bb 1730 2dbd 207f ce3c
000002a0: 9b2c 0fbd 3582 0dbd 98e3 2cbd 1564 3ebd
000002b0: 5ae9 04bc dffe 333d b5aa 43bd 8a65 ff3c
000002c0: afe0 293d 28cd 40bd 7594 10bd 3782 ed3c
000002d0: 1a7a f43b 1fce 3d3d a56c 163d bf97 44bd
000002e0: 3018 49bd 8014 d1bb 426f 213d 627b 45bd
000002f0: 808a 273c 9d3d ad3c 60ab f3bc ed13 033c
00000300: 60fb d83c 0789 21bc 3dfa a9bc 9034 f63c
00000310: 27b9 873b a305 183d 4a39 163d 4205 033d
00000320: 5707 493d 2072 473d 8a24 b9bc 8a29 273d
00000330: c703 373d cd2c 5fb8 eaf0 943c 27cf d63b
00000340: 8d99 a23b 7a58 55bc ca60 f23c 00d4 203c
00000350: 9a5f 31bc ea6e 0dbd 6a72 193d b216 323d
00000360: ebb1 213d f337 b83b ea9e 10bd 50bf 00bd
00000370: 406b f7bc 8a23 c33c da6d b43c 00c4 cd3b
00000380: 13fe 6dbc f304 cbbb da88 3b3c 33a4 31bc
00000390: c7a3 f0bc 236b 263d 9f70 113d 3a18 f43c
000003a0: 8529 0bbd f000 413d 9a29 f83b 3d96 aabc
000003b0: 9dfb 9e3c b707 18bd a8f4 0f3d c7dd 8d3c
000003c0: 43ba 293d 173d a03c 8285 23bd bb0b 10bd
000003d0: fa44 e1bc c37c d03c cde4 3bbb b38d 703b
000003e0: 7360 5c3c 97f9 d13c 626b 30bd 8d97 27bc
000003f0: 1a24 69bb 4717 323d 1dbf bb3c a75e bb3b

bias f4 [32]
0.010686958 -0.043804716 -0.013755339 -0.036596775 -0.036369033 -0.02498039 0.017184883 -0.033429246
0.0057985783 -0.010759694 0.02418456 0.027771806 0.002024889 -0.00987041 -0.017997896 0.03354766
-0.011153042 -0.012491184 0.0100501245 -0.0495264 -0.0005289197 0.034148175 -0.048399955 0.042408865
0.039831694 -0.024433702 -0.0036052584 -0.04256613 -0.017429847 0.036933877 0.0027337552 0.045046087
00000000: 5a18 2f3c 936c 33bd 135e 61bc 80e6 15bd
00000010: b2f7 14bd ada3 ccbc 50c7 8c3c 1bed 08bd
00000020: 0002 be3b 6d49 30bc b31e c63c b381 e33c
00000030: 00b4 043b 80b7 21bc 5370 93bc 4569 093d
00000040: 40bb 36bc d3a7 4cbc 47a9 243c 32dc 4abd
00000050: 33a7 0aba f5de 0b3d 083f 46bd ebb4 2d3d
00000060: 8f26 233d 3029 c8bc 3346 6cbb d359 2ebd
00000070: 0ac9 8ebc fa47 173d cd28 333b 3f82 383d

weight f4 [50, 512]
0.03452263 -0.008775079 0.013703357 -0.020170322 -0.027834553 -0.023829706 0.007423667 0.0025392105
0.026990563 -0.021105113 -0.03130784 -0.019116087 0.0074864654 0.018358039 0.0033184004 0.02266493
0.013571385 0.02653625 -0.026465539 -0.0033775326 0.03439325 0.038678996 0.032942545 -0.039999127
-0.022604736 0.008126365 0.0013443317 -0.011803309 -0.0045551364 0.024290714 -0.018069196 0.021125281
-0.030175505 -0.008869446 -0.007055967 -0.028130319 -0.018527865 -0.022419052 -0.010773045 -0.008534283
0.027719008 0.0032742254 -0.0010538029 -0.024854286 -0.023180244 0.023053324 0.03590482 -0.035745285
-0.006997304 0.017677953 -0.03844381 -0.017260877 -0.0013608006 -0.0013733866 -0.035358038 -0.035316955
-0.040102653 0.011668175 0.043700706 0.03673081 0.038800657 0.03917901 0.035258546 0.00015455775
-0.032860965 -0.03313502 -0.0019968965 0.03983145 -0.02046143 0.025149714 -0.0045684706 0.011029545
-0.013920719 -0.0042622527 -0.02301898 -0.039432313 0.0048747202 0.028614443 0.016752118 0.005246092
-0.0258323 0.025523447 0.019781807 -0.0024934865 0.015345404 -0.039899 -0.002636375 -0.03220625
-0.0038594974 -0.041778367 -0.04353283 0.026823698 -0.04398881 0.017346298 -0.04365025 0.01649763
0.041386165 -0.029604362 -0.02231577 0.0077541927 0.022149775 -0.020256855 0.009628716 -0.024243562
-0.004143262 -0.0340072 -0.0023846002 -0.022571275 0.0080744615 0.028225396 -0.016172435 -0.023594711
-0.013022238 -0.023360744 -0.026592247 -0.007990705 0.011192627 -0.024941478 0.024859997 -0.008013554
-0.03145534 -0.013703774 -0.0384153 -0.00824867 0.0029976207 0.03670685 -0.0086190095 0.016546315
-0.02296734 -0.015511942 -0.015892038 -0.031015497 -0.01541129 0.017981453 -0.0149874985 0.004878345
-0.0057378192 0.008583543 -0.002833364 0.037949428 -0.036644623 -0.025822852 0.0028804683 -0.028832274
0.043263253 -0.021318603 -0.009071045 0.007354941 -0.030646943 -0.01578637 -0.032675814 0.006979681
-0.041738465 -0.03225335 -0.02594964 -0.040552575 -0.015159268 0.0069475444 0.0014060083 0.037715476
-0.0023510144 -0.022900991 -0.011664298 0.028004931 0.024703084 -0.020382795 -0.010473486 0.036876712
-0.03493559 -0.03732152 -0.024363924 0.015559541 -0.038724307 0.019812975 0.00058273284 -0.03086647
0.037867114 -0.025727496 0.01398169 0.021848157 -0.024672247 -0.02490894 -0.012262715 0.0006245109
0.01956961 0.030817268 -0.039666373 -0.008936455 -0.021034485 -0.041304164 -0.027668014 -0.044001073
0.016195774 0.008757224 -0.004893149 0.0057905135 0.0051893936 0.038461596 -0.015472593 -0.024774708
-0.012239777 -0.012780779 0.010276613 0.02101082 -0.039448563 -0.04006112 -0.03630934 -0.044161253
-0.03344671 -0.0049812095 -0.026359128 0.022079717 -0.028033903 0.023011694 -0.006059547 0.031200621
-0.022751395 0.022219392 -0.0066252262 0.02385293 -0.026564078 -0.006509823 -0.021466311 0.0070080515
-0.036476053 -0.03877933 -0.03026207 0.04406261 -0.01833295 0.036487926 -0.004387197 -0.022581737
-0.017668402 -0.004303251 -0.023858098 0.0140932 -0.02284239 0.0311895 -0.0003203898 0.034815684
0.023820655 0.032841045 -0.03650036 0.019380474 -0.012775621 0.0064467713 -0.0101881735 0.026074879
-0.025611239 -0.01964062 -0.033694886 0.029307585 0.012285427 0.035167094 -0.0154639 -0.029994104
00000000: 9a67 0d3d 59c5 0fbc 0c84 603c 3b3c a5bc
00000010: 4a05 e4bc 8436 c3bc 3b42 f33b e268 263b
00000020: 501b dd3c a1e4 acbc a63c 00bd 5799 9cbc
00000030: 0651 f53b 9963 963c 8579 593b ceab b93c
00000040: 845a 5e3c 8d62 d93c 42ce d8bc 9859 5dbb
00000050: f0df 0c3d de6d 1e3d c3ee 063d 20d6 23bd
00000060: 912d b9bc 7224 053c 4934 b03a ab62 41bc
00000070: 4143 95bb 52fd c63c da05 94bc ed0e ad3c
00000080: 9f32 f7bc 2751 11bc be35 e7bb 8e71 e6bc
00000090: c0c7 97bc 29a8 b7bc 6d81 30bc 61d3 0bbc
000000a0: f912 e33c 6394 563b c21f 8aba 379b cbbc
000000b0: 7fe4 bdbc 53da bc3c ef10 133d a669 12bd
000000c0: a449 e5bb 5bd1 903c 4277 1dbd af66 8dbc
000000d0: e45c b2ba 3503 b4ba 97d3 10bd 83a8 10bd
000000e0: ae42 24bd e02b 3f3c 83ff 323d 0c73 163d
000000f0: 70ed 1e3d 2b7a 203d 446b 103d c810 2239
00000100: 3899 06bd 96b8 07bd 5dde 02bb 4d26 233d
00000110: bb9e a7bc c606 ce3c 1cb3 95bb 44b5 343c
00000120: ba13 64bc 5eaa 8bbb 4d92 bcbc c783 21bd
00000130: 1ebc 9f3b d668 ea3c bd3b 893c 69e7 ab3b
00000140: 429e d3bc 8c16 d13c 750d a23c c369 23bb
00000150: 4a6b 7b3c 226d 23bd 08c7 2cbb b3ea 03bd
00000160: 9fef 7cbb cb1f 2bbd 7b4f 32bd 5fbd db3c
00000170: 9c2d 34bd d319 8e3c 9bca 32bd 0a26 873c
00000180: 8a84 293d d984 f2bc 90cf b6bc e216 fe3b
00000190: 7273 b53c b4f1 a5bc c3c1 1d3c 6f9a c6bc
000001a0: 33c4 87bb 224b 0bbd f446 1cbb 65e7 b8bc
000001b0: bf4a 043c f238 e73c 0e7c 84bc b249 c1bc
000001c0: 3a5b 55bc 085f bfbc fcd7 d9bc 72eb 02bc
000001d0: 4861 373c 1252 ccbc 31a7 cb3c 484b 03bc
000001e0: 51d7 00bd cb85 60bc 5d59 1dbd 6e25 07bc
000001f0: bb73 443b ec59 163d bf36 0dbc 238c 873c
00000200: 0126 bcbc cd25 7ebc 0530 82bc 3614 febc
00000210: a37f 7cbc d74d 933c 208e 75bc 86da 9f3b
00000220: 5104 bcbb fda1 0c3c f6af 39bb dc70 1b3d
00000230: ac18 16bd 728a d3bc 3dc6 3c3b a931 ecbc
00000240: cf34 313d 5aa4 aebc b89e 14bc b801 f13b
00000250: 4c0f fbbc 6b52 81bc 13d7 05bd cfb5 e43b
00000260: f4f5 2abd 171c 04bd 5794 d4bc 751a 26bd
00000270: 945e 78bc 3aa8 e33b cf49 b83a 8b7b 1a3d
00000280: 7a13 1abb dc9a bbbc 9d1b 3fbc 996a e53c
00000290: 1f5e ca3c d2f9 a6bc fc98 2bbc 090c 173d
000002a0: 9f18 0fbd 73de 18bd da96 c7bc 72ed 7e3c
000002b0: 619d 1ebd d24e a23c 8ac2 183a aedb fcbc
000002c0: 8c1a 1b3d 78c2 d2bc 7513 653c e8fa b23c
000002d0: 741d cabc d50d ccbc 8ee9 48bc 38b6 233a
000002e0: 7250 a03c 7f74 fc3c 3579 22bd 356a 12bc
000002f0: 8350 acbc 8e2e 29bd 08a8 e2bc 783a 34bd
00000300: 00ad 843c 767a 0f3c b556 a0bb 59be bd3b
00000310: ca0b aa3b e889 1d3d c280 7dbc 54f4 cabc
00000320: 5889 48bc 7966 51bc 3d5f 283c e21e ac3c
00000330: d194 21bd 2117 24bd 1ab9 14bd 6ee2 34bd
00000340: 6bff 08bd 6a39 a3bb 19ef d7bc 86e0 b43c
00000350: 5ba7 e5bc 0583 bc3c 2a8f c6bb 7298 ff3c
00000360: 2261 babc 7105 b63c 6d18 d9bb 3867 c33c
00000370: e99c d9bc 5a50 d5bb 1eda afbc cca3 e53b
00000380: ea67 15bd 13d7 1ebd 29e8 f7bc ff7a 343d
00000390: fc2e 96bc 5d74 153d 7ac2 8fbb 56fd b8bc
000003a0: 53bd 90bc 4902 8dbb 0f72 c3bc 2ae7 663c
000003b0: f71f bbbc 1f81 ff3c fef9 a7b9 e49a 0e3d
000003c0: 8923 c33c 5584 063d 6781 15bd cdc3 9e3c
000003d0: d750 51bc 703f d33b 4cec 26bc fc9a d53c
000003e0: a9ce d1bc 5ee5 a0bc a603 0abd 7616 f03c
000003f0: d148 493c 5f0b 103d 4c5c 7dbc 32b6 f5bc

bias f4 [50]
-0.033631526 -0.034884684 -0.042804345 -0.0042132675 0.023089698 -0.029600516 -0.03264748 -0.02935448
-0.013969167 -0.042024262 -0.041801363 -0.008756893 0.022444783 -0.013274872 0.017254414 -0.0097162025
-0.037685424 -0.040522102 0.02010951 -0.017915623 0.028740983 0.037136253 -0.005360789 0.027437404
0.012725324 -0.008662868 0.042474445 0.030576473 0.02662743 -0.03681414 -0.011229838 0.03729251
-0.018228296 -0.015669798 -0.0014771838 -0.027717706 -0.009193972 0.03209593 -0.02201303 -0.0060524084
-0.030105457 -0.00083409663 -0.038842462 0.03903425 -0.0028776391 0.009477957 -0.04294853 -0.012517809
0.0031849847 -0.0034740434
00000000: 36c1 09bd 3ee3 0ebd 9c53 2fbd 730f 8abb
00000010: 9b26 bd3c c87c f2bc 5db9 05bd ce78 f0bc
00000020: efde 64bc a221 2cbd e837 2bbd 1279 0fbc
00000030: 1fde b73c d97e 59bc 2159 8d3c b530 1fbc
00000040: 085c 1abd 81fa 25bd b3bc a43c c9c3 92bc
00000050: 3672 eb3c 2f1c 183d 8fa9 afbb 68c4 e03c
00000060: e17d 503c b4ee 0dbc aff9 2d3d 837b fa3c
00000070: c521 da3c 6cca 16bd 5bfd 37bc 08c0 183d
00000080: 8253 95bc f35d 80bc 109e c1ba 3e10 e3bc
00000090: 50a2 16bc 0677 033d ab54 b4bc 4853 c6bb
000000a0: b89f f6bc 47a7 5aba 4619 1fbd 61e2 1f3d
000000b0: c696 3cbb 6f49 1b3c ccea 2fbd 7f17 4dbc
000000c0: 2dbb 503b c7ac 63bb

weight f4 [10, 50]
0.1143656 0.048756793 0.021250458 0.0046984805 0.047653183 -0.12417598 -0.013800329 0.061198473
-0.016571872 0.0015918696 0.021634603 0.059247043 0.103967175 0.00066910655 -0.04433065 -0.004147503
-0.005921717 -0.022915343 -0.07716943 0.12409192 -0.10588801 0.12170778 0.071187444 0.003728125
0.112205826 0.093300514 0.027926048 0.028216995 0.08788161 0.029702857 -0.075441055 -0.12525806
-0.11222696 -0.06334611 0.09661172 -0.09399775 -0.03263623 -0.089045115 0.04670697 -0.13000983
0.1270777 -0.01009884 0.010203078 -0.008090694 0.097365595 0.024955403 0.14088011 -0.0015201526
0.09888953 0.03463232 -0.12389239 -0.13459805 -0.12352686 0.04439176 0.13855036 0.03864517
-0.1311288 -0.043201752 0.040373936 -0.122953996 0.14056326 0.10506979 0.0012045233 0.046168316
0.07231295 -0.054611918 0.027178768 -0.047491882 0.13258395 -0.043931264 -0.018115727 -0.04968473
-0.12861039 -0.08715437 -0.038581885 -0.10532852 -0.11024925 -0.07562182 0.028321873 0.07680036
0.07813038 0.10068399 -0.08508864 -0.1176237 0.13415968 0.09349825 -0.09020481 -0.019456908
0.0903751 -0.09234448 -0.023820674 -0.09825203 -0.12375334 0.12507392 -0.08351456 0.023918826
-0.112400204 0.032614987 0.12745474 -0.13028292 0.09227303 -0.02118852 0.09709313 0.09059595
-0.104394056 0.06335583 0.08449004 0.13008048 -0.14134862 0.1407601 -0.100956574 0.119284995
-0.025251122 0.12389166 -0.124564126 -0.04730581 0.12327005 0.06151601 -0.037670247 -0.046587273
0.1302358 0.07138338 0.027172918 -0.03727938 -0.10255366 -0.09563675 -0.073999606 0.12994269
-0.011225442 0.018728746 -0.0055329544 0.004476653 0.026386222 -0.08563127 -0.111929625 -0.11810345
-0.07613474 0.052353 0.0010689115 -0.001845206 -0.07336411 -0.016920444 -0.10949418 0.10954902
0.08889438 -0.005529397 0.05585053 -0.09429641 0.015189607 -0.05690388 -0.046267413 -0.055629425
0.1331188 -0.13772596 -0.048239633 0.087009154 -0.03285804 0.06323562 0.048764158 -0.13389313
0.07246224 -0.053324025 -0.106653266 0.018766643 -0.10296865 0.06126994 -0.020190196 -0.045761313
-0.05237894 -0.077090956 0.10775935 0.057590924 0.03147741 0.11124435 0.08705456 0.11341614
-0.025741661 -0.104964 -0.1198938 -0.08893781 0.11909611 -0.11236239 0.038325094 0.0624016
0.03939129 0.12332945 0.03398513 -0.11822014 -0.053797152 -0.09136127 -0.014371637 -0.10361557
0.057543904 0.02908023 0.06456446 -0.06325848 0.017513752 0.06772275 0.118100196 -0.018378286
0.005197499 -0.030102005 0.11986396 -0.12445421 -0.09740085 -0.056868576 -0.024211023 -0.04175205
-0.035887722 0.10540417 0.053073995 -0.09828714 0.08027286 0.10659809 -0.07151334 -0.084502816
-0.10937366 0.036875863 0.07440799 0.103944145 0.045650247 0.13523065 -0.10329422 0.040821787
0.07973542 0.11096586 0.1387307 -0.05361 0.11099043 -0.1347604 -0.086711176 0.064324036
0.07605076 -0.12460737 -0.045168474 0.014232873 0.011459273 0.039033428 -0.06281484 0.10784219
-0.027857838 0.0396309 0.041636672 0.06631965 -0.086757 -0.023411699 -0.003640392 -0.08209836
-0.012164441 -0.111289516 0.03653638 -0.09954757 0.05085793 0.108777545 -0.11894745 0.13060813
00000000: 8338 ea3d 34b5 473d 7115 ae3c b6f5 993b
00000010: fc2f 433d fa4f febd c61a 62bc 40ab 7a3d
00000020: bcc1 87bc 48a6 d03a 0d3b b13c 07ad 723d
00000030: beec d43d fb66 2f3a 0e94 35bd c7e7 87bb
00000040: f60a c2bb f5b8 bbbc 020b 9ebd e823 fe3d
00000050: d0db d8bd ee41 f93d b9ca 913d 8f53 743b
00000060: 2bcc e53d 5714 bf3d 2bc5 e43c 5427 e73c
00000070: 46fb b33d 6853 f33c d780 9abd a643 00be
00000080: 40d7 e5bd 9bbb 81bd 5edc c53d e481 c0bd
00000090: 91ad 05bd 495d b6bd cf4f 3f3d 4c21 05be
000000a0: a820 023e 9b75 25bc d02a 273c d58e 04bc
000000b0: 9d67 c73d 466f cc3c e042 103e db3f c7ba
000000c0: 9886 ca3d 9fda 0d3d 4bbb fdbd 12d4 09be
000000d0: a6fb fcbd 22d4 353d 25e0 0d3e 664a 1e3d
000000e0: a146 06be 52f4 30bd 245f 253d 4ecf fbbd
000000f0: d1ef 0f3e d42e d73d 18e1 9d3a fd1a 3d3d
00000100: d018 943d bfb0 5fbd 02a6 de3c d986 42bd
00000110: 16c4 073e 45f1 33bd 6f67 94bc 3782 4bbd
00000120: 71b2 03be fe7d b2bd 0a08 1ebd 7bb6 d7bd
00000130: 5cca e1bd 9ddf 9abd 4603 e83c 8249 9d3d
00000140: d202 a03d 6833 ce3d f442 aebd b2e4 f0bd
00000150: 2861 093e 037c bf3d 4dbd b8bd 1864 9fbc
00000160: 9516 b93d 1a1f bdbd 9323 c3bc 5c38 c9bd
00000170: 6472 fdbd 6113 003e ae09 abbd 6af1 c33c
00000180: 1432 e6bd 4b97 053d 7f83 023e e368 05be
00000190: a4f9 bc3d 8c93 adbc c3d8 c63d 5f8a b93d
000001a0: 8dcc d5bd b4c0 813d 1d09 ad3d d133 053e
000001b0: b1bd 10be 6a23 103e 52c2 cebd b14b f43d
000001c0: 71db cebc e9ba fd3d 7a1b ffbd bdc3 41bd
000001d0: 0275 fc3d 36f8 7b3d 1e4c 1abd 4cd2 3ebd
000001e0: 895c 053e 7331 923d bd99 de3c 43b2 18bd
000001f0: a707 d2bd 33dd c3bd 1b8d 97bd b20f 053e
00000200: ebea 37bc 076d 993c c94d b5bb e3b0 923b
00000210: eb27 d83c 735f afbd 5c3b e5bd 39e0 f1bd
00000220: 88ec 9bbd 1970 563d b81a 8c3a d7da f1ba
00000230: ec3f 96bd be9c 8abc 7c3e e0bd 3d5b e03d
00000240: 420e b63d f22f b5bb 86c3 643d 7a1e c1bd
00000250: d4dd 783c 0b14 69bd e682 3dbd aedb 63bd
00000260: 4b50 083e 0908 0dbe ec96 45bd db31 b23d
00000270: 2796 06bd ad81 813d edbc 473d 481b 09be
00000280: 1567 943d 4b6a 5abd 076d dabd 81bc 993c
00000290: 3ae1 d2bd 30f6 7a3d e965 a5bc 3770 3bbd
000002a0: 4d8b 56bd dde1 9dbd efb0 dc3d 76e4 6b3d
000002b0: 75ee 003d 14d4 e33d a949 b23d b946 e83d
000002c0: 2de0 d2bc 5ef7 d6bd e18a f5bd 0725 b6bd
000002d0: a9e8 f33d 411e e6bd c6fa 1c3d d298 7f3d
000002e0: c358 213d 2794 fc3d fe33 0b3d 671d f2bd
000002f0: 675a 5cbd 9e1b bbbd 0477 6bbc 6634 d4bd
00000300: 28b3 6b3d aa39 ee3c 5f3a 843d a98d 81bd
00000310: 0079 8f3c 3ab2 8a3d 84de f13d 0f8e 96bc
00000320: c84f aa3b 7b98 f6bc 3c7b f53d d9e1 febd
00000330: 197a c7bd 06ef 68bd 3256 c6bc 3304 2bbd
00000340: 01ff 12bd 24de d73d 1e64 593d c54a c9bd
00000350: 1966 a43d 1950 da3d 9675 92bd d00f adbd
00000360: 4cff dfbd 250b 173d 3763 983d abe0 d43d
00000370: c1fb 3a3d e779 0a3e ec8b d3bd bf34 273d
00000380: 534c a33d 1242 e33d 6c0f 0e3e 2996 5bbd
00000390: f34e e33d a1fe 09be a195 b1bd 52bc 833d
000003a0: 80c0 9b3d 2632 ffbd 9402 39bd ff30 693c
000003b0: adbf 3b3c 84e1 1f3d 11a5 80bd 5edc dc3d
000003c0: 1f36 e4bc 0354 223d 378b 2a3d 99d2 873d
000003d0: a7ad b1bd e4c9 bfbc a593 6ebb 2f23 a8bd
000003e0: 5d4d 47bc c2eb e3bd 2ca7 153d 99df cbbd
000003f0: 6850 503d c3c6 de3d b89a f3bd 23be 053e

bias f4 [10]
0.04316726 -0.043566525 -0.023872145 0.056238297 -0.050058387 -0.06274058 -0.011870121 -0.003726085
0.03893383 -0.03134726
00000000: 27d0 303d d072 32bd 848f c3bc 215a 663d
00000010: 060a 4dbd 227e 80bd e57a 42bc 5531 74bb
00000020: 1479 1f3d fc65 00bd

weight f4 [8, 1, 7, 7]
0.04562911 0.030998368 -0.11701293 0.078040585 0.11841848 0.025846245 0.09380489 0.031798076
-0.0448394 0.12894532 -0.08533783 -0.092775024 0.11197174 0.052349653 0.0013199194 0.004519701
-0.095409684 -0.092342004 -0.122014 0.12683122 0.13743716 0.030673897 -0.08293668 0.063771404
0.09284762 -0.11343166 -0.01795372 -0.1271406 -0.07623862 0.030761618 -0.11084196 0.0056453263
0.10760361 -0.0016170911 0.13307987 -0.021493623 -0.054251112 0.032509226 0.123616755 0.076729536
-0.122941956 -0.1306285 0.059752278 -0.026278514 -0.013231567 0.10881479 0.09244371 -0.11336477
-0.13106927 0.13533393 0.0650142 0.07175235 -0.08437588 0.014761517 -0.13839462 0.021916833
-0.14047419 -0.10550746 -0.12687646 0.04411466 0.06708081 -0.026145494 0.077276304 0.058388762
-0.121703476 -0.12925047 0.12711735 -0.0069500213 -0.022202697 -0.13063584 0.02113424 0.06563267
-0.121137045 -0.034963932 0.08296561 0.054296955 0.005439401 0.01422625 -0.14029005 0.007497958
-0.027075257 0.07798453 0.06728697 -0.05791809 -0.046193074 0.12026474 0.016001737 -0.023333091
-0.07332259 -0.018829465 0.12584049 0.045575213 0.011468871 -0.12417123 -0.10965944 0.05110853
-0.026660528 -0.08004705 -0.026707344 0.013268454 0.01943304 -0.14257912 -0.12423337 0.102163285
0.09424658 0.023243599 0.12555109 0.11920568 -0.0048399144 0.06369193 -0.13370176 0.096310094
0.11876947 0.019710116 -0.062187675 -0.0019356014 -0.063477606 0.13164674 -0.0559916 -0.058319658
0.11356734 -0.11582668 0.05141204 -0.1144111 0.037342228 0.13610911 -0.11615924 -0.09998736
-0.04665489 -0.04546099 0.00019577572 -0.025996346 -0.033813752 0.0126117645 0.028201582 -0.0854174
-0.03346622 0.08664041 0.025449516 0.115525134 -0.09585679 -0.07890925 0.10568278 0.008944188
0.12989134 0.011974336 0.09377756 0.061945442 -0.016050424 0.09280125 -0.0009865761 -0.08713862
0.0988123 0.100258306 -0.10030321 -0.11834212 0.013147525 0.08759199 -0.11614136 -0.077697776
-0.04412256 0.10309806 -0.00083104207 0.033037953 -0.03214707 -0.0062104296 -0.04991261 0.115984306
-0.120889634 0.08179418 -0.026324851 0.031285405 0.024059637 -0.039322685 0.123079576 -0.052225165
-0.06955598 -0.12084098 0.13152738 0.008407218 -0.100678876 0.02194626 0.11387153 0.09498418
0.027112689 -0.122157715 -0.10437508 0.06584592 -9.5691e-05 0.1299257 -0.07860659 0.06647083
-0.022902302 0.07937672 -0.08973592 0.07646105 0.05532878 0.068256095 0.09101316 -0.019190874
0.071177796 -0.0065756696 0.10027644 0.04252938 0.06266705 0.060508408 0.038484644 -0.099614896
0.11630839 0.058135275 -0.12068621 0.12372496 -0.085326746 -0.03616684 -0.042174377 -0.13170153
0.029019391 -0.023271801 -0.030450227 0.014718891 0.009585619 -0.0946093 -0.05106243 -0.09000288
-0.12931518 -0.07809728 -0.09657642 -0.093837164 0.005713446 0.06761217 -0.123232454 0.037519492
0.13309902 -0.12935601 0.0031604427 -0.023293326 0.029403517 -0.074672155 -0.13354523 0.018075842
-0.07858454 0.09936609 0.0684016 0.098402485 -0.085945524 -0.05793044 -0.0035508361 0.02619173
0.09554245 0.13490215 0.03641255 -0.11553165 -0.0098798275 0.015668018 -0.08484619 -0.1312899
00000000: 97e5 3a3d 4af0 fd3c 7aa4 efbd bed3 9f3d
00000010: 6385 f23d 81bb d33c c71c c03d b33e 023d
00000020: 85a9 37bd 3e0a 043e 9ac5 aebd d500 bebd
00000030: 7151 e53d 976c 563d 2501 ad3a 001a 943b
00000040: 2766 c3bd ce1d bdbd 7ae2 f9bd 0be0 013e
00000050: 54bc 0c3e d347 fb3c b5da a9bd 959a 823d
00000060: e526 be3d dc4e e8bd ae13 93bc 2531 02be
00000070: fe22 9cbd caff fb3c 1c01 e3bd 6efc b83b
00000080: 485f dc3d 93f4 d3ba 1746 083e 6513 b0bc
00000090: 6a36 5ebd 6528 053d c82a fd3d 6024 9d3d
000000a0: fec8 fbbd 7ac3 05be cebe 743d 0a46 d7bc
000000b0: 37c9 58bc 4ada de3d 2153 bd3d ca2b e8bd
000000c0: 0637 06be fa94 0a3e 2a26 853d e5f2 923d
000000d0: 43cd acbd 4ada 713c 52b7 0dbe ee8a b33c
000000e0: 77d8 0fbe 4c14 d8bd e7eb 01be 93b1 343d
000000f0: aa61 893d 132f d6bc 0a43 9e3d 0e29 6f3d
00000100: ac3f f9bd 3c5a 04be 0d2b 023e 01bd e3bb
00000110: 6ee2 b5bc 67c5 05be b721 ad3c 6c6a 863d
00000120: b316 f8bd 5736 0fbd e0e9 a93d 7c66 5e3d
00000130: 013d b23b 3815 693c 32a8 0fbe 6eb1 f53b
00000140: eecc ddbc 5ab6 9f3d c0cd 893d 853b 6dbd
00000150: f334 3dbd 5c4d f63d 1316 833c 0a25 bfbc
00000160: 272a 96bd 4040 9abc 54dc 003e 13ad 3a3d
00000170: eee7 3b3c 7c4d febd 2195 e0bd 2e57 513d
00000180: 2e67 dabc b5ef a3bd 5cc9 dabc ee63 593c
00000190: 0a32 9f3c 4300 12be 116e febd fc3a d13d
000001a0: 5a04 c13d 5c69 be3c 7790 003e 1c22 f43d
000001b0: 2598 9ebb ea70 823d 1de9 08be 3a3e c53d
000001c0: 683d f33d 1c77 a13c 81b8 7ebd 01b4 fdba
000001d0: 8c00 82bd 67ce 063e 7357 65bd 98e0 6ebd
000001e0: fe95 e83d 8a36 edbd 6e95 523d 5e50 eabd
000001f0: 2af4 183d 3060 0b3e e5e4 edbd 2cc6 ccbd
00000200: 3319 3fbd 4e35 3abd 2549 4d39 4af6 d4bc
00000210: 4a80 0abd 93a1 4e3c 0107 e73c 51ef aebd
00000220: e013 09bd 8770 b13d 817b d03c 7198 ec3d
00000230: 9150 c4bd 2c9b a1bd 3770 d83d a58a 123c
00000240: 3c02 053e 0130 443c 730e c03d 81ba 7d3d
00000250: 2e7c 83bc 950e be3d 0050 81ba bc75 b2bd
00000260: 1a5e ca3d 3a54 cd3d c56b cdbd 5a5d f2bd
00000270: b768 573c 6e63 b33d 85db edbd 0320 9fbd
00000280: dcb9 34bd 1325 d33d 4ada 59ba ce52 073d
00000290: a5ac 03bd dc80 cbbb 2a71 4cbd 2e89 ed3d
000002a0: fc94 f7bd b583 a73d 37a7 d7bc 2025 003d
000002b0: b718 c53c d310 21bd 2511 fc3d 0eea 55bd
000002c0: 5e73 8ebd 7a7b f7bd 1daf 063e 6ebe 093c
000002d0: ba30 cebd a5c8 b33c 7a35 e93d 1187 c23d
000002e0: 6e1b de3c d32d fabd 9ac2 d5bd 3ada 863d
000002f0: b7ad c8b8 3e0b 053e 7efc a0bd dc21 883d
00000300: 9c9d bbbc 4390 a23d 77c7 b7bd 9c97 9c3d
00000310: 6ea0 623d dac9 8b3d 1c65 ba3d 2e36 9dbc
00000320: aac5 913d b778 d7bb bc5d cd3d 4a33 2e3d
00000330: 9557 803d aad7 773d 13a2 1d3d e502 ccbd
00000340: 1833 ee3d 411f 6e3d 552a f7bd 8363 fd3d
00000350: cabf aebd ae23 14bd 0abf 2cbd c4dc 06be
00000360: 13ba ed3c 81a4 bebc c172 f9bc 8127 713c
00000370: 000d 1d3c 85c2 c1bd d726 51bd 6e53 b8bd
00000380: 336b 04be 77f1 9fbd dcc9 c5bd b32d c0bd
00000390: dc37 bb3b 4078 8a3d 4c61 fcbd 0aae 193d
000003a0: 1c4b 083e e775 04be 6e1f 4f3b a5d1 bebc
000003b0: a5df f03c b7ed 98bd 15c0 08be ca13 943c
000003c0: eef0 a0bd 7380 cb3d 2316 8c3d 3e87 c93d
000003d0: 3504 b0bd 7848 6dbd 25b5 68bb 0a90 d63c
000003e0: c3ab c33d ca23 0a3e 5325 153d dc9b ecbd
000003f0: 00df 21bc 375a 803c d7c3 adbd dc70 06be

bias f4 [8]
0.09605332 0.12185298 0.054875903 0.13084346 0.04193366 -0.07237597 0.039818868 0.12975614
00000000: 9ab7 c43d 0e8e f93d 8ec5 603d d4fb 053e
00000010: a1c2 2b3d da39 94bd 1c19 233d cbde 043e

weight f4 [10, 8, 5, 5]
-0.0118102385 0.055150088 0.05719246 -0.064202964 0.032022875 -0.0567522 -0.014677438 0.055410404
-0.037371553 -0.0044051553 0.03407734 -0.047939237 0.06439665 -0.050712187 -0.0057165376 0.018437376
-0.06798529 0.04466559 0.070254125 0.06570134 0.037962884 -0.039862577 0.022862365 -0.042624246
0.036238536 0.042383682 0.052029546 -0.026641168 0.027265733 0.06564 0.0217004 -0.054353733
0.052571192 -0.00793793 0.042127438 0.002251704 0.06963494 0.052784033 -0.0037779931 -0.06459567
-0.031968772 -0.035106514 -0.051434524 0.015265345 -0.008736983 0.031902276 -0.04153616 -0.063177645
0.028335681 -0.03775513 -0.052651364 -0.06653927 0.040442534 -0.008126124 0.06919227 -0.0581002
0.06397568 -0.0664979 0.04383341 -0.024536649 0.032952286 0.029383529 -0.042470176 -0.02204529
0.0005418736 -0.012226194 0.03568705 0.050433047 -0.023458574 -0.049719382 0.041383106 -0.0074973768
-0.017501565 0.05359159 -0.051525183 0.07006157 0.050132904 0.03699739 -0.04135513 0.05298656
0.054430727 -0.0662707 0.022383602 0.06484293 -0.051565763 0.052821197 -0.02950604 -0.03137113
0.025988625 -0.030585876 0.044543836 0.052509733 -0.03300376 -0.017696004 0.027988197 -0.034160737
0.04465157 0.041079085 0.053979628 0.02278683 -0.022956116 0.060221694 -0.025109576 -0.01800494
0.033693895 -0.052421495 0.037108246 0.039819814 0.008135716 -0.044059914 0.013614317 0.013283954
0.056252617 -0.05099393 0.022964697 -0.028501984 0.066546276 5.463918e-05 -0.0023435082 0.0020581656
-0.05042064 -0.027623484 -0.03261201 -0.06138367 0.060386516 -0.06775196 -0.044007998 0.03301288
0.03591706 -0.012535569 -0.06886536 -0.057478424 0.005306912 -0.027905699 0.04902826 -0.06921594
-0.039278857 -0.060385782 -0.0063618985 0.042109195 0.029129805 -0.028124887 0.04100758 -0.052849285
-0.040458508 -0.070219986 0.03187472 -0.049866434 0.0010803418 -0.016722007 -0.042848166 -0.045863446
-0.017953824 -0.049311977 -0.06745153 0.032483984 -0.07017445 0.0050430056 -0.062349193 -0.013441356
0.035046514 0.01277922 -0.045942392 -0.0142061105 -0.036422137 0.03440036 -0.027427409 -0.023004746
-0.06468571 0.06453441 0.017695347 0.014657747 0.037942305 0.043900866 0.04706789 -0.056583934
-0.05130811 -0.06645341 0.02686849 -0.06506655 -0.06057739 0.0405478 0.04481595 0.029309569
0.053188734 -0.021601567 0.0001517118 0.06004784 0.06680842 0.058574554 0.0064365407 -0.0130107915
-0.051579542 0.0037151775 -0.028191919 0.04531018 -0.02108515 -0.02767825 -0.05417165 -0.06106733
0.036497597 0.0113201635 0.063021354 -0.0026345574 0.039250452 0.03064838 -0.065675996 0.03299548
0.009980956 -0.059457656 0.002515754 0.0675354 0.004673681 0.041994102 0.04197553 0.07032168
-0.010802752 0.04192161 0.04843094 0.011173071 0.056996502 -0.0595916 -0.031545796 -0.057707958
0.001940854 -0.0018452313 -0.001615042 -0.06646756 -0.0026528407 -0.02669268 -0.025426462 0.055834495
-0.045589548 0.05036272 -0.009971658 -0.021914221 0.060487643 0.022374634 -0.04196278 0.06481833
-0.05281796 0.014555718 -0.0038477462 -0.05067351 0.0043791505 0.035685062 -0.0036962114 -0.036128793
-0.011122503 -0.029168427 -0.0075271158 -0.06120907 -0.04317085 0.0075775315 0.03781127 0.0024032893
00000000: bb7f 41bc 0fe5 613d a442 6a3d d87c 83bd
00000010: 6b2a 033d ff74 68bd a379 70bc 05f6 623d
00000020: ea12 19bd 1f59 90bb ae94 0b3d ef5b 44bd
00000030: 64e2 833d 95b7 4fbd cb51 bbbb fb09 973c
00000040: df3b 8bbd 44f3 363d 65e1 8f3d 6d8e 863d
00000050: f87e 1b3d f146 23bd db49 bb3c c396 2ebd
00000060: dc6e 143d 839a 2d3d ef1c 553d 943e dabc
00000070: 635c df3c 446e 863d 0ac5 b13c 05a2 5ebd
00000080: e454 573d 170e 02bc d28d 2c3d 5391 133b
00000090: c39c 8e3d 1234 583d 3598 77bb bc4a 84bd
000000a0: b0f1 02bd d9cb 0fbd 02ad 52bd 7f1b 7a3c
000000b0: 9025 0fbc f6ab 023d d221 2abd 4863 81bd
000000c0: 3b20 e83c 20a5 1abd f5a8 57bd be45 88bd
000000d0: 12a7 253d 6f23 05bc adb4 8d3d 7afa 6dbd
000000e0: ae05 833d 0d30 88bd a98a 333d 1501 c9bc
000000f0: faf8 063d bab5 f03c 35f5 2dbd 5398 b4bc
00000100: 860c 0e3a 6050 48bc 962c 123d e292 4e3d
00000110: 322c c0bc 8da6 4bbd 5581 293d 8eac f5bb
00000120: 715f 8fbc db82 5b3d 120c 53bd 717c 8f3d
00000130: 2958 4d3d 938a 173d ff63 29bd 6f08 593d
00000140: c1f2 5e3d efb8 87bd d15d b73c 5fcc 843d
00000150: 9f36 53bd 0a5b 583d a7b6 f1bc 047f 00bd
00000160: 19e6 d43c 3b8f fabc 9973 363d 7214 573d
00000170: f32e 07bd 36f7 90bc 8147 e53c 21ec 0bbd
00000180: 91e4 363d 8b42 283d be19 5d3d 72ab ba3c
00000190: 770e bcbc 06ab 763d 99b2 cdbc 197f 93bc
000001a0: 9c02 0a3d ecb7 56bd d1fe 173d 1a1a 233d
000001b0: ab4b 053c 2b78 34bd 960e 5f3c f1a4 593c
000001c0: 2569 663d 03df 50bd 7620 bc3c fe7c e9bc
000001d0: 6a49 883d 5f2c 6538 8b95 19bb 4ae2 063b
000001e0: df85 4ebd a54a e2bc 2c94 05bd 716d 7bbd
000001f0: da57 773d 8ac1 8abd bb41 34bd 8338 073d
00000200: c41d 133d fd61 4dbc 4809 8dbd 7f6e 6bbd
00000210: 9be5 ad3b 7e9a e4bc dbd1 483d 16c1 8dbd
00000220: dee2 20bd 1557 77bd 7977 d0bb b17a 2c3d
00000230: a1a1 ee3c 2a66 e6bc 90f7 273d 7e78 58bd
00000240: d2b7 25bd 7fcf 8fbd 118f 023d bf40 4cbd
00000250: 419a 8d3a 97fc 88bc 8f81 2fbd 4fdb 3bbd
00000260: e613 93bc 5bfb 49bd 0724 8abd ed0d 053d
00000270: 9fb7 8fbd cc3f a53b de61 7fbd 2239 5cbc
00000280: ef8c 0f3d ef5f 513c 172e 3cbd bfc0 68bc
00000290: 612f 15bd 64e7 0c3d 72af e0bc 7374 bcbc
000002a0: f179 84bd 9e2a 843d d5f5 903c 0c27 703c
000002b0: 6469 1b3d 65d1 333d 43ca 403d 8ec4 67bd
000002c0: 7428 52bd ba18 88bd 4f1b dc3c 9d41 85bd
000002d0: ff1f 78bd 7315 263d ee90 373d 9f1a f03c
000002e0: 6edc 593d c5f5 b0bc d414 1f39 b9f4 753d
000002f0: dad2 883d dfeb 6f3d 9ee9 d23b 372b 55bc
00000300: 1245 53bd 567a 733b bdf2 e6bc 2b97 393d
00000310: c4ba acbc 7fbd e2bc 18e3 5dbd bd21 7abd
00000320: 817e 153d 3578 393c 5711 813d 8aa8 2cbb
00000330: 15c5 203d 5012 fb3c 2381 86bd 4526 073d
00000340: 2a87 233c df89 73bd 59df 243b 0050 8a3d
00000350: ae25 993b 0202 2c3d 89ee 2b3d d004 903d
00000360: 07fe 30bc feb5 2b3d 855f 463d 420f 373c
00000370: 2a75 693d 5216 74bd 2a36 01bd 2e5f 6cbd
00000380: 4164 fe3a b0db f1ba d1af d3ba 2520 88bd
00000390: 48db 2dbb 9baa dabc 284b d0bc b6b2 643d
000003a0: 1bbc 3abd 2449 4e3d 2a60 23bc 7485 b3bc
000003b0: e4c1 773d 024b b73c 2ae1 2bbd 79bf 843d
000003c0: a557 58bd 1b7b 6e3c 782a 7cbb 078f 4fbd
000003d0: fa7e 8f3b 802a 123d 233c 72bb c9fb 13bd
000003e0: 293b 36bc a0f2 eebc 06a6 f6bb 5db6 7abd
000003f0: ebd3 30bd f14c f83b fedf 1a3d 8180 1d3b

bias f4 [10]
-0.06272467 0.016879266 0.060794327 -0.06678753 -0.01951459 0.033432357 0.029139169 0.03955631
0.05936903 -0.028585713
00000000: cb75 80bd 6346 8a3c 7903 793d e7c7 88bd
00000010: 10dd 9fbc 5ef0 083d 44b5 ee3c cc05 223d
00000020: f12c 733d 962c eabc

weight f4 [32, 90]
0.019796466 -0.0009885485 -0.009882985 0.08325207 -0.072569706 -0.08598534 0.064970896 -0.01623866
0.057851817 -0.0959855 -0.019590853 0.045530796 0.07952348 -0.06112148 0.006078097 0.010674565
-0.09571071 -0.0011141684 -0.027792627 -0.029132716 -0.09880765 0.052926313 0.101120785 0.03727479
0.054099277 -0.08678021 0.025310926 -0.08714912 0.007921783 0.07938353 -0.074290976 0.00697484
-0.10104843 -0.039495513 -0.07209724 -0.024759239 -0.08463871 0.01736146 -0.01750686 0.03652152
-0.034870844 -0.050185695 -0.073495865 0.08683615 -0.0933148 -0.086337544 -0.1014165 0.104027994
0.0315806 -0.0015582676 0.006430856 0.0039732815 0.014896184 -0.041520346 -0.1043297 -0.010670154
-0.08815766 0.061629776 0.09170369 -0.02919631 0.098499544 0.08754542 0.018330306 0.084470615
0.05370827 -0.017550211 -0.07470546 0.03369767 0.042386554 0.020102544 -0.09643704 -0.08613242
-0.027495585 -0.05533111 0.09228645 0.05177818 0.04717632 -0.0010286208 0.009898164 0.05463174
-0.019241713 0.06186356 0.023989774 0.03714839 -0.04696058 0.04367756 -0.050222915 -0.04980224
-0.03780915 -0.099729 0.09349803 -0.07871039 -0.09386024 -0.019608332 -0.0724446 0.05461132
-0.043581508 0.025516452 0.05992896 0.02186846 0.038973242 -0.0018394014 0.034752037 -0.0074007316
0.056166045 0.075070165 0.09357594 0.03572749 0.059938237 0.079287425 0.102066025 -0.05011373
-0.103273846 -0.066466995 0.021094786 0.033820085 -0.04120992 -0.019055 0.08294885 -0.02480381
-0.02421195 0.015291741 -0.04576359 -0.01698994 0.04562498 0.048332334 0.007768293 -0.043814715
0.09250296 0.09446298 0.026403269 -0.018282128 -0.086550534 -0.038338844 -0.06527007 -0.08730475
0.057203688 0.09820981 0.007440163 -0.029250244 0.06807517 -0.06781087 -0.09929017 -0.04365527
-0.05944367 -0.0734235 0.042059604 0.09808133 0.036387496 0.04231268 0.048065864 -0.063658595
0.06944298 0.064815246 -0.06453518 0.09119548 -0.09459987 0.03962079 -0.009014226 -0.086940765
0.049448 -0.02583106 0.011628558 0.07901838 0.1003577 -0.0001736714 -0.014070023 0.021199849
0.02869471 -0.093409754 0.08891849 0.026181307 0.0047272146 0.035890244 0.0015651914 0.09786656
0.072788484 0.10069084 0.08050464 0.09960064 0.10196269 -0.057370372 -0.014213913 -0.036487583
-0.03384368 0.018236177 -0.04603428 0.053163517 0.08047006 -0.10484429 -0.07550707 -0.03483193
-0.018194282 0.050426092 -0.005565816 -0.06771556 -0.017328437 -0.09389587 -0.055797715 -0.073995784
-0.08694519 0.013240457 0.073047884 0.08635236 -0.10540854 -0.078646116 -0.0742493 -0.049154036
-0.030627338 -0.08327759 0.096015535 -0.05839804 0.07533656 0.021842662 -0.029089652 -0.008364865
-0.018393926 0.007846151 -0.09179147 0.09758667 -0.061094124 -0.07361635 -0.08968029 -0.03524371
-0.04382189 0.0028181237 0.021880135 -0.01755099 0.0891519 0.041097585 -0.09813878 0.093980595
0.024484124 0.051218137 0.0804753 -0.034324158 0.026571097 -0.018888062 0.07705596 -0.03693985
0.047518097 -0.065052226 -0.03717558 -0.028722456 0.094684355 0.06501028 0.03382025 -0.06988999
-0.09324889 0.08877804 0.09884313 -0.041112084 0.06669806 0.06501059 -0.00993884 -0.03167811
00000000: 332c a23c 2f92 81ba 3eec 21bc 1080 aa3d
00000010: 6d9f 94bd 1519 b0bd 760f 853d f006 85bc
00000020: 07f6 6c3d 0c94 c4bd ff7c a0bc 807e 3a3d
00000030: 35dd a23d 845a 7abd c62a c73b 5fe4 2e3c
00000040: fa03 c4bd 4a09 92ba 5dad e3bc bca7 eebc
00000050: aa5b cabd 43c9 583d 6a18 cf3d 73ad 183d
00000060: 3497 5d3d d3b9 b1bd dc58 cf3c 3d7b b2bd
00000070: 5eca 013c d593 a23d de25 98bd 338d e43b
00000080: 7bf2 cebd 0cc6 21bd b8a7 93bd e3d3 cabc
00000090: 0f57 adbd 9f39 8e3c 8c6a 8fbc 9797 153d
000000a0: bbd4 0ebd 848f 4dbd 0085 96bd 27d7 b13d
000000b0: d41b bfbd bdd1 b0bd 74b3 cfbd a10c d53d
000000c0: a95a 013d c93e ccba eeb9 d23b 4d32 823b
000000d0: 200f 743c 3d11 2abd cfaa d5bd dfd1 2ebc
000000e0: 018c b4bd 816f 7c3d 25cf bb3d 1a2d efbc
000000f0: 21ba c93d 034b b33d 7029 963c eefe ac3d
00000100: 34fd 5b3d 76c5 8fbc 2dff 98bd 9106 0a3d
00000110: 869d 2d3d 17ae a43c c880 c5bd 3266 b0bd
00000120: 6c3e e1bc e0a2 62bd ae00 bd3d 5b15 543d
00000130: f53b 413d c9d2 86ba e92b 223c 88c5 5f3d
00000140: cca0 9dbc a564 7d3d 3486 c43c e928 183d
00000150: bd59 40bd 3ee7 323d 8bb6 4dbd 6ffd 4bbd
00000160: c4dd 1abd b83e ccbd e57b bf3d ea32 a1bd
00000170: cc39 c0bd a7a1 a0bc d65d 94bd 1fb0 5f3d
00000180: 8682 32bd e107 d13c 1278 753d 7c25 b33c
00000190: 68a2 1f3d 1218 f1ba 2758 0e3d d681 f2bb
000001a0: 5e0e 663d 63be 993d bea4 bf3d fd56 123d
000001b0: cc81 753d 7261 a23d fe07 d13d 0e44 4dbd
000001c0: 3d81 d3bd d91f 88bd f9ce ac3c ee86 0a3d
000001d0: bccb 28bd 3b19 9cbc 16e1 a93d 5c31 cbbc
000001e0: 2458 c6bc 368a 7a3c 9a72 3bbd 7d2e 8bbc
000001f0: 42e1 3a3d 20f8 453d 2a8d fe3b 0f77 33bd
00000200: 3172 bd3d cf75 c13d ab4b d83c 67c4 95bc
00000210: 6841 b1bd 3109 1dbd 51ac 85bd d5cc b2bd
00000220: 6a4e 6a3d 3a22 c93d 9ccc f33b 359e efbc
00000230: ff6a 8b3d 6de0 8abd a558 cbbd decf 32bd
00000240: 357b 73bd 0f5f 96bd b146 2c3d ddde c83d
00000250: 0e0b 153d 1050 2d3d b6e0 443d 705f 82bd
00000260: 1f38 8e3d dbbd 843d 052b 84bd b2c4 ba3d
00000270: 94bd c1bd 6949 223d 67b0 13bc 000e b2bd
00000280: fc89 4a3d a99b d3bc b585 3e3c 63d4 a13d
00000290: 5688 cd3d 901b 36b9 f485 66bc 4eab ad3c
000002a0: 2b11 eb3c 9d4d bfbd e61a b63d 2e7a d63c
000002b0: c0e6 9a3b a601 133d 1c27 cd3a 436e c83d
000002c0: 2112 953d 0037 ce3d 9edf a43d 6cfb cb3d
000002d0: d1d1 d03d 32fd 6abd 79e1 68bc 0174 15bd
000002e0: ac9f 0abd 0964 953c 718e 3cbd fdc1 593d
000002f0: 7dcd a43d 9ab8 d6bd 73a3 9abd edab 0ebd
00000300: 2d0c 95bc 978b 4e3d 7361 b6bb 75ae 8abd
00000310: 5ef4 8dbc 7a4c c0bd 258c 64bd 1a8b 97bd
00000320: 5210 b2bd 80ee 583c 219a 953d 82d9 b03d
00000330: 6fe0 d7bd 3711 a1bd 0410 98bd be55 49bd
00000340: 2fe6 fabc 718d aabd cba3 c43d c832 6fbd
00000350: 0e4a 9a3d 62ef b23c 6c4d eebc c90c 09bc
00000360: dcae 96bc 248d 003c 2bfd bbbd 85db c73d
00000370: d53d 7abd 2bc4 96bd 4daa b7bd b55b 10bd
00000380: 957e 33bd 45b0 383b f83d b33c 18c7 8fbc
00000390: 4595 b63d f155 283d fcfc c8bd e678 c03d
000003a0: ee92 c83c 1cca 513d 3cd0 a43d 7d97 0cbd
000003b0: a1ab d93c 23bb 9abc 84cf 9d3d 3d4e 17bd
000003c0: 56a2 423d 1a3a 85bd 6c45 18bd 5b4b ebbc
000003d0: dfe9 c13d 1c24 853d 1a87 0a3d 7c22 8fbd
000003e0: 46f9 bebd 43d1 b53d 446e ca3d 2565 28bd
000003f0: fe98 883d 4624 853d 84d6 22bc e8c0 01bd

bias f4 [32]
-0.09838685 0.039389595 0.028129892 0.0537235 -0.08715044 0.09669227 -0.10217076 -0.029410029
-0.036340147 -0.057908125 -0.0020619915 -0.10311174 -0.09820897 -0.018307714 -0.09904381 -0.04416947
0.061938994 0.030793821 0.065596394 0.047172766 -0.044508435 0.060529202 -0.036114745 -0.04785862
0.08266942 -0.09748888 -0.05101712 0.061371148 -0.08402562 -0.045064695 -0.023751013 -0.08209713
00000000: 0b7f c9bd fc56 213d a970 e63c 2c0d 5c3d
00000010: ee7b b2bd 9906 c63d e73e d1bd 4ded f0bc
00000020: 68d9 14bd 1231 6dbd 7a22 07bb 3f2c d3bd
00000030: c921 c9bd 0ffa 95bc 7bd7 cabd 0ceb 34bd
00000040: beb3 7d3d 5343 fc3c 6757 863d 3b38 413d
00000050: 7a4e 36bd 78ed 773d 0eed 13bd 6607 44bd
00000060: 964e a93d 40a8 c7bd 54f7 50bd 5060 7b3d
00000070: a015 acbd c295 38bd 7c91 c2bc 8a22 a8bd
